…
I0815 13:18:56.244683  2789 solver.cpp:81] Creating training net from train_net file: /home/cv/hdl/caffe/training/pascalpart-fcn16s/person/head+torso/train.prototxt
I0815 13:18:56.246045  2789 net.cpp:49] Initializing net from parameters: 
state {
  phase: TRAIN
}
layer {
  name: "data"
  type: "Python"
  top: "data"
  top: "label"
  python_param {
    module: "pascalpart_layers"
    layer: "PASCALPartSegDataLayer"
    param_str: "{\'part\': \'head+torso\', \'obj_cls\': \'person\', \'split\': \'train\', \'part_dir\': \'/home/cv/hdl/caffe/data/pascal/pascal-part\', \'seed\': 1337, \'voc_dir\': \'/home/cv/hdl/caffe/data/pascal/VOC\'}"
  }
}
layer {
  name: "conv1_1"
  type: "Convolution"
  bottom: "data"
  top: "conv1_1"
  param {
    lr_mult: 1
    decay_mult: 1
  }
  param {
    lr_mult: 2
    decay_mult: 0
  }
  convolution_param {
    num_output: 64
    pad: 100
    kernel_size: 3
    stride: 1
  }
}
layer {
  name: "relu1_1"
  type: "ReLU"
  bottom: "conv1_1"
  top: "conv1_1"
}
layer {
  name: "conv1_2"
  type: "Convolution"
  bottom: "conv1_1"
  top: "conv1_2"
  param {
    lr_mult: 1
    decay_mult: 1
  }
  param {
    lr_mult: 2
    decay_mult: 0
  }
  convolution_param {
    num_output: 64
    pad: 1
    kernel_size: 3
    stride: 1
  }
}
layer {
  name: "relu1_2"
  type: "ReLU"
  bottom: "conv1_2"
  top: "conv1_2"
}
layer {
  name: "pool1"
  type: "Pooling"
  bottom: "conv1_2"
  top: "pool1"
  pooling_param {
    pool: MAX
    kernel_size: 2
    stride: 2
  }
}
layer {
  name: "conv2_1"
  type: "Convolution"
  bottom: "pool1"
  top: "conv2_1"
  param {
    lr_mult: 1
    decay_mult: 1
  }
  param {
    lr_mult: 2
    decay_mult: 0
  }
  convolution_param {
    num_output: 128
    pad: 1
    kernel_size: 3
    stride: 1
  }
}
layer {
  name: "relu2_1"
  type: "ReLU"
  bottom: "conv2_1"
  top: "conv2_1"
}
layer {
  name: "conv2_2"
  type: "Convolution"
  bottom: "conv2_1"
  top: "conv2_2"
  param {
    lr_mult: 1
    decay_mult: 1
  }
  param {
    lr_mult: 2
    decay_mult: 0
  }
  convolution_param {
    num_output: 128
    pad: 1
    kernel_size: 3
    stride: 1
  }
}
layer {
  name: "relu2_2"
  type: "ReLU"
  bottom: "conv2_2"
  top: "conv2_2"
}
layer {
  name: "pool2"
  type: "Pooling"
  bottom: "conv2_2"
  top: "pool2"
  pooling_param {
    pool: MAX
    kernel_size: 2
    stride: 2
  }
}
layer {
  name: "conv3_1"
  type: "Convolution"
  bottom: "pool2"
  top: "conv3_1"
  param {
    lr_mult: 1
    decay_mult: 1
  }
  param {
    lr_mult: 2
    decay_mult: 0
  }
  convolution_param {
    num_output: 256
    pad: 1
    kernel_size: 3
    stride: 1
  }
}
layer {
  name: "relu3_1"
  type: "ReLU"
  bottom: "conv3_1"
  top: "conv3_1"
}
layer {
  name: "conv3_2"
  type: "Convolution"
  bottom: "conv3_1"
  top: "conv3_2"
  param {
    lr_mult: 1
    decay_mult: 1
  }
  param {
    lr_mult: 2
    decay_mult: 0
  }
  convolution_param {
    num_output: 256
    pad: 1
    kernel_size: 3
    stride: 1
  }
}
layer {
  name: "relu3_2"
  type: "ReLU"
  bottom: "conv3_2"
  top: "conv3_2"
}
layer {
  name: "conv3_3"
  type: "Convolution"
  bottom: "conv3_2"
  top: "conv3_3"
  param {
    lr_mult: 1
    decay_mult: 1
  }
  param {
    lr_mult: 2
    decay_mult: 0
  }
  convolution_param {
    num_output: 256
    pad: 1
    kernel_size: 3
    stride: 1
  }
}
layer {
  name: "relu3_3"
  type: "ReLU"
  bottom: "conv3_3"
  top: "conv3_3"
}
layer {
  name: "pool3"
  type: "Pooling"
  bottom: "conv3_3"
  top: "pool3"
  pooling_param {
    pool: MAX
    kernel_size: 2
    stride: 2
  }
}
layer {
  name: "conv4_1"
  type: "Convolution"
  bottom: "pool3"
  top: "conv4_1"
  param {
    lr_mult: 1
    decay_mult: 1
  }
  param {
    lr_mult: 2
    decay_mult: 0
  }
  convolution_param {
    num_output: 512
    pad: 1
    kernel_size: 3
    stride: 1
  }
}
layer {
  name: "relu4_1"
  type: "ReLU"
  bottom: "conv4_1"
  top: "conv4_1"
}
layer {
  name: "conv4_2"
  type: "Convolution"
  bottom: "conv4_1"
  top: "conv4_2"
  param {
    lr_mult: 1
    decay_mult: 1
  }
  param {
    lr_mult: 2
    decay_mult: 0
  }
  convolution_param {
    num_output: 512
    pad: 1
    kernel_size: 3
    stride: 1
  }
}
layer {
  name: "relu4_2"
  type: "ReLU"
  bottom: "conv4_2"
  top: "conv4_2"
}
layer {
  name: "conv4_3"
  type: "Convolution"
  bottom: "conv4_2"
  top: "conv4_3"
  param {
    lr_mult: 1
    decay_mult: 1
  }
  param {
    lr_mult: 2
    decay_mult: 0
  }
  convolution_param {
    num_output: 512
    pad: 1
    kernel_size: 3
    stride: 1
  }
}
layer {
  name: "relu4_3"
  type: "ReLU"
  bottom: "conv4_3"
  top: "conv4_3"
}
layer {
  name: "pool4"
  type: "Pooling"
  bottom: "conv4_3"
  top: "pool4"
  pooling_param {
    pool: MAX
    kernel_size: 2
    stride: 2
  }
}
layer {
  name: "conv5_1"
  type: "Convolution"
  bottom: "pool4"
  top: "conv5_1"
  param {
    lr_mult: 1
    decay_mult: 1
  }
  param {
    lr_mult: 2
    decay_mult: 0
  }
  convolution_param {
    num_output: 512
    pad: 1
    kernel_size: 3
    stride: 1
  }
}
layer {
  name: "relu5_1"
  type: "ReLU"
  bottom: "conv5_1"
  top: "conv5_1"
}
layer {
  name: "conv5_2"
  type: "Convolution"
  bottom: "conv5_1"
  top: "conv5_2"
  param {
    lr_mult: 1
    decay_mult: 1
  }
  param {
    lr_mult: 2
    decay_mult: 0
  }
  convolution_param {
    num_output: 512
    pad: 1
    kernel_size: 3
    stride: 1
  }
}
layer {
  name: "relu5_2"
  type: "ReLU"
  bottom: "conv5_2"
  top: "conv5_2"
}
layer {
  name: "conv5_3"
  type: "Convolution"
  bottom: "conv5_2"
  top: "conv5_3"
  param {
    lr_mult: 1
    decay_mult: 1
  }
  param {
    lr_mult: 2
    decay_mult: 0
  }
  convolution_param {
    num_output: 512
    pad: 1
    kernel_size: 3
    stride: 1
  }
}
layer {
  name: "relu5_3"
  type: "ReLU"
  bottom: "conv5_3"
  top: "conv5_3"
}
layer {
  name: "pool5"
  type: "Pooling"
  bottom: "conv5_3"
  top: "pool5"
  pooling_param {
    pool: MAX
    kernel_size: 2
    stride: 2
  }
}
layer {
  name: "fc6"
  type: "Convolution"
  bottom: "pool5"
  top: "fc6"
  param {
    lr_mult: 1
    decay_mult: 1
  }
  param {
    lr_mult: 2
    decay_mult: 0
  }
  convolution_param {
    num_output: 4096
    pad: 0
    kernel_size: 7
    stride: 1
  }
}
layer {
  name: "relu6"
  type: "ReLU"
  bottom: "fc6"
  top: "fc6"
}
layer {
  name: "drop6"
  type: "Dropout"
  bottom: "fc6"
  top: "fc6"
  dropout_param {
    dropout_ratio: 0.5
  }
}
layer {
  name: "fc7"
  type: "Convolution"
  bottom: "fc6"
  top: "fc7"
  param {
    lr_mult: 1
    decay_mult: 1
  }
  param {
    lr_mult: 2
    decay_mult: 0
  }
  convolution_param {
    num_output: 4096
    pad: 0
    kernel_size: 1
    stride: 1
  }
}
layer {
  name: "relu7"
  type: "ReLU"
  bottom: "fc7"
  top: "fc7"
}
layer {
  name: "drop7"
  type: "Dropout"
  bottom: "fc7"
  top: "fc7"
  dropout_param {
    dropout_ratio: 0.5
  }
}
layer {
  name: "score_fr"
  type: "Convolution"
  bottom: "fc7"
  top: "score_fr"
  param {
    lr_mult: 1
    decay_mult: 1
  }
  param {
    lr_mult: 2
    decay_mult: 0
  }
  convolution_param {
    num_output: 11
    pad: 0
    kernel_size: 1
  }
}
layer {
  name: "upscore2"
  type: "Deconvolution"
  bottom: "score_fr"
  top: "upscore2"
  param {
    lr_mult: 0
  }
  convolution_param {
    num_output: 11
    bias_term: false
    kernel_size: 4
    stride: 2
  }
}
layer {
  name: "score_pool4"
  type: "Convolution"
  bottom: "pool4"
  top: "score_pool4"
  param {
    lr_mult: 1
    decay_mult: 1
  }
  param {
    lr_mult: 2
    decay_mult: 0
  }
  convolution_param {
    num_output: 11
    pad: 0
    kernel_size: 1
  }
}
layer {
  name: "score_pool4c"
  type: "Crop"
  bottom: "score_pool4"
  bottom: "upscore2"
  top: "score_pool4c"
  crop_param {
    axis: 2
    offset: 5
  }
}
layer {
  name: "fuse_pool4"
  type: "Eltwise"
  bottom: "upscore2"
  bottom: "score_pool4c"
  top: "fuse_pool4"
  eltwise_param {
    operation: SUM
  }
}
layer {
  name: "upscore16"
  type: "Deconvolution"
  bottom: "fuse_pool4"
  top: "upscore16"
  param {
    lr_mult: 0
  }
  convolution_param {
    num_output: 11
    bias_term: false
    kernel_size: 32
    stride: 16
  }
}
layer {
  name: "score"
  type: "Crop"
  bottom: "upscore16"
  bottom: "data"
  top: "score"
  crop_param {
    axis: 2
    offset: 27
  }
}
layer {
  name: "loss"
  type: "SoftmaxWithLoss"
  bottom: "score"
  bottom: "label"
  top: "loss"
  loss_param {
    ignore_label: 255
    normalize: false
  }
}
I0815 13:18:56.246280  2789 layer_factory.hpp:77] Creating layer data
I0815 13:18:57.128526  2789 net.cpp:91] Creating Layer data
I0815 13:18:57.128542  2789 net.cpp:399] data -> data
I0815 13:18:57.128551  2789 net.cpp:399] data -> label
I0815 13:18:58.032799  2789 net.cpp:141] Setting up data
I0815 13:18:58.032829  2789 net.cpp:148] Top shape: 1 3 500 333 (499500)
I0815 13:18:58.032835  2789 net.cpp:148] Top shape: 1 1 500 333 (166500)
I0815 13:18:58.032838  2789 net.cpp:156] Memory required for data: 2664000
I0815 13:18:58.032845  2789 layer_factory.hpp:77] Creating layer data_data_0_split
I0815 13:18:58.032861  2789 net.cpp:91] Creating Layer data_data_0_split
I0815 13:18:58.032866  2789 net.cpp:425] data_data_0_split <- data
I0815 13:18:58.032873  2789 net.cpp:399] data_data_0_split -> data_data_0_split_0
I0815 13:18:58.032889  2789 net.cpp:399] data_data_0_split -> data_data_0_split_1
I0815 13:18:58.032927  2789 net.cpp:141] Setting up data_data_0_split
I0815 13:18:58.032937  2789 net.cpp:148] Top shape: 1 3 500 333 (499500)
I0815 13:18:58.032940  2789 net.cpp:148] Top shape: 1 3 500 333 (499500)
I0815 13:18:58.032943  2789 net.cpp:156] Memory required for data: 6660000
I0815 13:18:58.032948  2789 layer_factory.hpp:77] Creating layer conv1_1
I0815 13:18:58.032958  2789 net.cpp:91] Creating Layer conv1_1
I0815 13:18:58.032961  2789 net.cpp:425] conv1_1 <- data_data_0_split_0
I0815 13:18:58.032968  2789 net.cpp:399] conv1_1 -> conv1_1
I0815 13:18:59.525925  2789 net.cpp:141] Setting up conv1_1
I0815 13:18:59.525955  2789 net.cpp:148] Top shape: 1 64 698 531 (23720832)
I0815 13:18:59.525959  2789 net.cpp:156] Memory required for data: 101543328
I0815 13:18:59.525975  2789 layer_factory.hpp:77] Creating layer relu1_1
I0815 13:18:59.525987  2789 net.cpp:91] Creating Layer relu1_1
I0815 13:18:59.525991  2789 net.cpp:425] relu1_1 <- conv1_1
I0815 13:18:59.526001  2789 net.cpp:386] relu1_1 -> conv1_1 (in-place)
I0815 13:18:59.526361  2789 net.cpp:141] Setting up relu1_1
I0815 13:18:59.526374  2789 net.cpp:148] Top shape: 1 64 698 531 (23720832)
I0815 13:18:59.526378  2789 net.cpp:156] Memory required for data: 196426656
I0815 13:18:59.526381  2789 layer_factory.hpp:77] Creating layer conv1_2
I0815 13:18:59.526393  2789 net.cpp:91] Creating Layer conv1_2
I0815 13:18:59.526397  2789 net.cpp:425] conv1_2 <- conv1_1
I0815 13:18:59.526403  2789 net.cpp:399] conv1_2 -> conv1_2
I0815 13:18:59.538486  2789 net.cpp:141] Setting up conv1_2
I0815 13:18:59.538511  2789 net.cpp:148] Top shape: 1 64 698 531 (23720832)
I0815 13:18:59.538516  2789 net.cpp:156] Memory required for data: 291309984
I0815 13:18:59.538532  2789 layer_factory.hpp:77] Creating layer relu1_2
I0815 13:18:59.538542  2789 net.cpp:91] Creating Layer relu1_2
I0815 13:18:59.538545  2789 net.cpp:425] relu1_2 <- conv1_2
I0815 13:18:59.538555  2789 net.cpp:386] relu1_2 -> conv1_2 (in-place)
I0815 13:18:59.538949  2789 net.cpp:141] Setting up relu1_2
I0815 13:18:59.538960  2789 net.cpp:148] Top shape: 1 64 698 531 (23720832)
I0815 13:18:59.538964  2789 net.cpp:156] Memory required for data: 386193312
I0815 13:18:59.538967  2789 layer_factory.hpp:77] Creating layer pool1
I0815 13:18:59.538975  2789 net.cpp:91] Creating Layer pool1
I0815 13:18:59.538977  2789 net.cpp:425] pool1 <- conv1_2
I0815 13:18:59.538982  2789 net.cpp:399] pool1 -> pool1
I0815 13:18:59.539034  2789 net.cpp:141] Setting up pool1
I0815 13:18:59.539041  2789 net.cpp:148] Top shape: 1 64 349 266 (5941376)
I0815 13:18:59.539043  2789 net.cpp:156] Memory required for data: 409958816
I0815 13:18:59.539047  2789 layer_factory.hpp:77] Creating layer conv2_1
I0815 13:18:59.539054  2789 net.cpp:91] Creating Layer conv2_1
I0815 13:18:59.539057  2789 net.cpp:425] conv2_1 <- pool1
I0815 13:18:59.539062  2789 net.cpp:399] conv2_1 -> conv2_1
I0815 13:18:59.543265  2789 net.cpp:141] Setting up conv2_1
I0815 13:18:59.543282  2789 net.cpp:148] Top shape: 1 128 349 266 (11882752)
I0815 13:18:59.543285  2789 net.cpp:156] Memory required for data: 457489824
I0815 13:18:59.543295  2789 layer_factory.hpp:77] Creating layer relu2_1
I0815 13:18:59.543304  2789 net.cpp:91] Creating Layer relu2_1
I0815 13:18:59.543308  2789 net.cpp:425] relu2_1 <- conv2_1
I0815 13:18:59.543313  2789 net.cpp:386] relu2_1 -> conv2_1 (in-place)
I0815 13:18:59.543488  2789 net.cpp:141] Setting up relu2_1
I0815 13:18:59.543496  2789 net.cpp:148] Top shape: 1 128 349 266 (11882752)
I0815 13:18:59.543499  2789 net.cpp:156] Memory required for data: 505020832
I0815 13:18:59.543503  2789 layer_factory.hpp:77] Creating layer conv2_2
I0815 13:18:59.543510  2789 net.cpp:91] Creating Layer conv2_2
I0815 13:18:59.543514  2789 net.cpp:425] conv2_2 <- conv2_1
I0815 13:18:59.543519  2789 net.cpp:399] conv2_2 -> conv2_2
I0815 13:18:59.545310  2789 net.cpp:141] Setting up conv2_2
I0815 13:18:59.545323  2789 net.cpp:148] Top shape: 1 128 349 266 (11882752)
I0815 13:18:59.545327  2789 net.cpp:156] Memory required for data: 552551840
I0815 13:18:59.545334  2789 layer_factory.hpp:77] Creating layer relu2_2
I0815 13:18:59.545341  2789 net.cpp:91] Creating Layer relu2_2
I0815 13:18:59.545344  2789 net.cpp:425] relu2_2 <- conv2_2
I0815 13:18:59.545349  2789 net.cpp:386] relu2_2 -> conv2_2 (in-place)
I0815 13:18:59.545686  2789 net.cpp:141] Setting up relu2_2
I0815 13:18:59.545696  2789 net.cpp:148] Top shape: 1 128 349 266 (11882752)
I0815 13:18:59.545699  2789 net.cpp:156] Memory required for data: 600082848
I0815 13:18:59.545702  2789 layer_factory.hpp:77] Creating layer pool2
I0815 13:18:59.545709  2789 net.cpp:91] Creating Layer pool2
I0815 13:18:59.545712  2789 net.cpp:425] pool2 <- conv2_2
I0815 13:18:59.545718  2789 net.cpp:399] pool2 -> pool2
I0815 13:18:59.545758  2789 net.cpp:141] Setting up pool2
I0815 13:18:59.545764  2789 net.cpp:148] Top shape: 1 128 175 133 (2979200)
I0815 13:18:59.545766  2789 net.cpp:156] Memory required for data: 611999648
I0815 13:18:59.545769  2789 layer_factory.hpp:77] Creating layer conv3_1
I0815 13:18:59.545775  2789 net.cpp:91] Creating Layer conv3_1
I0815 13:18:59.545778  2789 net.cpp:425] conv3_1 <- pool2
I0815 13:18:59.545784  2789 net.cpp:399] conv3_1 -> conv3_1
I0815 13:18:59.547492  2789 net.cpp:141] Setting up conv3_1
I0815 13:18:59.547505  2789 net.cpp:148] Top shape: 1 256 175 133 (5958400)
I0815 13:18:59.547508  2789 net.cpp:156] Memory required for data: 635833248
I0815 13:18:59.547519  2789 layer_factory.hpp:77] Creating layer relu3_1
I0815 13:18:59.547526  2789 net.cpp:91] Creating Layer relu3_1
I0815 13:18:59.547529  2789 net.cpp:425] relu3_1 <- conv3_1
I0815 13:18:59.547534  2789 net.cpp:386] relu3_1 -> conv3_1 (in-place)
I0815 13:18:59.547865  2789 net.cpp:141] Setting up relu3_1
I0815 13:18:59.547876  2789 net.cpp:148] Top shape: 1 256 175 133 (5958400)
I0815 13:18:59.547879  2789 net.cpp:156] Memory required for data: 659666848
I0815 13:18:59.547883  2789 layer_factory.hpp:77] Creating layer conv3_2
I0815 13:18:59.547891  2789 net.cpp:91] Creating Layer conv3_2
I0815 13:18:59.547894  2789 net.cpp:425] conv3_2 <- conv3_1
I0815 13:18:59.547900  2789 net.cpp:399] conv3_2 -> conv3_2
I0815 13:18:59.550114  2789 net.cpp:141] Setting up conv3_2
I0815 13:18:59.550130  2789 net.cpp:148] Top shape: 1 256 175 133 (5958400)
I0815 13:18:59.550133  2789 net.cpp:156] Memory required for data: 683500448
I0815 13:18:59.550140  2789 layer_factory.hpp:77] Creating layer relu3_2
I0815 13:18:59.550148  2789 net.cpp:91] Creating Layer relu3_2
I0815 13:18:59.550153  2789 net.cpp:425] relu3_2 <- conv3_2
I0815 13:18:59.550158  2789 net.cpp:386] relu3_2 -> conv3_2 (in-place)
I0815 13:18:59.550321  2789 net.cpp:141] Setting up relu3_2
I0815 13:18:59.550330  2789 net.cpp:148] Top shape: 1 256 175 133 (5958400)
I0815 13:18:59.550333  2789 net.cpp:156] Memory required for data: 707334048
I0815 13:18:59.550336  2789 layer_factory.hpp:77] Creating layer conv3_3
I0815 13:18:59.550348  2789 net.cpp:91] Creating Layer conv3_3
I0815 13:18:59.550350  2789 net.cpp:425] conv3_3 <- conv3_2
I0815 13:18:59.550356  2789 net.cpp:399] conv3_3 -> conv3_3
I0815 13:18:59.552736  2789 net.cpp:141] Setting up conv3_3
I0815 13:18:59.552752  2789 net.cpp:148] Top shape: 1 256 175 133 (5958400)
I0815 13:18:59.552754  2789 net.cpp:156] Memory required for data: 731167648
I0815 13:18:59.552763  2789 layer_factory.hpp:77] Creating layer relu3_3
I0815 13:18:59.552770  2789 net.cpp:91] Creating Layer relu3_3
I0815 13:18:59.552773  2789 net.cpp:425] relu3_3 <- conv3_3
I0815 13:18:59.552778  2789 net.cpp:386] relu3_3 -> conv3_3 (in-place)
I0815 13:18:59.553112  2789 net.cpp:141] Setting up relu3_3
I0815 13:18:59.553123  2789 net.cpp:148] Top shape: 1 256 175 133 (5958400)
I0815 13:18:59.553127  2789 net.cpp:156] Memory required for data: 755001248
I0815 13:18:59.553129  2789 layer_factory.hpp:77] Creating layer pool3
I0815 13:18:59.553135  2789 net.cpp:91] Creating Layer pool3
I0815 13:18:59.553138  2789 net.cpp:425] pool3 <- conv3_3
I0815 13:18:59.553143  2789 net.cpp:399] pool3 -> pool3
I0815 13:18:59.553186  2789 net.cpp:141] Setting up pool3
I0815 13:18:59.553192  2789 net.cpp:148] Top shape: 1 256 88 67 (1509376)
I0815 13:18:59.553195  2789 net.cpp:156] Memory required for data: 761038752
I0815 13:18:59.553198  2789 layer_factory.hpp:77] Creating layer conv4_1
I0815 13:18:59.553206  2789 net.cpp:91] Creating Layer conv4_1
I0815 13:18:59.553210  2789 net.cpp:425] conv4_1 <- pool3
I0815 13:18:59.553215  2789 net.cpp:399] conv4_1 -> conv4_1
I0815 13:18:59.557595  2789 net.cpp:141] Setting up conv4_1
I0815 13:18:59.557620  2789 net.cpp:148] Top shape: 1 512 88 67 (3018752)
I0815 13:18:59.557622  2789 net.cpp:156] Memory required for data: 773113760
I0815 13:18:59.557631  2789 layer_factory.hpp:77] Creating layer relu4_1
I0815 13:18:59.557643  2789 net.cpp:91] Creating Layer relu4_1
I0815 13:18:59.557647  2789 net.cpp:425] relu4_1 <- conv4_1
I0815 13:18:59.557653  2789 net.cpp:386] relu4_1 -> conv4_1 (in-place)
I0815 13:18:59.558141  2789 net.cpp:141] Setting up relu4_1
I0815 13:18:59.558151  2789 net.cpp:148] Top shape: 1 512 88 67 (3018752)
I0815 13:18:59.558156  2789 net.cpp:156] Memory required for data: 785188768
I0815 13:18:59.558158  2789 layer_factory.hpp:77] Creating layer conv4_2
I0815 13:18:59.558167  2789 net.cpp:91] Creating Layer conv4_2
I0815 13:18:59.558171  2789 net.cpp:425] conv4_2 <- conv4_1
I0815 13:18:59.558176  2789 net.cpp:399] conv4_2 -> conv4_2
I0815 13:18:59.563786  2789 net.cpp:141] Setting up conv4_2
I0815 13:18:59.563814  2789 net.cpp:148] Top shape: 1 512 88 67 (3018752)
I0815 13:18:59.563817  2789 net.cpp:156] Memory required for data: 797263776
I0815 13:18:59.563832  2789 layer_factory.hpp:77] Creating layer relu4_2
I0815 13:18:59.563840  2789 net.cpp:91] Creating Layer relu4_2
I0815 13:18:59.563845  2789 net.cpp:425] relu4_2 <- conv4_2
I0815 13:18:59.563851  2789 net.cpp:386] relu4_2 -> conv4_2 (in-place)
I0815 13:18:59.564013  2789 net.cpp:141] Setting up relu4_2
I0815 13:18:59.564021  2789 net.cpp:148] Top shape: 1 512 88 67 (3018752)
I0815 13:18:59.564023  2789 net.cpp:156] Memory required for data: 809338784
I0815 13:18:59.564026  2789 layer_factory.hpp:77] Creating layer conv4_3
I0815 13:18:59.564035  2789 net.cpp:91] Creating Layer conv4_3
I0815 13:18:59.564038  2789 net.cpp:425] conv4_3 <- conv4_2
I0815 13:18:59.564044  2789 net.cpp:399] conv4_3 -> conv4_3
I0815 13:18:59.569602  2789 net.cpp:141] Setting up conv4_3
I0815 13:18:59.569631  2789 net.cpp:148] Top shape: 1 512 88 67 (3018752)
I0815 13:18:59.569634  2789 net.cpp:156] Memory required for data: 821413792
I0815 13:18:59.569643  2789 layer_factory.hpp:77] Creating layer relu4_3
I0815 13:18:59.569653  2789 net.cpp:91] Creating Layer relu4_3
I0815 13:18:59.569658  2789 net.cpp:425] relu4_3 <- conv4_3
I0815 13:18:59.569664  2789 net.cpp:386] relu4_3 -> conv4_3 (in-place)
I0815 13:18:59.569988  2789 net.cpp:141] Setting up relu4_3
I0815 13:18:59.569998  2789 net.cpp:148] Top shape: 1 512 88 67 (3018752)
I0815 13:18:59.570000  2789 net.cpp:156] Memory required for data: 833488800
I0815 13:18:59.570003  2789 layer_factory.hpp:77] Creating layer pool4
I0815 13:18:59.570009  2789 net.cpp:91] Creating Layer pool4
I0815 13:18:59.570011  2789 net.cpp:425] pool4 <- conv4_3
I0815 13:18:59.570019  2789 net.cpp:399] pool4 -> pool4
I0815 13:18:59.570060  2789 net.cpp:141] Setting up pool4
I0815 13:18:59.570065  2789 net.cpp:148] Top shape: 1 512 44 34 (765952)
I0815 13:18:59.570067  2789 net.cpp:156] Memory required for data: 836552608
I0815 13:18:59.570070  2789 layer_factory.hpp:77] Creating layer pool4_pool4_0_split
I0815 13:18:59.570075  2789 net.cpp:91] Creating Layer pool4_pool4_0_split
I0815 13:18:59.570078  2789 net.cpp:425] pool4_pool4_0_split <- pool4
I0815 13:18:59.570081  2789 net.cpp:399] pool4_pool4_0_split -> pool4_pool4_0_split_0
I0815 13:18:59.570087  2789 net.cpp:399] pool4_pool4_0_split -> pool4_pool4_0_split_1
I0815 13:18:59.570117  2789 net.cpp:141] Setting up pool4_pool4_0_split
I0815 13:18:59.570122  2789 net.cpp:148] Top shape: 1 512 44 34 (765952)
I0815 13:18:59.570125  2789 net.cpp:148] Top shape: 1 512 44 34 (765952)
I0815 13:18:59.570127  2789 net.cpp:156] Memory required for data: 842680224
I0815 13:18:59.570130  2789 layer_factory.hpp:77] Creating layer conv5_1
I0815 13:18:59.570137  2789 net.cpp:91] Creating Layer conv5_1
I0815 13:18:59.570140  2789 net.cpp:425] conv5_1 <- pool4_pool4_0_split_0
I0815 13:18:59.570145  2789 net.cpp:399] conv5_1 -> conv5_1
I0815 13:18:59.575443  2789 net.cpp:141] Setting up conv5_1
I0815 13:18:59.575471  2789 net.cpp:148] Top shape: 1 512 44 34 (765952)
I0815 13:18:59.575474  2789 net.cpp:156] Memory required for data: 845744032
I0815 13:18:59.575482  2789 layer_factory.hpp:77] Creating layer relu5_1
I0815 13:18:59.575492  2789 net.cpp:91] Creating Layer relu5_1
I0815 13:18:59.575496  2789 net.cpp:425] relu5_1 <- conv5_1
I0815 13:18:59.575501  2789 net.cpp:386] relu5_1 -> conv5_1 (in-place)
I0815 13:18:59.575824  2789 net.cpp:141] Setting up relu5_1
I0815 13:18:59.575832  2789 net.cpp:148] Top shape: 1 512 44 34 (765952)
I0815 13:18:59.575835  2789 net.cpp:156] Memory required for data: 848807840
I0815 13:18:59.575839  2789 layer_factory.hpp:77] Creating layer conv5_2
I0815 13:18:59.575847  2789 net.cpp:91] Creating Layer conv5_2
I0815 13:18:59.575850  2789 net.cpp:425] conv5_2 <- conv5_1
I0815 13:18:59.575855  2789 net.cpp:399] conv5_2 -> conv5_2
I0815 13:18:59.581311  2789 net.cpp:141] Setting up conv5_2
I0815 13:18:59.581338  2789 net.cpp:148] Top shape: 1 512 44 34 (765952)
I0815 13:18:59.581343  2789 net.cpp:156] Memory required for data: 851871648
I0815 13:18:59.581352  2789 layer_factory.hpp:77] Creating layer relu5_2
I0815 13:18:59.581364  2789 net.cpp:91] Creating Layer relu5_2
I0815 13:18:59.581369  2789 net.cpp:425] relu5_2 <- conv5_2
I0815 13:18:59.581375  2789 net.cpp:386] relu5_2 -> conv5_2 (in-place)
I0815 13:18:59.581547  2789 net.cpp:141] Setting up relu5_2
I0815 13:18:59.581555  2789 net.cpp:148] Top shape: 1 512 44 34 (765952)
I0815 13:18:59.581558  2789 net.cpp:156] Memory required for data: 854935456
I0815 13:18:59.581562  2789 layer_factory.hpp:77] Creating layer conv5_3
I0815 13:18:59.581570  2789 net.cpp:91] Creating Layer conv5_3
I0815 13:18:59.581573  2789 net.cpp:425] conv5_3 <- conv5_2
I0815 13:18:59.581579  2789 net.cpp:399] conv5_3 -> conv5_3
I0815 13:18:59.587757  2789 net.cpp:141] Setting up conv5_3
I0815 13:18:59.587779  2789 net.cpp:148] Top shape: 1 512 44 34 (765952)
I0815 13:18:59.587782  2789 net.cpp:156] Memory required for data: 857999264
I0815 13:18:59.587790  2789 layer_factory.hpp:77] Creating layer relu5_3
I0815 13:18:59.587805  2789 net.cpp:91] Creating Layer relu5_3
I0815 13:18:59.587808  2789 net.cpp:425] relu5_3 <- conv5_3
I0815 13:18:59.587815  2789 net.cpp:386] relu5_3 -> conv5_3 (in-place)
I0815 13:18:59.588155  2789 net.cpp:141] Setting up relu5_3
I0815 13:18:59.588165  2789 net.cpp:148] Top shape: 1 512 44 34 (765952)
I0815 13:18:59.588168  2789 net.cpp:156] Memory required for data: 861063072
I0815 13:18:59.588171  2789 layer_factory.hpp:77] Creating layer pool5
I0815 13:18:59.588177  2789 net.cpp:91] Creating Layer pool5
I0815 13:18:59.588181  2789 net.cpp:425] pool5 <- conv5_3
I0815 13:18:59.588186  2789 net.cpp:399] pool5 -> pool5
I0815 13:18:59.588259  2789 net.cpp:141] Setting up pool5
I0815 13:18:59.588268  2789 net.cpp:148] Top shape: 1 512 22 17 (191488)
I0815 13:18:59.588269  2789 net.cpp:156] Memory required for data: 861829024
I0815 13:18:59.588273  2789 layer_factory.hpp:77] Creating layer fc6
I0815 13:18:59.588281  2789 net.cpp:91] Creating Layer fc6
I0815 13:18:59.588284  2789 net.cpp:425] fc6 <- pool5
I0815 13:18:59.588291  2789 net.cpp:399] fc6 -> fc6
I0815 13:18:59.745973  2789 net.cpp:141] Setting up fc6
I0815 13:18:59.746000  2789 net.cpp:148] Top shape: 1 4096 16 11 (720896)
I0815 13:18:59.746002  2789 net.cpp:156] Memory required for data: 864712608
I0815 13:18:59.746009  2789 layer_factory.hpp:77] Creating layer relu6
I0815 13:18:59.746018  2789 net.cpp:91] Creating Layer relu6
I0815 13:18:59.746022  2789 net.cpp:425] relu6 <- fc6
I0815 13:18:59.746026  2789 net.cpp:386] relu6 -> fc6 (in-place)
I0815 13:18:59.746305  2789 net.cpp:141] Setting up relu6
I0815 13:18:59.746312  2789 net.cpp:148] Top shape: 1 4096 16 11 (720896)
I0815 13:18:59.746315  2789 net.cpp:156] Memory required for data: 867596192
I0815 13:18:59.746316  2789 layer_factory.hpp:77] Creating layer drop6
I0815 13:18:59.746327  2789 net.cpp:91] Creating Layer drop6
I0815 13:18:59.746330  2789 net.cpp:425] drop6 <- fc6
I0815 13:18:59.746332  2789 net.cpp:386] drop6 -> fc6 (in-place)
I0815 13:18:59.746366  2789 net.cpp:141] Setting up drop6
I0815 13:18:59.746378  2789 net.cpp:148] Top shape: 1 4096 16 11 (720896)
I0815 13:18:59.746381  2789 net.cpp:156] Memory required for data: 870479776
I0815 13:18:59.746382  2789 layer_factory.hpp:77] Creating layer fc7
I0815 13:18:59.746402  2789 net.cpp:91] Creating Layer fc7
I0815 13:18:59.746404  2789 net.cpp:425] fc7 <- fc6
I0815 13:18:59.746407  2789 net.cpp:399] fc7 -> fc7
I0815 13:18:59.771845  2789 net.cpp:141] Setting up fc7
I0815 13:18:59.771870  2789 net.cpp:148] Top shape: 1 4096 16 11 (720896)
I0815 13:18:59.771874  2789 net.cpp:156] Memory required for data: 873363360
I0815 13:18:59.771883  2789 layer_factory.hpp:77] Creating layer relu7
I0815 13:18:59.771891  2789 net.cpp:91] Creating Layer relu7
I0815 13:18:59.771896  2789 net.cpp:425] relu7 <- fc7
I0815 13:18:59.771903  2789 net.cpp:386] relu7 -> fc7 (in-place)
I0815 13:18:59.772251  2789 net.cpp:141] Setting up relu7
I0815 13:18:59.772270  2789 net.cpp:148] Top shape: 1 4096 16 11 (720896)
I0815 13:18:59.772272  2789 net.cpp:156] Memory required for data: 876246944
I0815 13:18:59.772275  2789 layer_factory.hpp:77] Creating layer drop7
I0815 13:18:59.772281  2789 net.cpp:91] Creating Layer drop7
I0815 13:18:59.772284  2789 net.cpp:425] drop7 <- fc7
I0815 13:18:59.772289  2789 net.cpp:386] drop7 -> fc7 (in-place)
I0815 13:18:59.772337  2789 net.cpp:141] Setting up drop7
I0815 13:18:59.772351  2789 net.cpp:148] Top shape: 1 4096 16 11 (720896)
I0815 13:18:59.772352  2789 net.cpp:156] Memory required for data: 879130528
I0815 13:18:59.772354  2789 layer_factory.hpp:77] Creating layer score_fr
I0815 13:18:59.772372  2789 net.cpp:91] Creating Layer score_fr
I0815 13:18:59.772373  2789 net.cpp:425] score_fr <- fc7
I0815 13:18:59.772377  2789 net.cpp:399] score_fr -> score_fr
I0815 13:18:59.773592  2789 net.cpp:141] Setting up score_fr
I0815 13:18:59.773602  2789 net.cpp:148] Top shape: 1 11 16 11 (1936)
I0815 13:18:59.773603  2789 net.cpp:156] Memory required for data: 879138272
I0815 13:18:59.773609  2789 layer_factory.hpp:77] Creating layer upscore2
I0815 13:18:59.773619  2789 net.cpp:91] Creating Layer upscore2
I0815 13:18:59.773622  2789 net.cpp:425] upscore2 <- score_fr
I0815 13:18:59.773627  2789 net.cpp:399] upscore2 -> upscore2
I0815 13:18:59.773782  2789 net.cpp:141] Setting up upscore2
I0815 13:18:59.773787  2789 net.cpp:148] Top shape: 1 11 34 24 (8976)
I0815 13:18:59.773788  2789 net.cpp:156] Memory required for data: 879174176
I0815 13:18:59.773797  2789 layer_factory.hpp:77] Creating layer upscore2_upscore2_0_split
I0815 13:18:59.773802  2789 net.cpp:91] Creating Layer upscore2_upscore2_0_split
I0815 13:18:59.773803  2789 net.cpp:425] upscore2_upscore2_0_split <- upscore2
I0815 13:18:59.773805  2789 net.cpp:399] upscore2_upscore2_0_split -> upscore2_upscore2_0_split_0
I0815 13:18:59.773809  2789 net.cpp:399] upscore2_upscore2_0_split -> upscore2_upscore2_0_split_1
I0815 13:18:59.773864  2789 net.cpp:141] Setting up upscore2_upscore2_0_split
I0815 13:18:59.773869  2789 net.cpp:148] Top shape: 1 11 34 24 (8976)
I0815 13:18:59.773881  2789 net.cpp:148] Top shape: 1 11 34 24 (8976)
I0815 13:18:59.773883  2789 net.cpp:156] Memory required for data: 879245984
I0815 13:18:59.773885  2789 layer_factory.hpp:77] Creating layer score_pool4
I0815 13:18:59.773890  2789 net.cpp:91] Creating Layer score_pool4
I0815 13:18:59.773892  2789 net.cpp:425] score_pool4 <- pool4_pool4_0_split_1
I0815 13:18:59.773906  2789 net.cpp:399] score_pool4 -> score_pool4
I0815 13:18:59.774772  2789 net.cpp:141] Setting up score_pool4
I0815 13:18:59.774781  2789 net.cpp:148] Top shape: 1 11 44 34 (16456)
I0815 13:18:59.774783  2789 net.cpp:156] Memory required for data: 879311808
I0815 13:18:59.774787  2789 layer_factory.hpp:77] Creating layer score_pool4c
I0815 13:18:59.774796  2789 net.cpp:91] Creating Layer score_pool4c
I0815 13:18:59.774798  2789 net.cpp:425] score_pool4c <- score_pool4
I0815 13:18:59.774801  2789 net.cpp:425] score_pool4c <- upscore2_upscore2_0_split_0
I0815 13:18:59.774804  2789 net.cpp:399] score_pool4c -> score_pool4c
I0815 13:18:59.774845  2789 net.cpp:141] Setting up score_pool4c
I0815 13:18:59.774858  2789 net.cpp:148] Top shape: 1 11 34 24 (8976)
I0815 13:18:59.774860  2789 net.cpp:156] Memory required for data: 879347712
I0815 13:18:59.774863  2789 layer_factory.hpp:77] Creating layer fuse_pool4
I0815 13:18:59.774876  2789 net.cpp:91] Creating Layer fuse_pool4
I0815 13:18:59.774878  2789 net.cpp:425] fuse_pool4 <- upscore2_upscore2_0_split_1
I0815 13:18:59.774880  2789 net.cpp:425] fuse_pool4 <- score_pool4c
I0815 13:18:59.774893  2789 net.cpp:399] fuse_pool4 -> fuse_pool4
I0815 13:18:59.774914  2789 net.cpp:141] Setting up fuse_pool4
I0815 13:18:59.774927  2789 net.cpp:148] Top shape: 1 11 34 24 (8976)
I0815 13:18:59.774929  2789 net.cpp:156] Memory required for data: 879383616
I0815 13:18:59.774930  2789 layer_factory.hpp:77] Creating layer upscore16
I0815 13:18:59.774935  2789 net.cpp:91] Creating Layer upscore16
I0815 13:18:59.774948  2789 net.cpp:425] upscore16 <- fuse_pool4
I0815 13:18:59.774951  2789 net.cpp:399] upscore16 -> upscore16
I0815 13:18:59.775617  2789 net.cpp:141] Setting up upscore16
I0815 13:18:59.775634  2789 net.cpp:148] Top shape: 1 11 560 400 (2464000)
I0815 13:18:59.775635  2789 net.cpp:156] Memory required for data: 889239616
I0815 13:18:59.775640  2789 layer_factory.hpp:77] Creating layer score
I0815 13:18:59.775656  2789 net.cpp:91] Creating Layer score
I0815 13:18:59.775660  2789 net.cpp:425] score <- upscore16
I0815 13:18:59.775661  2789 net.cpp:425] score <- data_data_0_split_1
I0815 13:18:59.775665  2789 net.cpp:399] score -> score
I0815 13:18:59.775683  2789 net.cpp:141] Setting up score
I0815 13:18:59.775696  2789 net.cpp:148] Top shape: 1 11 500 333 (1831500)
I0815 13:18:59.775697  2789 net.cpp:156] Memory required for data: 896565616
I0815 13:18:59.775699  2789 layer_factory.hpp:77] Creating layer loss
I0815 13:18:59.775703  2789 net.cpp:91] Creating Layer loss
I0815 13:18:59.775717  2789 net.cpp:425] loss <- score
I0815 13:18:59.775718  2789 net.cpp:425] loss <- label
I0815 13:18:59.775722  2789 net.cpp:399] loss -> loss
I0815 13:18:59.781484  2789 layer_factory.hpp:77] Creating layer loss
…
I0815 13:18:59.785063  2789 solver.cpp:181] Creating test net (#0) specified by test_net file: /home/cv/hdl/caffe/training/pascalpart-fcn16s/person/head+torso/val.prototxt
I0815 13:18:59.785281  2789 net.cpp:49] Initializing net from parameters: 
state {
  phase: TEST
}
layer {
  name: "data"
  type: "Python"
  top: "data"
  top: "label"
  python_param {
    module: "pascalpart_layers"
    layer: "PASCALPartSegDataLayer"
    param_str: "{\'part\': \'head+torso\', \'obj_cls\': \'person\', \'split\': \'val\', \'part_dir\': \'/home/cv/hdl/caffe/data/pascal/pascal-part\', \'seed\': 1337, \'voc_dir\': \'/home/cv/hdl/caffe/data/pascal/VOC\'}"
  }
}
layer {
  name: "conv1_1"
  type: "Convolution"
  bottom: "data"
  top: "conv1_1"
  param {
    lr_mult: 1
    decay_mult: 1
  }
  param {
    lr_mult: 2
    decay_mult: 0
  }
  convolution_param {
    num_output: 64
    pad: 100
    kernel_size: 3
    stride: 1
  }
}
layer {
  name: "relu1_1"
  type: "ReLU"
  bottom: "conv1_1"
  top: "conv1_1"
}
layer {
  name: "conv1_2"
  type: "Convolution"
  bottom: "conv1_1"
  top: "conv1_2"
  param {
    lr_mult: 1
    decay_mult: 1
  }
  param {
    lr_mult: 2
    decay_mult: 0
  }
  convolution_param {
    num_output: 64
    pad: 1
    kernel_size: 3
    stride: 1
  }
}
layer {
  name: "relu1_2"
  type: "ReLU"
  bottom: "conv1_2"
  top: "conv1_2"
}
layer {
  name: "pool1"
  type: "Pooling"
  bottom: "conv1_2"
  top: "pool1"
  pooling_param {
    pool: MAX
    kernel_size: 2
    stride: 2
  }
}
layer {
  name: "conv2_1"
  type: "Convolution"
  bottom: "pool1"
  top: "conv2_1"
  param {
    lr_mult: 1
    decay_mult: 1
  }
  param {
    lr_mult: 2
    decay_mult: 0
  }
  convolution_param {
    num_output: 128
    pad: 1
    kernel_size: 3
    stride: 1
  }
}
layer {
  name: "relu2_1"
  type: "ReLU"
  bottom: "conv2_1"
  top: "conv2_1"
}
layer {
  name: "conv2_2"
  type: "Convolution"
  bottom: "conv2_1"
  top: "conv2_2"
  param {
    lr_mult: 1
    decay_mult: 1
  }
  param {
    lr_mult: 2
    decay_mult: 0
  }
  convolution_param {
    num_output: 128
    pad: 1
    kernel_size: 3
    stride: 1
  }
}
layer {
  name: "relu2_2"
  type: "ReLU"
  bottom: "conv2_2"
  top: "conv2_2"
}
layer {
  name: "pool2"
  type: "Pooling"
  bottom: "conv2_2"
  top: "pool2"
  pooling_param {
    pool: MAX
    kernel_size: 2
    stride: 2
  }
}
layer {
  name: "conv3_1"
  type: "Convolution"
  bottom: "pool2"
  top: "conv3_1"
  param {
    lr_mult: 1
    decay_mult: 1
  }
  param {
    lr_mult: 2
    decay_mult: 0
  }
  convolution_param {
    num_output: 256
    pad: 1
    kernel_size: 3
    stride: 1
  }
}
layer {
  name: "relu3_1"
  type: "ReLU"
  bottom: "conv3_1"
  top: "conv3_1"
}
layer {
  name: "conv3_2"
  type: "Convolution"
  bottom: "conv3_1"
  top: "conv3_2"
  param {
    lr_mult: 1
    decay_mult: 1
  }
  param {
    lr_mult: 2
    decay_mult: 0
  }
  convolution_param {
    num_output: 256
    pad: 1
    kernel_size: 3
    stride: 1
  }
}
layer {
  name: "relu3_2"
  type: "ReLU"
  bottom: "conv3_2"
  top: "conv3_2"
}
layer {
  name: "conv3_3"
  type: "Convolution"
  bottom: "conv3_2"
  top: "conv3_3"
  param {
    lr_mult: 1
    decay_mult: 1
  }
  param {
    lr_mult: 2
    decay_mult: 0
  }
  convolution_param {
    num_output: 256
    pad: 1
    kernel_size: 3
    stride: 1
  }
}
layer {
  name: "relu3_3"
  type: "ReLU"
  bottom: "conv3_3"
  top: "conv3_3"
}
layer {
  name: "pool3"
  type: "Pooling"
  bottom: "conv3_3"
  top: "pool3"
  pooling_param {
    pool: MAX
    kernel_size: 2
    stride: 2
  }
}
layer {
  name: "conv4_1"
  type: "Convolution"
  bottom: "pool3"
  top: "conv4_1"
  param {
    lr_mult: 1
    decay_mult: 1
  }
  param {
    lr_mult: 2
    decay_mult: 0
  }
  convolution_param {
    num_output: 512
    pad: 1
    kernel_size: 3
    stride: 1
  }
}
layer {
  name: "relu4_1"
  type: "ReLU"
  bottom: "conv4_1"
  top: "conv4_1"
}
layer {
  name: "conv4_2"
  type: "Convolution"
  bottom: "conv4_1"
  top: "conv4_2"
  param {
    lr_mult: 1
    decay_mult: 1
  }
  param {
    lr_mult: 2
    decay_mult: 0
  }
  convolution_param {
    num_output: 512
    pad: 1
    kernel_size: 3
    stride: 1
  }
}
layer {
  name: "relu4_2"
  type: "ReLU"
  bottom: "conv4_2"
  top: "conv4_2"
}
layer {
  name: "conv4_3"
  type: "Convolution"
  bottom: "conv4_2"
  top: "conv4_3"
  param {
    lr_mult: 1
    decay_mult: 1
  }
  param {
    lr_mult: 2
    decay_mult: 0
  }
  convolution_param {
    num_output: 512
    pad: 1
    kernel_size: 3
    stride: 1
  }
}
layer {
  name: "relu4_3"
  type: "ReLU"
  bottom: "conv4_3"
  top: "conv4_3"
}
layer {
  name: "pool4"
  type: "Pooling"
  bottom: "conv4_3"
  top: "pool4"
  pooling_param {
    pool: MAX
    kernel_size: 2
    stride: 2
  }
}
layer {
  name: "conv5_1"
  type: "Convolution"
  bottom: "pool4"
  top: "conv5_1"
  param {
    lr_mult: 1
    decay_mult: 1
  }
  param {
    lr_mult: 2
    decay_mult: 0
  }
  convolution_param {
    num_output: 512
    pad: 1
    kernel_size: 3
    stride: 1
  }
}
layer {
  name: "relu5_1"
  type: "ReLU"
  bottom: "conv5_1"
  top: "conv5_1"
}
layer {
  name: "conv5_2"
  type: "Convolution"
  bottom: "conv5_1"
  top: "conv5_2"
  param {
    lr_mult: 1
    decay_mult: 1
  }
  param {
    lr_mult: 2
    decay_mult: 0
  }
  convolution_param {
    num_output: 512
    pad: 1
    kernel_size: 3
    stride: 1
  }
}
layer {
  name: "relu5_2"
  type: "ReLU"
  bottom: "conv5_2"
  top: "conv5_2"
}
layer {
  name: "conv5_3"
  type: "Convolution"
  bottom: "conv5_2"
  top: "conv5_3"
  param {
    lr_mult: 1
    decay_mult: 1
  }
  param {
    lr_mult: 2
    decay_mult: 0
  }
  convolution_param {
    num_output: 512
    pad: 1
    kernel_size: 3
    stride: 1
  }
}
layer {
  name: "relu5_3"
  type: "ReLU"
  bottom: "conv5_3"
  top: "conv5_3"
}
layer {
  name: "pool5"
  type: "Pooling"
  bottom: "conv5_3"
  top: "pool5"
  pooling_param {
    pool: MAX
    kernel_size: 2
    stride: 2
  }
}
layer {
  name: "fc6"
  type: "Convolution"
  bottom: "pool5"
  top: "fc6"
  param {
    lr_mult: 1
    decay_mult: 1
  }
  param {
    lr_mult: 2
    decay_mult: 0
  }
  convolution_param {
    num_output: 4096
    pad: 0
    kernel_size: 7
    stride: 1
  }
}
layer {
  name: "relu6"
  type: "ReLU"
  bottom: "fc6"
  top: "fc6"
}
layer {
  name: "drop6"
  type: "Dropout"
  bottom: "fc6"
  top: "fc6"
  dropout_param {
    dropout_ratio: 0.5
  }
}
layer {
  name: "fc7"
  type: "Convolution"
  bottom: "fc6"
  top: "fc7"
  param {
    lr_mult: 1
    decay_mult: 1
  }
  param {
    lr_mult: 2
    decay_mult: 0
  }
  convolution_param {
    num_output: 4096
    pad: 0
    kernel_size: 1
    stride: 1
  }
}
layer {
  name: "relu7"
  type: "ReLU"
  bottom: "fc7"
  top: "fc7"
}
layer {
  name: "drop7"
  type: "Dropout"
  bottom: "fc7"
  top: "fc7"
  dropout_param {
    dropout_ratio: 0.5
  }
}
layer {
  name: "score_fr"
  type: "Convolution"
  bottom: "fc7"
  top: "score_fr"
  param {
    lr_mult: 1
    decay_mult: 1
  }
  param {
    lr_mult: 2
    decay_mult: 0
  }
  convolution_param {
    num_output: 11
    pad: 0
    kernel_size: 1
  }
}
layer {
  name: "upscore2"
  type: "Deconvolution"
  bottom: "score_fr"
  top: "upscore2"
  param {
    lr_mult: 0
  }
  convolution_param {
    num_output: 11
    bias_term: false
    kernel_size: 4
    stride: 2
  }
}
layer {
  name: "score_pool4"
  type: "Convolution"
  bottom: "pool4"
  top: "score_pool4"
  param {
    lr_mult: 1
    decay_mult: 1
  }
  param {
    lr_mult: 2
    decay_mult: 0
  }
  convolution_param {
    num_output: 11
    pad: 0
    kernel_size: 1
  }
}
layer {
  name: "score_pool4c"
  type: "Crop"
  bottom: "score_pool4"
  bottom: "upscore2"
  top: "score_pool4c"
  crop_param {
    axis: 2
    offset: 5
  }
}
layer {
  name: "fuse_pool4"
  type: "Eltwise"
  bottom: "upscore2"
  bottom: "score_pool4c"
  top: "fuse_pool4"
  eltwise_param {
    operation: SUM
  }
}
layer {
  name: "upscore16"
  type: "Deconvolution"
  bottom: "fuse_pool4"
  top: "upscore16"
  param {
    lr_mult: 0
  }
  convolution_param {
    num_output: 11
    bias_term: false
    kernel_size: 32
    stride: 16
  }
}
layer {
  name: "score"
  type: "Crop"
  bottom: "upscore16"
  bottom: "data"
  top: "score"
  crop_param {
    axis: 2
    offset: 27
  }
}
layer {
  name: "loss"
  type: "SoftmaxWithLoss"
  bottom: "score"
  bottom: "label"
  top: "loss"
  loss_param {
    ignore_label: 255
    normalize: false
  }
}
I0815 13:18:59.785392  2789 layer_factory.hpp:77] Creating layer data
I0815 13:18:59.785430  2789 net.cpp:91] Creating Layer data
I0815 13:18:59.785435  2789 net.cpp:399] data -> data
I0815 13:18:59.785440  2789 net.cpp:399] data -> label
I0815 13:19:00.359642  2789 net.cpp:141] Setting up data
I0815 13:19:00.359668  2789 net.cpp:148] Top shape: 1 3 333 500 (499500)
I0815 13:19:00.359673  2789 net.cpp:148] Top shape: 1 1 333 500 (166500)
I0815 13:19:00.359678  2789 net.cpp:156] Memory required for data: 2664000
I0815 13:19:00.359684  2789 layer_factory.hpp:77] Creating layer data_data_0_split
I0815 13:19:00.359695  2789 net.cpp:91] Creating Layer data_data_0_split
I0815 13:19:00.359699  2789 net.cpp:425] data_data_0_split <- data
I0815 13:19:00.359707  2789 net.cpp:399] data_data_0_split -> data_data_0_split_0
I0815 13:19:00.359720  2789 net.cpp:399] data_data_0_split -> data_data_0_split_1
I0815 13:19:00.359764  2789 net.cpp:141] Setting up data_data_0_split
I0815 13:19:00.359772  2789 net.cpp:148] Top shape: 1 3 333 500 (499500)
I0815 13:19:00.359776  2789 net.cpp:148] Top shape: 1 3 333 500 (499500)
I0815 13:19:00.359779  2789 net.cpp:156] Memory required for data: 6660000
I0815 13:19:00.359782  2789 layer_factory.hpp:77] Creating layer conv1_1
I0815 13:19:00.359792  2789 net.cpp:91] Creating Layer conv1_1
I0815 13:19:00.359796  2789 net.cpp:425] conv1_1 <- data_data_0_split_0
I0815 13:19:00.359802  2789 net.cpp:399] conv1_1 -> conv1_1
I0815 13:19:00.362143  2789 net.cpp:141] Setting up conv1_1
I0815 13:19:00.362159  2789 net.cpp:148] Top shape: 1 64 531 698 (23720832)
I0815 13:19:00.362162  2789 net.cpp:156] Memory required for data: 101543328
I0815 13:19:00.362174  2789 layer_factory.hpp:77] Creating layer relu1_1
I0815 13:19:00.362182  2789 net.cpp:91] Creating Layer relu1_1
I0815 13:19:00.362185  2789 net.cpp:425] relu1_1 <- conv1_1
I0815 13:19:00.362190  2789 net.cpp:386] relu1_1 -> conv1_1 (in-place)
I0815 13:19:00.362571  2789 net.cpp:141] Setting up relu1_1
I0815 13:19:00.362586  2789 net.cpp:148] Top shape: 1 64 531 698 (23720832)
I0815 13:19:00.362588  2789 net.cpp:156] Memory required for data: 196426656
I0815 13:19:00.362592  2789 layer_factory.hpp:77] Creating layer conv1_2
I0815 13:19:00.362602  2789 net.cpp:91] Creating Layer conv1_2
I0815 13:19:00.362606  2789 net.cpp:425] conv1_2 <- conv1_1
I0815 13:19:00.362612  2789 net.cpp:399] conv1_2 -> conv1_2
I0815 13:19:00.364887  2789 net.cpp:141] Setting up conv1_2
I0815 13:19:00.364904  2789 net.cpp:148] Top shape: 1 64 531 698 (23720832)
I0815 13:19:00.364908  2789 net.cpp:156] Memory required for data: 291309984
I0815 13:19:00.364918  2789 layer_factory.hpp:77] Creating layer relu1_2
I0815 13:19:00.364926  2789 net.cpp:91] Creating Layer relu1_2
I0815 13:19:00.364929  2789 net.cpp:425] relu1_2 <- conv1_2
I0815 13:19:00.364935  2789 net.cpp:386] relu1_2 -> conv1_2 (in-place)
I0815 13:19:00.365146  2789 net.cpp:141] Setting up relu1_2
I0815 13:19:00.365157  2789 net.cpp:148] Top shape: 1 64 531 698 (23720832)
I0815 13:19:00.365160  2789 net.cpp:156] Memory required for data: 386193312
I0815 13:19:00.365164  2789 layer_factory.hpp:77] Creating layer pool1
I0815 13:19:00.365171  2789 net.cpp:91] Creating Layer pool1
I0815 13:19:00.365175  2789 net.cpp:425] pool1 <- conv1_2
I0815 13:19:00.365180  2789 net.cpp:399] pool1 -> pool1
I0815 13:19:00.365231  2789 net.cpp:141] Setting up pool1
I0815 13:19:00.365238  2789 net.cpp:148] Top shape: 1 64 266 349 (5941376)
I0815 13:19:00.365242  2789 net.cpp:156] Memory required for data: 409958816
I0815 13:19:00.365244  2789 layer_factory.hpp:77] Creating layer conv2_1
I0815 13:19:00.365252  2789 net.cpp:91] Creating Layer conv2_1
I0815 13:19:00.365257  2789 net.cpp:425] conv2_1 <- pool1
I0815 13:19:00.365262  2789 net.cpp:399] conv2_1 -> conv2_1
I0815 13:19:00.366807  2789 net.cpp:141] Setting up conv2_1
I0815 13:19:00.366822  2789 net.cpp:148] Top shape: 1 128 266 349 (11882752)
I0815 13:19:00.366825  2789 net.cpp:156] Memory required for data: 457489824
I0815 13:19:00.366834  2789 layer_factory.hpp:77] Creating layer relu2_1
I0815 13:19:00.366842  2789 net.cpp:91] Creating Layer relu2_1
I0815 13:19:00.366845  2789 net.cpp:425] relu2_1 <- conv2_1
I0815 13:19:00.366850  2789 net.cpp:386] relu2_1 -> conv2_1 (in-place)
I0815 13:19:00.367045  2789 net.cpp:141] Setting up relu2_1
I0815 13:19:00.367055  2789 net.cpp:148] Top shape: 1 128 266 349 (11882752)
I0815 13:19:00.367058  2789 net.cpp:156] Memory required for data: 505020832
I0815 13:19:00.367061  2789 layer_factory.hpp:77] Creating layer conv2_2
I0815 13:19:00.367069  2789 net.cpp:91] Creating Layer conv2_2
I0815 13:19:00.367072  2789 net.cpp:425] conv2_2 <- conv2_1
I0815 13:19:00.367079  2789 net.cpp:399] conv2_2 -> conv2_2
I0815 13:19:00.369037  2789 net.cpp:141] Setting up conv2_2
I0815 13:19:00.369052  2789 net.cpp:148] Top shape: 1 128 266 349 (11882752)
I0815 13:19:00.369055  2789 net.cpp:156] Memory required for data: 552551840
I0815 13:19:00.369063  2789 layer_factory.hpp:77] Creating layer relu2_2
I0815 13:19:00.369069  2789 net.cpp:91] Creating Layer relu2_2
I0815 13:19:00.369073  2789 net.cpp:425] relu2_2 <- conv2_2
I0815 13:19:00.369077  2789 net.cpp:386] relu2_2 -> conv2_2 (in-place)
I0815 13:19:00.369441  2789 net.cpp:141] Setting up relu2_2
I0815 13:19:00.369453  2789 net.cpp:148] Top shape: 1 128 266 349 (11882752)
I0815 13:19:00.369457  2789 net.cpp:156] Memory required for data: 600082848
I0815 13:19:00.369460  2789 layer_factory.hpp:77] Creating layer pool2
I0815 13:19:00.369467  2789 net.cpp:91] Creating Layer pool2
I0815 13:19:00.369470  2789 net.cpp:425] pool2 <- conv2_2
I0815 13:19:00.369475  2789 net.cpp:399] pool2 -> pool2
I0815 13:19:00.369524  2789 net.cpp:141] Setting up pool2
I0815 13:19:00.369531  2789 net.cpp:148] Top shape: 1 128 133 175 (2979200)
I0815 13:19:00.369534  2789 net.cpp:156] Memory required for data: 611999648
I0815 13:19:00.369537  2789 layer_factory.hpp:77] Creating layer conv3_1
I0815 13:19:00.369544  2789 net.cpp:91] Creating Layer conv3_1
I0815 13:19:00.369549  2789 net.cpp:425] conv3_1 <- pool2
I0815 13:19:00.369554  2789 net.cpp:399] conv3_1 -> conv3_1
I0815 13:19:00.371461  2789 net.cpp:141] Setting up conv3_1
I0815 13:19:00.371510  2789 net.cpp:148] Top shape: 1 256 133 175 (5958400)
I0815 13:19:00.371526  2789 net.cpp:156] Memory required for data: 635833248
I0815 13:19:00.371551  2789 layer_factory.hpp:77] Creating layer relu3_1
I0815 13:19:00.371562  2789 net.cpp:91] Creating Layer relu3_1
I0815 13:19:00.371565  2789 net.cpp:425] relu3_1 <- conv3_1
I0815 13:19:00.371572  2789 net.cpp:386] relu3_1 -> conv3_1 (in-place)
I0815 13:19:00.371762  2789 net.cpp:141] Setting up relu3_1
I0815 13:19:00.371773  2789 net.cpp:148] Top shape: 1 256 133 175 (5958400)
I0815 13:19:00.371775  2789 net.cpp:156] Memory required for data: 659666848
I0815 13:19:00.371779  2789 layer_factory.hpp:77] Creating layer conv3_2
I0815 13:19:00.371788  2789 net.cpp:91] Creating Layer conv3_2
I0815 13:19:00.371791  2789 net.cpp:425] conv3_2 <- conv3_1
I0815 13:19:00.371796  2789 net.cpp:399] conv3_2 -> conv3_2
I0815 13:19:00.374694  2789 net.cpp:141] Setting up conv3_2
I0815 13:19:00.374713  2789 net.cpp:148] Top shape: 1 256 133 175 (5958400)
I0815 13:19:00.374718  2789 net.cpp:156] Memory required for data: 683500448
I0815 13:19:00.374727  2789 layer_factory.hpp:77] Creating layer relu3_2
I0815 13:19:00.374737  2789 net.cpp:91] Creating Layer relu3_2
I0815 13:19:00.374743  2789 net.cpp:425] relu3_2 <- conv3_2
I0815 13:19:00.374749  2789 net.cpp:386] relu3_2 -> conv3_2 (in-place)
I0815 13:19:00.374948  2789 net.cpp:141] Setting up relu3_2
I0815 13:19:00.374958  2789 net.cpp:148] Top shape: 1 256 133 175 (5958400)
I0815 13:19:00.374961  2789 net.cpp:156] Memory required for data: 707334048
I0815 13:19:00.374965  2789 layer_factory.hpp:77] Creating layer conv3_3
I0815 13:19:00.374976  2789 net.cpp:91] Creating Layer conv3_3
I0815 13:19:00.374979  2789 net.cpp:425] conv3_3 <- conv3_2
I0815 13:19:00.374985  2789 net.cpp:399] conv3_3 -> conv3_3
I0815 13:19:00.377457  2789 net.cpp:141] Setting up conv3_3
I0815 13:19:00.377475  2789 net.cpp:148] Top shape: 1 256 133 175 (5958400)
I0815 13:19:00.377478  2789 net.cpp:156] Memory required for data: 731167648
I0815 13:19:00.377486  2789 layer_factory.hpp:77] Creating layer relu3_3
I0815 13:19:00.377492  2789 net.cpp:91] Creating Layer relu3_3
I0815 13:19:00.377496  2789 net.cpp:425] relu3_3 <- conv3_3
I0815 13:19:00.377501  2789 net.cpp:386] relu3_3 -> conv3_3 (in-place)
I0815 13:19:00.377861  2789 net.cpp:141] Setting up relu3_3
I0815 13:19:00.377872  2789 net.cpp:148] Top shape: 1 256 133 175 (5958400)
I0815 13:19:00.377876  2789 net.cpp:156] Memory required for data: 755001248
I0815 13:19:00.377879  2789 layer_factory.hpp:77] Creating layer pool3
I0815 13:19:00.377887  2789 net.cpp:91] Creating Layer pool3
I0815 13:19:00.377889  2789 net.cpp:425] pool3 <- conv3_3
I0815 13:19:00.377895  2789 net.cpp:399] pool3 -> pool3
I0815 13:19:00.377946  2789 net.cpp:141] Setting up pool3
I0815 13:19:00.377954  2789 net.cpp:148] Top shape: 1 256 67 88 (1509376)
I0815 13:19:00.377956  2789 net.cpp:156] Memory required for data: 761038752
I0815 13:19:00.377959  2789 layer_factory.hpp:77] Creating layer conv4_1
I0815 13:19:00.377967  2789 net.cpp:91] Creating Layer conv4_1
I0815 13:19:00.377970  2789 net.cpp:425] conv4_1 <- pool3
I0815 13:19:00.377975  2789 net.cpp:399] conv4_1 -> conv4_1
I0815 13:19:00.381539  2789 net.cpp:141] Setting up conv4_1
I0815 13:19:00.381564  2789 net.cpp:148] Top shape: 1 512 67 88 (3018752)
I0815 13:19:00.381568  2789 net.cpp:156] Memory required for data: 773113760
I0815 13:19:00.381577  2789 layer_factory.hpp:77] Creating layer relu4_1
I0815 13:19:00.381585  2789 net.cpp:91] Creating Layer relu4_1
I0815 13:19:00.381589  2789 net.cpp:425] relu4_1 <- conv4_1
I0815 13:19:00.381595  2789 net.cpp:386] relu4_1 -> conv4_1 (in-place)
I0815 13:19:00.381781  2789 net.cpp:141] Setting up relu4_1
I0815 13:19:00.381790  2789 net.cpp:148] Top shape: 1 512 67 88 (3018752)
I0815 13:19:00.381793  2789 net.cpp:156] Memory required for data: 785188768
I0815 13:19:00.381796  2789 layer_factory.hpp:77] Creating layer conv4_2
I0815 13:19:00.381805  2789 net.cpp:91] Creating Layer conv4_2
I0815 13:19:00.381808  2789 net.cpp:425] conv4_2 <- conv4_1
I0815 13:19:00.381814  2789 net.cpp:399] conv4_2 -> conv4_2
I0815 13:19:00.388387  2789 net.cpp:141] Setting up conv4_2
I0815 13:19:00.388417  2789 net.cpp:148] Top shape: 1 512 67 88 (3018752)
I0815 13:19:00.388420  2789 net.cpp:156] Memory required for data: 797263776
I0815 13:19:00.388432  2789 layer_factory.hpp:77] Creating layer relu4_2
I0815 13:19:00.388439  2789 net.cpp:91] Creating Layer relu4_2
I0815 13:19:00.388478  2789 net.cpp:425] relu4_2 <- conv4_2
I0815 13:19:00.388495  2789 net.cpp:386] relu4_2 -> conv4_2 (in-place)
I0815 13:19:00.388669  2789 net.cpp:141] Setting up relu4_2
I0815 13:19:00.388675  2789 net.cpp:148] Top shape: 1 512 67 88 (3018752)
I0815 13:19:00.388686  2789 net.cpp:156] Memory required for data: 809338784
I0815 13:19:00.388689  2789 layer_factory.hpp:77] Creating layer conv4_3
I0815 13:19:00.388696  2789 net.cpp:91] Creating Layer conv4_3
I0815 13:19:00.388698  2789 net.cpp:425] conv4_3 <- conv4_2
I0815 13:19:00.388702  2789 net.cpp:399] conv4_3 -> conv4_3
I0815 13:19:00.393726  2789 net.cpp:141] Setting up conv4_3
I0815 13:19:00.393764  2789 net.cpp:148] Top shape: 1 512 67 88 (3018752)
I0815 13:19:00.393767  2789 net.cpp:156] Memory required for data: 821413792
I0815 13:19:00.393774  2789 layer_factory.hpp:77] Creating layer relu4_3
I0815 13:19:00.393782  2789 net.cpp:91] Creating Layer relu4_3
I0815 13:19:00.393786  2789 net.cpp:425] relu4_3 <- conv4_3
I0815 13:19:00.393791  2789 net.cpp:386] relu4_3 -> conv4_3 (in-place)
I0815 13:19:00.394088  2789 net.cpp:141] Setting up relu4_3
I0815 13:19:00.394096  2789 net.cpp:148] Top shape: 1 512 67 88 (3018752)
I0815 13:19:00.394109  2789 net.cpp:156] Memory required for data: 833488800
I0815 13:19:00.394110  2789 layer_factory.hpp:77] Creating layer pool4
I0815 13:19:00.394116  2789 net.cpp:91] Creating Layer pool4
I0815 13:19:00.394119  2789 net.cpp:425] pool4 <- conv4_3
I0815 13:19:00.394124  2789 net.cpp:399] pool4 -> pool4
I0815 13:19:00.394207  2789 net.cpp:141] Setting up pool4
I0815 13:19:00.394212  2789 net.cpp:148] Top shape: 1 512 34 44 (765952)
I0815 13:19:00.394224  2789 net.cpp:156] Memory required for data: 836552608
I0815 13:19:00.394227  2789 layer_factory.hpp:77] Creating layer pool4_pool4_0_split
I0815 13:19:00.394230  2789 net.cpp:91] Creating Layer pool4_pool4_0_split
I0815 13:19:00.394233  2789 net.cpp:425] pool4_pool4_0_split <- pool4
I0815 13:19:00.394237  2789 net.cpp:399] pool4_pool4_0_split -> pool4_pool4_0_split_0
I0815 13:19:00.394239  2789 net.cpp:399] pool4_pool4_0_split -> pool4_pool4_0_split_1
I0815 13:19:00.394289  2789 net.cpp:141] Setting up pool4_pool4_0_split
I0815 13:19:00.394292  2789 net.cpp:148] Top shape: 1 512 34 44 (765952)
I0815 13:19:00.394307  2789 net.cpp:148] Top shape: 1 512 34 44 (765952)
I0815 13:19:00.394309  2789 net.cpp:156] Memory required for data: 842680224
I0815 13:19:00.394310  2789 layer_factory.hpp:77] Creating layer conv5_1
I0815 13:19:00.394326  2789 net.cpp:91] Creating Layer conv5_1
I0815 13:19:00.394328  2789 net.cpp:425] conv5_1 <- pool4_pool4_0_split_0
I0815 13:19:00.394332  2789 net.cpp:399] conv5_1 -> conv5_1
I0815 13:19:00.399099  2789 net.cpp:141] Setting up conv5_1
I0815 13:19:00.399134  2789 net.cpp:148] Top shape: 1 512 34 44 (765952)
I0815 13:19:00.399137  2789 net.cpp:156] Memory required for data: 845744032
I0815 13:19:00.399144  2789 layer_factory.hpp:77] Creating layer relu5_1
I0815 13:19:00.399153  2789 net.cpp:91] Creating Layer relu5_1
I0815 13:19:00.399157  2789 net.cpp:425] relu5_1 <- conv5_1
I0815 13:19:00.399161  2789 net.cpp:386] relu5_1 -> conv5_1 (in-place)
I0815 13:19:00.399319  2789 net.cpp:141] Setting up relu5_1
I0815 13:19:00.399325  2789 net.cpp:148] Top shape: 1 512 34 44 (765952)
I0815 13:19:00.399338  2789 net.cpp:156] Memory required for data: 848807840
I0815 13:19:00.399339  2789 layer_factory.hpp:77] Creating layer conv5_2
I0815 13:19:00.399348  2789 net.cpp:91] Creating Layer conv5_2
I0815 13:19:00.399349  2789 net.cpp:425] conv5_2 <- conv5_1
I0815 13:19:00.399353  2789 net.cpp:399] conv5_2 -> conv5_2
I0815 13:19:00.404371  2789 net.cpp:141] Setting up conv5_2
I0815 13:19:00.404408  2789 net.cpp:148] Top shape: 1 512 34 44 (765952)
I0815 13:19:00.404412  2789 net.cpp:156] Memory required for data: 851871648
I0815 13:19:00.404419  2789 layer_factory.hpp:77] Creating layer relu5_2
I0815 13:19:00.404429  2789 net.cpp:91] Creating Layer relu5_2
I0815 13:19:00.404433  2789 net.cpp:425] relu5_2 <- conv5_2
I0815 13:19:00.404438  2789 net.cpp:386] relu5_2 -> conv5_2 (in-place)
I0815 13:19:00.404599  2789 net.cpp:141] Setting up relu5_2
I0815 13:19:00.404606  2789 net.cpp:148] Top shape: 1 512 34 44 (765952)
I0815 13:19:00.404618  2789 net.cpp:156] Memory required for data: 854935456
I0815 13:19:00.404620  2789 layer_factory.hpp:77] Creating layer conv5_3
I0815 13:19:00.404628  2789 net.cpp:91] Creating Layer conv5_3
I0815 13:19:00.404630  2789 net.cpp:425] conv5_3 <- conv5_2
I0815 13:19:00.404634  2789 net.cpp:399] conv5_3 -> conv5_3
I0815 13:19:00.409543  2789 net.cpp:141] Setting up conv5_3
I0815 13:19:00.409579  2789 net.cpp:148] Top shape: 1 512 34 44 (765952)
I0815 13:19:00.409581  2789 net.cpp:156] Memory required for data: 857999264
I0815 13:19:00.409590  2789 layer_factory.hpp:77] Creating layer relu5_3
I0815 13:19:00.409603  2789 net.cpp:91] Creating Layer relu5_3
I0815 13:19:00.409607  2789 net.cpp:425] relu5_3 <- conv5_3
I0815 13:19:00.409611  2789 net.cpp:386] relu5_3 -> conv5_3 (in-place)
I0815 13:19:00.409924  2789 net.cpp:141] Setting up relu5_3
I0815 13:19:00.409932  2789 net.cpp:148] Top shape: 1 512 34 44 (765952)
I0815 13:19:00.409945  2789 net.cpp:156] Memory required for data: 861063072
I0815 13:19:00.409946  2789 layer_factory.hpp:77] Creating layer pool5
I0815 13:19:00.409952  2789 net.cpp:91] Creating Layer pool5
I0815 13:19:00.409955  2789 net.cpp:425] pool5 <- conv5_3
I0815 13:19:00.409958  2789 net.cpp:399] pool5 -> pool5
I0815 13:19:00.410025  2789 net.cpp:141] Setting up pool5
I0815 13:19:00.410030  2789 net.cpp:148] Top shape: 1 512 17 22 (191488)
I0815 13:19:00.410042  2789 net.cpp:156] Memory required for data: 861829024
I0815 13:19:00.410043  2789 layer_factory.hpp:77] Creating layer fc6
I0815 13:19:00.410050  2789 net.cpp:91] Creating Layer fc6
I0815 13:19:00.410053  2789 net.cpp:425] fc6 <- pool5
I0815 13:19:00.410056  2789 net.cpp:399] fc6 -> fc6
I0815 13:19:00.559352  2789 net.cpp:141] Setting up fc6
I0815 13:19:00.559391  2789 net.cpp:148] Top shape: 1 4096 11 16 (720896)
I0815 13:19:00.559394  2789 net.cpp:156] Memory required for data: 864712608
I0815 13:19:00.559404  2789 layer_factory.hpp:77] Creating layer relu6
I0815 13:19:00.559413  2789 net.cpp:91] Creating Layer relu6
I0815 13:19:00.559418  2789 net.cpp:425] relu6 <- fc6
I0815 13:19:00.559423  2789 net.cpp:386] relu6 -> fc6 (in-place)
I0815 13:19:00.559597  2789 net.cpp:141] Setting up relu6
I0815 13:19:00.559604  2789 net.cpp:148] Top shape: 1 4096 11 16 (720896)
I0815 13:19:00.559617  2789 net.cpp:156] Memory required for data: 867596192
I0815 13:19:00.559619  2789 layer_factory.hpp:77] Creating layer drop6
I0815 13:19:00.559625  2789 net.cpp:91] Creating Layer drop6
I0815 13:19:00.559628  2789 net.cpp:425] drop6 <- fc6
I0815 13:19:00.559631  2789 net.cpp:386] drop6 -> fc6 (in-place)
I0815 13:19:00.559674  2789 net.cpp:141] Setting up drop6
I0815 13:19:00.559679  2789 net.cpp:148] Top shape: 1 4096 11 16 (720896)
I0815 13:19:00.559680  2789 net.cpp:156] Memory required for data: 870479776
I0815 13:19:00.559684  2789 layer_factory.hpp:77] Creating layer fc7
I0815 13:19:00.559700  2789 net.cpp:91] Creating Layer fc7
I0815 13:19:00.559702  2789 net.cpp:425] fc7 <- fc6
I0815 13:19:00.559718  2789 net.cpp:399] fc7 -> fc7
I0815 13:19:00.585430  2789 net.cpp:141] Setting up fc7
I0815 13:19:00.585455  2789 net.cpp:148] Top shape: 1 4096 11 16 (720896)
I0815 13:19:00.585458  2789 net.cpp:156] Memory required for data: 873363360
I0815 13:19:00.585467  2789 layer_factory.hpp:77] Creating layer relu7
I0815 13:19:00.585477  2789 net.cpp:91] Creating Layer relu7
I0815 13:19:00.585481  2789 net.cpp:425] relu7 <- fc7
I0815 13:19:00.585486  2789 net.cpp:386] relu7 -> fc7 (in-place)
I0815 13:19:00.585647  2789 net.cpp:141] Setting up relu7
I0815 13:19:00.585656  2789 net.cpp:148] Top shape: 1 4096 11 16 (720896)
I0815 13:19:00.585669  2789 net.cpp:156] Memory required for data: 876246944
I0815 13:19:00.585671  2789 layer_factory.hpp:77] Creating layer drop7
I0815 13:19:00.585678  2789 net.cpp:91] Creating Layer drop7
I0815 13:19:00.585681  2789 net.cpp:425] drop7 <- fc7
I0815 13:19:00.585685  2789 net.cpp:386] drop7 -> fc7 (in-place)
I0815 13:19:00.585723  2789 net.cpp:141] Setting up drop7
I0815 13:19:00.585727  2789 net.cpp:148] Top shape: 1 4096 11 16 (720896)
I0815 13:19:00.585739  2789 net.cpp:156] Memory required for data: 879130528
I0815 13:19:00.585741  2789 layer_factory.hpp:77] Creating layer score_fr
I0815 13:19:00.585749  2789 net.cpp:91] Creating Layer score_fr
I0815 13:19:00.585752  2789 net.cpp:425] score_fr <- fc7
I0815 13:19:00.585755  2789 net.cpp:399] score_fr -> score_fr
I0815 13:19:00.587225  2789 net.cpp:141] Setting up score_fr
I0815 13:19:00.587235  2789 net.cpp:148] Top shape: 1 11 11 16 (1936)
I0815 13:19:00.587237  2789 net.cpp:156] Memory required for data: 879138272
I0815 13:19:00.587242  2789 layer_factory.hpp:77] Creating layer upscore2
I0815 13:19:00.587249  2789 net.cpp:91] Creating Layer upscore2
I0815 13:19:00.587252  2789 net.cpp:425] upscore2 <- score_fr
I0815 13:19:00.587256  2789 net.cpp:399] upscore2 -> upscore2
I0815 13:19:00.587446  2789 net.cpp:141] Setting up upscore2
I0815 13:19:00.587452  2789 net.cpp:148] Top shape: 1 11 24 34 (8976)
I0815 13:19:00.587455  2789 net.cpp:156] Memory required for data: 879174176
I0815 13:19:00.587462  2789 layer_factory.hpp:77] Creating layer upscore2_upscore2_0_split
I0815 13:19:00.587467  2789 net.cpp:91] Creating Layer upscore2_upscore2_0_split
I0815 13:19:00.587471  2789 net.cpp:425] upscore2_upscore2_0_split <- upscore2
I0815 13:19:00.587488  2789 net.cpp:399] upscore2_upscore2_0_split -> upscore2_upscore2_0_split_0
I0815 13:19:00.587492  2789 net.cpp:399] upscore2_upscore2_0_split -> upscore2_upscore2_0_split_1
I0815 13:19:00.587522  2789 net.cpp:141] Setting up upscore2_upscore2_0_split
I0815 13:19:00.587527  2789 net.cpp:148] Top shape: 1 11 24 34 (8976)
I0815 13:19:00.587541  2789 net.cpp:148] Top shape: 1 11 24 34 (8976)
I0815 13:19:00.587543  2789 net.cpp:156] Memory required for data: 879245984
I0815 13:19:00.587544  2789 layer_factory.hpp:77] Creating layer score_pool4
I0815 13:19:00.587550  2789 net.cpp:91] Creating Layer score_pool4
I0815 13:19:00.587553  2789 net.cpp:425] score_pool4 <- pool4_pool4_0_split_1
I0815 13:19:00.587555  2789 net.cpp:399] score_pool4 -> score_pool4
I0815 13:19:00.588451  2789 net.cpp:141] Setting up score_pool4
I0815 13:19:00.588460  2789 net.cpp:148] Top shape: 1 11 34 44 (16456)
I0815 13:19:00.588462  2789 net.cpp:156] Memory required for data: 879311808
I0815 13:19:00.588467  2789 layer_factory.hpp:77] Creating layer score_pool4c
I0815 13:19:00.588472  2789 net.cpp:91] Creating Layer score_pool4c
I0815 13:19:00.588475  2789 net.cpp:425] score_pool4c <- score_pool4
I0815 13:19:00.588479  2789 net.cpp:425] score_pool4c <- upscore2_upscore2_0_split_0
I0815 13:19:00.588481  2789 net.cpp:399] score_pool4c -> score_pool4c
I0815 13:19:00.588533  2789 net.cpp:141] Setting up score_pool4c
I0815 13:19:00.588538  2789 net.cpp:148] Top shape: 1 11 24 34 (8976)
I0815 13:19:00.588541  2789 net.cpp:156] Memory required for data: 879347712
I0815 13:19:00.588543  2789 layer_factory.hpp:77] Creating layer fuse_pool4
I0815 13:19:00.588558  2789 net.cpp:91] Creating Layer fuse_pool4
I0815 13:19:00.588560  2789 net.cpp:425] fuse_pool4 <- upscore2_upscore2_0_split_1
I0815 13:19:00.588563  2789 net.cpp:425] fuse_pool4 <- score_pool4c
I0815 13:19:00.588567  2789 net.cpp:399] fuse_pool4 -> fuse_pool4
I0815 13:19:00.588609  2789 net.cpp:141] Setting up fuse_pool4
I0815 13:19:00.588623  2789 net.cpp:148] Top shape: 1 11 24 34 (8976)
I0815 13:19:00.588624  2789 net.cpp:156] Memory required for data: 879383616
I0815 13:19:00.588625  2789 layer_factory.hpp:77] Creating layer upscore16
I0815 13:19:00.588641  2789 net.cpp:91] Creating Layer upscore16
I0815 13:19:00.588644  2789 net.cpp:425] upscore16 <- fuse_pool4
I0815 13:19:00.588647  2789 net.cpp:399] upscore16 -> upscore16
I0815 13:19:00.589277  2789 net.cpp:141] Setting up upscore16
I0815 13:19:00.589285  2789 net.cpp:148] Top shape: 1 11 400 560 (2464000)
I0815 13:19:00.589287  2789 net.cpp:156] Memory required for data: 889239616
I0815 13:19:00.589290  2789 layer_factory.hpp:77] Creating layer score
I0815 13:19:00.589295  2789 net.cpp:91] Creating Layer score
I0815 13:19:00.589299  2789 net.cpp:425] score <- upscore16
I0815 13:19:00.589303  2789 net.cpp:425] score <- data_data_0_split_1
I0815 13:19:00.589306  2789 net.cpp:399] score -> score
I0815 13:19:00.589349  2789 net.cpp:141] Setting up score
I0815 13:19:00.589352  2789 net.cpp:148] Top shape: 1 11 333 500 (1831500)
I0815 13:19:00.589354  2789 net.cpp:156] Memory required for data: 896565616
I0815 13:19:00.589356  2789 layer_factory.hpp:77] Creating layer loss
I0815 13:19:00.589361  2789 net.cpp:91] Creating Layer loss
I0815 13:19:00.589364  2789 net.cpp:425] loss <- score
I0815 13:19:00.589367  2789 net.cpp:425] loss <- label
I0815 13:19:00.589370  2789 net.cpp:399] loss -> loss
I0815 13:19:00.589376  2789 layer_factory.hpp:77] Creating layer loss
…
