…
I0812 12:44:42.884121 17639 solver.cpp:81] Creating training net from train_net file: /home/cv/hdl/caffe/training/pascalpart-fcn16s/person/torso/train.prototxt
I0812 12:44:42.884886 17639 net.cpp:49] Initializing net from parameters: 
state {
  phase: TRAIN
}
layer {
  name: "data"
  type: "Python"
  top: "data"
  top: "label"
  python_param {
    module: "pascalpart_layers"
    layer: "PASCALPartSegDataLayer"
    param_str: "{\'part\': \'torso\', \'obj_cls\': \'person\', \'split\': \'train\', \'part_dir\': \'/home/cv/hdl/caffe/data/pascal/pascal-part\', \'seed\': 1337, \'voc_dir\': \'/home/cv/hdl/caffe/data/pascal/VOC\'}"
  }
}
layer {
  name: "conv1_1"
  type: "Convolution"
  bottom: "data"
  top: "conv1_1"
  param {
    lr_mult: 1
    decay_mult: 1
  }
  param {
    lr_mult: 2
    decay_mult: 0
  }
  convolution_param {
    num_output: 64
    pad: 100
    kernel_size: 3
    stride: 1
  }
}
layer {
  name: "relu1_1"
  type: "ReLU"
  bottom: "conv1_1"
  top: "conv1_1"
}
layer {
  name: "conv1_2"
  type: "Convolution"
  bottom: "conv1_1"
  top: "conv1_2"
  param {
    lr_mult: 1
    decay_mult: 1
  }
  param {
    lr_mult: 2
    decay_mult: 0
  }
  convolution_param {
    num_output: 64
    pad: 1
    kernel_size: 3
    stride: 1
  }
}
layer {
  name: "relu1_2"
  type: "ReLU"
  bottom: "conv1_2"
  top: "conv1_2"
}
layer {
  name: "pool1"
  type: "Pooling"
  bottom: "conv1_2"
  top: "pool1"
  pooling_param {
    pool: MAX
    kernel_size: 2
    stride: 2
  }
}
layer {
  name: "conv2_1"
  type: "Convolution"
  bottom: "pool1"
  top: "conv2_1"
  param {
    lr_mult: 1
    decay_mult: 1
  }
  param {
    lr_mult: 2
    decay_mult: 0
  }
  convolution_param {
    num_output: 128
    pad: 1
    kernel_size: 3
    stride: 1
  }
}
layer {
  name: "relu2_1"
  type: "ReLU"
  bottom: "conv2_1"
  top: "conv2_1"
}
layer {
  name: "conv2_2"
  type: "Convolution"
  bottom: "conv2_1"
  top: "conv2_2"
  param {
    lr_mult: 1
    decay_mult: 1
  }
  param {
    lr_mult: 2
    decay_mult: 0
  }
  convolution_param {
    num_output: 128
    pad: 1
    kernel_size: 3
    stride: 1
  }
}
layer {
  name: "relu2_2"
  type: "ReLU"
  bottom: "conv2_2"
  top: "conv2_2"
}
layer {
  name: "pool2"
  type: "Pooling"
  bottom: "conv2_2"
  top: "pool2"
  pooling_param {
    pool: MAX
    kernel_size: 2
    stride: 2
  }
}
layer {
  name: "conv3_1"
  type: "Convolution"
  bottom: "pool2"
  top: "conv3_1"
  param {
    lr_mult: 1
    decay_mult: 1
  }
  param {
    lr_mult: 2
    decay_mult: 0
  }
  convolution_param {
    num_output: 256
    pad: 1
    kernel_size: 3
    stride: 1
  }
}
layer {
  name: "relu3_1"
  type: "ReLU"
  bottom: "conv3_1"
  top: "conv3_1"
}
layer {
  name: "conv3_2"
  type: "Convolution"
  bottom: "conv3_1"
  top: "conv3_2"
  param {
    lr_mult: 1
    decay_mult: 1
  }
  param {
    lr_mult: 2
    decay_mult: 0
  }
  convolution_param {
    num_output: 256
    pad: 1
    kernel_size: 3
    stride: 1
  }
}
layer {
  name: "relu3_2"
  type: "ReLU"
  bottom: "conv3_2"
  top: "conv3_2"
}
layer {
  name: "conv3_3"
  type: "Convolution"
  bottom: "conv3_2"
  top: "conv3_3"
  param {
    lr_mult: 1
    decay_mult: 1
  }
  param {
    lr_mult: 2
    decay_mult: 0
  }
  convolution_param {
    num_output: 256
    pad: 1
    kernel_size: 3
    stride: 1
  }
}
layer {
  name: "relu3_3"
  type: "ReLU"
  bottom: "conv3_3"
  top: "conv3_3"
}
layer {
  name: "pool3"
  type: "Pooling"
  bottom: "conv3_3"
  top: "pool3"
  pooling_param {
    pool: MAX
    kernel_size: 2
    stride: 2
  }
}
layer {
  name: "conv4_1"
  type: "Convolution"
  bottom: "pool3"
  top: "conv4_1"
  param {
    lr_mult: 1
    decay_mult: 1
  }
  param {
    lr_mult: 2
    decay_mult: 0
  }
  convolution_param {
    num_output: 512
    pad: 1
    kernel_size: 3
    stride: 1
  }
}
layer {
  name: "relu4_1"
  type: "ReLU"
  bottom: "conv4_1"
  top: "conv4_1"
}
layer {
  name: "conv4_2"
  type: "Convolution"
  bottom: "conv4_1"
  top: "conv4_2"
  param {
    lr_mult: 1
    decay_mult: 1
  }
  param {
    lr_mult: 2
    decay_mult: 0
  }
  convolution_param {
    num_output: 512
    pad: 1
    kernel_size: 3
    stride: 1
  }
}
layer {
  name: "relu4_2"
  type: "ReLU"
  bottom: "conv4_2"
  top: "conv4_2"
}
layer {
  name: "conv4_3"
  type: "Convolution"
  bottom: "conv4_2"
  top: "conv4_3"
  param {
    lr_mult: 1
    decay_mult: 1
  }
  param {
    lr_mult: 2
    decay_mult: 0
  }
  convolution_param {
    num_output: 512
    pad: 1
    kernel_size: 3
    stride: 1
  }
}
layer {
  name: "relu4_3"
  type: "ReLU"
  bottom: "conv4_3"
  top: "conv4_3"
}
layer {
  name: "pool4"
  type: "Pooling"
  bottom: "conv4_3"
  top: "pool4"
  pooling_param {
    pool: MAX
    kernel_size: 2
    stride: 2
  }
}
layer {
  name: "conv5_1"
  type: "Convolution"
  bottom: "pool4"
  top: "conv5_1"
  param {
    lr_mult: 1
    decay_mult: 1
  }
  param {
    lr_mult: 2
    decay_mult: 0
  }
  convolution_param {
    num_output: 512
    pad: 1
    kernel_size: 3
    stride: 1
  }
}
layer {
  name: "relu5_1"
  type: "ReLU"
  bottom: "conv5_1"
  top: "conv5_1"
}
layer {
  name: "conv5_2"
  type: "Convolution"
  bottom: "conv5_1"
  top: "conv5_2"
  param {
    lr_mult: 1
    decay_mult: 1
  }
  param {
    lr_mult: 2
    decay_mult: 0
  }
  convolution_param {
    num_output: 512
    pad: 1
    kernel_size: 3
    stride: 1
  }
}
layer {
  name: "relu5_2"
  type: "ReLU"
  bottom: "conv5_2"
  top: "conv5_2"
}
layer {
  name: "conv5_3"
  type: "Convolution"
  bottom: "conv5_2"
  top: "conv5_3"
  param {
    lr_mult: 1
    decay_mult: 1
  }
  param {
    lr_mult: 2
    decay_mult: 0
  }
  convolution_param {
    num_output: 512
    pad: 1
    kernel_size: 3
    stride: 1
  }
}
layer {
  name: "relu5_3"
  type: "ReLU"
  bottom: "conv5_3"
  top: "conv5_3"
}
layer {
  name: "pool5"
  type: "Pooling"
  bottom: "conv5_3"
  top: "pool5"
  pooling_param {
    pool: MAX
    kernel_size: 2
    stride: 2
  }
}
layer {
  name: "fc6"
  type: "Convolution"
  bottom: "pool5"
  top: "fc6"
  param {
    lr_mult: 1
    decay_mult: 1
  }
  param {
    lr_mult: 2
    decay_mult: 0
  }
  convolution_param {
    num_output: 4096
    pad: 0
    kernel_size: 7
    stride: 1
  }
}
layer {
  name: "relu6"
  type: "ReLU"
  bottom: "fc6"
  top: "fc6"
}
layer {
  name: "drop6"
  type: "Dropout"
  bottom: "fc6"
  top: "fc6"
  dropout_param {
    dropout_ratio: 0.5
  }
}
layer {
  name: "fc7"
  type: "Convolution"
  bottom: "fc6"
  top: "fc7"
  param {
    lr_mult: 1
    decay_mult: 1
  }
  param {
    lr_mult: 2
    decay_mult: 0
  }
  convolution_param {
    num_output: 4096
    pad: 0
    kernel_size: 1
    stride: 1
  }
}
layer {
  name: "relu7"
  type: "ReLU"
  bottom: "fc7"
  top: "fc7"
}
layer {
  name: "drop7"
  type: "Dropout"
  bottom: "fc7"
  top: "fc7"
  dropout_param {
    dropout_ratio: 0.5
  }
}
layer {
  name: "score_fr"
  type: "Convolution"
  bottom: "fc7"
  top: "score_fr"
  param {
    lr_mult: 1
    decay_mult: 1
  }
  param {
    lr_mult: 2
    decay_mult: 0
  }
  convolution_param {
    num_output: 11
    pad: 0
    kernel_size: 1
  }
}
layer {
  name: "upscore2"
  type: "Deconvolution"
  bottom: "score_fr"
  top: "upscore2"
  param {
    lr_mult: 0
  }
  convolution_param {
    num_output: 11
    bias_term: false
    kernel_size: 4
    stride: 2
  }
}
layer {
  name: "score_pool4"
  type: "Convolution"
  bottom: "pool4"
  top: "score_pool4"
  param {
    lr_mult: 1
    decay_mult: 1
  }
  param {
    lr_mult: 2
    decay_mult: 0
  }
  convolution_param {
    num_output: 11
    pad: 0
    kernel_size: 1
  }
}
layer {
  name: "score_pool4c"
  type: "Crop"
  bottom: "score_pool4"
  bottom: "upscore2"
  top: "score_pool4c"
  crop_param {
    axis: 2
    offset: 5
  }
}
layer {
  name: "fuse_pool4"
  type: "Eltwise"
  bottom: "upscore2"
  bottom: "score_pool4c"
  top: "fuse_pool4"
  eltwise_param {
    operation: SUM
  }
}
layer {
  name: "upscore16"
  type: "Deconvolution"
  bottom: "fuse_pool4"
  top: "upscore16"
  param {
    lr_mult: 0
  }
  convolution_param {
    num_output: 11
    bias_term: false
    kernel_size: 32
    stride: 16
  }
}
layer {
  name: "score"
  type: "Crop"
  bottom: "upscore16"
  bottom: "data"
  top: "score"
  crop_param {
    axis: 2
    offset: 27
  }
}
layer {
  name: "loss"
  type: "SoftmaxWithLoss"
  bottom: "score"
  bottom: "label"
  top: "loss"
  loss_param {
    ignore_label: 255
    normalize: false
  }
}
I0812 12:44:42.885012 17639 layer_factory.hpp:77] Creating layer data
I0812 12:44:43.184670 17639 net.cpp:91] Creating Layer data
I0812 12:44:43.184695 17639 net.cpp:399] data -> data
I0812 12:44:43.184702 17639 net.cpp:399] data -> label
I0812 12:44:43.839273 17639 net.cpp:141] Setting up data
I0812 12:44:43.839299 17639 net.cpp:148] Top shape: 1 3 333 500 (499500)
I0812 12:44:43.839303 17639 net.cpp:148] Top shape: 1 1 333 500 (166500)
I0812 12:44:43.839306 17639 net.cpp:156] Memory required for data: 2664000
I0812 12:44:43.839313 17639 layer_factory.hpp:77] Creating layer data_data_0_split
I0812 12:44:43.839325 17639 net.cpp:91] Creating Layer data_data_0_split
I0812 12:44:43.839329 17639 net.cpp:425] data_data_0_split <- data
I0812 12:44:43.839334 17639 net.cpp:399] data_data_0_split -> data_data_0_split_0
I0812 12:44:43.839342 17639 net.cpp:399] data_data_0_split -> data_data_0_split_1
I0812 12:44:43.839370 17639 net.cpp:141] Setting up data_data_0_split
I0812 12:44:43.839375 17639 net.cpp:148] Top shape: 1 3 333 500 (499500)
I0812 12:44:43.839377 17639 net.cpp:148] Top shape: 1 3 333 500 (499500)
I0812 12:44:43.839380 17639 net.cpp:156] Memory required for data: 6660000
I0812 12:44:43.839382 17639 layer_factory.hpp:77] Creating layer conv1_1
I0812 12:44:43.839390 17639 net.cpp:91] Creating Layer conv1_1
I0812 12:44:43.839393 17639 net.cpp:425] conv1_1 <- data_data_0_split_0
I0812 12:44:43.839396 17639 net.cpp:399] conv1_1 -> conv1_1
I0812 12:44:44.246003 17639 net.cpp:141] Setting up conv1_1
I0812 12:44:44.246029 17639 net.cpp:148] Top shape: 1 64 531 698 (23720832)
I0812 12:44:44.246032 17639 net.cpp:156] Memory required for data: 101543328
I0812 12:44:44.246044 17639 layer_factory.hpp:77] Creating layer relu1_1
I0812 12:44:44.246052 17639 net.cpp:91] Creating Layer relu1_1
I0812 12:44:44.246055 17639 net.cpp:425] relu1_1 <- conv1_1
I0812 12:44:44.246059 17639 net.cpp:386] relu1_1 -> conv1_1 (in-place)
I0812 12:44:44.246357 17639 net.cpp:141] Setting up relu1_1
I0812 12:44:44.246366 17639 net.cpp:148] Top shape: 1 64 531 698 (23720832)
I0812 12:44:44.246367 17639 net.cpp:156] Memory required for data: 196426656
I0812 12:44:44.246369 17639 layer_factory.hpp:77] Creating layer conv1_2
I0812 12:44:44.246377 17639 net.cpp:91] Creating Layer conv1_2
I0812 12:44:44.246379 17639 net.cpp:425] conv1_2 <- conv1_1
I0812 12:44:44.246383 17639 net.cpp:399] conv1_2 -> conv1_2
I0812 12:44:44.248070 17639 net.cpp:141] Setting up conv1_2
I0812 12:44:44.248082 17639 net.cpp:148] Top shape: 1 64 531 698 (23720832)
I0812 12:44:44.248085 17639 net.cpp:156] Memory required for data: 291309984
I0812 12:44:44.248091 17639 layer_factory.hpp:77] Creating layer relu1_2
I0812 12:44:44.248096 17639 net.cpp:91] Creating Layer relu1_2
I0812 12:44:44.248098 17639 net.cpp:425] relu1_2 <- conv1_2
I0812 12:44:44.248101 17639 net.cpp:386] relu1_2 -> conv1_2 (in-place)
I0812 12:44:44.248368 17639 net.cpp:141] Setting up relu1_2
I0812 12:44:44.248375 17639 net.cpp:148] Top shape: 1 64 531 698 (23720832)
I0812 12:44:44.248378 17639 net.cpp:156] Memory required for data: 386193312
I0812 12:44:44.248379 17639 layer_factory.hpp:77] Creating layer pool1
I0812 12:44:44.248384 17639 net.cpp:91] Creating Layer pool1
I0812 12:44:44.248386 17639 net.cpp:425] pool1 <- conv1_2
I0812 12:44:44.248389 17639 net.cpp:399] pool1 -> pool1
I0812 12:44:44.248427 17639 net.cpp:141] Setting up pool1
I0812 12:44:44.248440 17639 net.cpp:148] Top shape: 1 64 266 349 (5941376)
I0812 12:44:44.248441 17639 net.cpp:156] Memory required for data: 409958816
I0812 12:44:44.248443 17639 layer_factory.hpp:77] Creating layer conv2_1
I0812 12:44:44.248458 17639 net.cpp:91] Creating Layer conv2_1
I0812 12:44:44.248461 17639 net.cpp:425] conv2_1 <- pool1
I0812 12:44:44.248463 17639 net.cpp:399] conv2_1 -> conv2_1
I0812 12:44:44.249753 17639 net.cpp:141] Setting up conv2_1
I0812 12:44:44.249763 17639 net.cpp:148] Top shape: 1 128 266 349 (11882752)
I0812 12:44:44.249764 17639 net.cpp:156] Memory required for data: 457489824
I0812 12:44:44.249770 17639 layer_factory.hpp:77] Creating layer relu2_1
I0812 12:44:44.249776 17639 net.cpp:91] Creating Layer relu2_1
I0812 12:44:44.249778 17639 net.cpp:425] relu2_1 <- conv2_1
I0812 12:44:44.249781 17639 net.cpp:386] relu2_1 -> conv2_1 (in-place)
I0812 12:44:44.249912 17639 net.cpp:141] Setting up relu2_1
I0812 12:44:44.249918 17639 net.cpp:148] Top shape: 1 128 266 349 (11882752)
I0812 12:44:44.249920 17639 net.cpp:156] Memory required for data: 505020832
I0812 12:44:44.249922 17639 layer_factory.hpp:77] Creating layer conv2_2
I0812 12:44:44.249927 17639 net.cpp:91] Creating Layer conv2_2
I0812 12:44:44.249929 17639 net.cpp:425] conv2_2 <- conv2_1
I0812 12:44:44.249933 17639 net.cpp:399] conv2_2 -> conv2_2
I0812 12:44:44.251286 17639 net.cpp:141] Setting up conv2_2
I0812 12:44:44.251294 17639 net.cpp:148] Top shape: 1 128 266 349 (11882752)
I0812 12:44:44.251296 17639 net.cpp:156] Memory required for data: 552551840
I0812 12:44:44.251301 17639 layer_factory.hpp:77] Creating layer relu2_2
I0812 12:44:44.251305 17639 net.cpp:91] Creating Layer relu2_2
I0812 12:44:44.251307 17639 net.cpp:425] relu2_2 <- conv2_2
I0812 12:44:44.251310 17639 net.cpp:386] relu2_2 -> conv2_2 (in-place)
I0812 12:44:44.251587 17639 net.cpp:141] Setting up relu2_2
I0812 12:44:44.251595 17639 net.cpp:148] Top shape: 1 128 266 349 (11882752)
I0812 12:44:44.251596 17639 net.cpp:156] Memory required for data: 600082848
I0812 12:44:44.251598 17639 layer_factory.hpp:77] Creating layer pool2
I0812 12:44:44.251603 17639 net.cpp:91] Creating Layer pool2
I0812 12:44:44.251605 17639 net.cpp:425] pool2 <- conv2_2
I0812 12:44:44.251608 17639 net.cpp:399] pool2 -> pool2
I0812 12:44:44.251655 17639 net.cpp:141] Setting up pool2
I0812 12:44:44.251659 17639 net.cpp:148] Top shape: 1 128 133 175 (2979200)
I0812 12:44:44.251662 17639 net.cpp:156] Memory required for data: 611999648
I0812 12:44:44.251672 17639 layer_factory.hpp:77] Creating layer conv3_1
I0812 12:44:44.251677 17639 net.cpp:91] Creating Layer conv3_1
I0812 12:44:44.251682 17639 net.cpp:425] conv3_1 <- pool2
I0812 12:44:44.251698 17639 net.cpp:399] conv3_1 -> conv3_1
I0812 12:44:44.253001 17639 net.cpp:141] Setting up conv3_1
I0812 12:44:44.253010 17639 net.cpp:148] Top shape: 1 256 133 175 (5958400)
I0812 12:44:44.253017 17639 net.cpp:156] Memory required for data: 635833248
I0812 12:44:44.253041 17639 layer_factory.hpp:77] Creating layer relu3_1
I0812 12:44:44.253047 17639 net.cpp:91] Creating Layer relu3_1
I0812 12:44:44.253060 17639 net.cpp:425] relu3_1 <- conv3_1
I0812 12:44:44.253063 17639 net.cpp:386] relu3_1 -> conv3_1 (in-place)
I0812 12:44:44.253335 17639 net.cpp:141] Setting up relu3_1
I0812 12:44:44.253342 17639 net.cpp:148] Top shape: 1 256 133 175 (5958400)
I0812 12:44:44.253345 17639 net.cpp:156] Memory required for data: 659666848
I0812 12:44:44.253346 17639 layer_factory.hpp:77] Creating layer conv3_2
I0812 12:44:44.253353 17639 net.cpp:91] Creating Layer conv3_2
I0812 12:44:44.253355 17639 net.cpp:425] conv3_2 <- conv3_1
I0812 12:44:44.253360 17639 net.cpp:399] conv3_2 -> conv3_2
I0812 12:44:44.255059 17639 net.cpp:141] Setting up conv3_2
I0812 12:44:44.255069 17639 net.cpp:148] Top shape: 1 256 133 175 (5958400)
I0812 12:44:44.255071 17639 net.cpp:156] Memory required for data: 683500448
I0812 12:44:44.255076 17639 layer_factory.hpp:77] Creating layer relu3_2
I0812 12:44:44.255081 17639 net.cpp:91] Creating Layer relu3_2
I0812 12:44:44.255084 17639 net.cpp:425] relu3_2 <- conv3_2
I0812 12:44:44.255089 17639 net.cpp:386] relu3_2 -> conv3_2 (in-place)
I0812 12:44:44.255201 17639 net.cpp:141] Setting up relu3_2
I0812 12:44:44.255208 17639 net.cpp:148] Top shape: 1 256 133 175 (5958400)
I0812 12:44:44.255209 17639 net.cpp:156] Memory required for data: 707334048
I0812 12:44:44.255211 17639 layer_factory.hpp:77] Creating layer conv3_3
I0812 12:44:44.255220 17639 net.cpp:91] Creating Layer conv3_3
I0812 12:44:44.255223 17639 net.cpp:425] conv3_3 <- conv3_2
I0812 12:44:44.255228 17639 net.cpp:399] conv3_3 -> conv3_3
I0812 12:44:44.257011 17639 net.cpp:141] Setting up conv3_3
I0812 12:44:44.257045 17639 net.cpp:148] Top shape: 1 256 133 175 (5958400)
I0812 12:44:44.257056 17639 net.cpp:156] Memory required for data: 731167648
I0812 12:44:44.257062 17639 layer_factory.hpp:77] Creating layer relu3_3
I0812 12:44:44.257077 17639 net.cpp:91] Creating Layer relu3_3
I0812 12:44:44.257079 17639 net.cpp:425] relu3_3 <- conv3_3
I0812 12:44:44.257084 17639 net.cpp:386] relu3_3 -> conv3_3 (in-place)
I0812 12:44:44.257364 17639 net.cpp:141] Setting up relu3_3
I0812 12:44:44.257372 17639 net.cpp:148] Top shape: 1 256 133 175 (5958400)
I0812 12:44:44.257374 17639 net.cpp:156] Memory required for data: 755001248
I0812 12:44:44.257376 17639 layer_factory.hpp:77] Creating layer pool3
I0812 12:44:44.257381 17639 net.cpp:91] Creating Layer pool3
I0812 12:44:44.257383 17639 net.cpp:425] pool3 <- conv3_3
I0812 12:44:44.257387 17639 net.cpp:399] pool3 -> pool3
I0812 12:44:44.257417 17639 net.cpp:141] Setting up pool3
I0812 12:44:44.257421 17639 net.cpp:148] Top shape: 1 256 67 88 (1509376)
I0812 12:44:44.257423 17639 net.cpp:156] Memory required for data: 761038752
I0812 12:44:44.257426 17639 layer_factory.hpp:77] Creating layer conv4_1
I0812 12:44:44.257432 17639 net.cpp:91] Creating Layer conv4_1
I0812 12:44:44.257434 17639 net.cpp:425] conv4_1 <- pool3
I0812 12:44:44.257437 17639 net.cpp:399] conv4_1 -> conv4_1
I0812 12:44:44.260589 17639 net.cpp:141] Setting up conv4_1
I0812 12:44:44.260612 17639 net.cpp:148] Top shape: 1 512 67 88 (3018752)
I0812 12:44:44.260613 17639 net.cpp:156] Memory required for data: 773113760
I0812 12:44:44.260620 17639 layer_factory.hpp:77] Creating layer relu4_1
I0812 12:44:44.260627 17639 net.cpp:91] Creating Layer relu4_1
I0812 12:44:44.260630 17639 net.cpp:425] relu4_1 <- conv4_1
I0812 12:44:44.260635 17639 net.cpp:386] relu4_1 -> conv4_1 (in-place)
I0812 12:44:44.261039 17639 net.cpp:141] Setting up relu4_1
I0812 12:44:44.261047 17639 net.cpp:148] Top shape: 1 512 67 88 (3018752)
I0812 12:44:44.261059 17639 net.cpp:156] Memory required for data: 785188768
I0812 12:44:44.261061 17639 layer_factory.hpp:77] Creating layer conv4_2
I0812 12:44:44.261077 17639 net.cpp:91] Creating Layer conv4_2
I0812 12:44:44.261080 17639 net.cpp:425] conv4_2 <- conv4_1
I0812 12:44:44.261083 17639 net.cpp:399] conv4_2 -> conv4_2
I0812 12:44:44.265578 17639 net.cpp:141] Setting up conv4_2
I0812 12:44:44.265602 17639 net.cpp:148] Top shape: 1 512 67 88 (3018752)
I0812 12:44:44.265604 17639 net.cpp:156] Memory required for data: 797263776
I0812 12:44:44.265615 17639 layer_factory.hpp:77] Creating layer relu4_2
I0812 12:44:44.265625 17639 net.cpp:91] Creating Layer relu4_2
I0812 12:44:44.265627 17639 net.cpp:425] relu4_2 <- conv4_2
I0812 12:44:44.265632 17639 net.cpp:386] relu4_2 -> conv4_2 (in-place)
I0812 12:44:44.265749 17639 net.cpp:141] Setting up relu4_2
I0812 12:44:44.265755 17639 net.cpp:148] Top shape: 1 512 67 88 (3018752)
I0812 12:44:44.265758 17639 net.cpp:156] Memory required for data: 809338784
I0812 12:44:44.265759 17639 layer_factory.hpp:77] Creating layer conv4_3
I0812 12:44:44.265766 17639 net.cpp:91] Creating Layer conv4_3
I0812 12:44:44.265769 17639 net.cpp:425] conv4_3 <- conv4_2
I0812 12:44:44.265774 17639 net.cpp:399] conv4_3 -> conv4_3
I0812 12:44:44.270277 17639 net.cpp:141] Setting up conv4_3
I0812 12:44:44.270301 17639 net.cpp:148] Top shape: 1 512 67 88 (3018752)
I0812 12:44:44.270304 17639 net.cpp:156] Memory required for data: 821413792
I0812 12:44:44.270310 17639 layer_factory.hpp:77] Creating layer relu4_3
I0812 12:44:44.270319 17639 net.cpp:91] Creating Layer relu4_3
I0812 12:44:44.270323 17639 net.cpp:425] relu4_3 <- conv4_3
I0812 12:44:44.270328 17639 net.cpp:386] relu4_3 -> conv4_3 (in-place)
I0812 12:44:44.270589 17639 net.cpp:141] Setting up relu4_3
I0812 12:44:44.270597 17639 net.cpp:148] Top shape: 1 512 67 88 (3018752)
I0812 12:44:44.270599 17639 net.cpp:156] Memory required for data: 833488800
I0812 12:44:44.270602 17639 layer_factory.hpp:77] Creating layer pool4
I0812 12:44:44.270606 17639 net.cpp:91] Creating Layer pool4
I0812 12:44:44.270609 17639 net.cpp:425] pool4 <- conv4_3
I0812 12:44:44.270612 17639 net.cpp:399] pool4 -> pool4
I0812 12:44:44.270644 17639 net.cpp:141] Setting up pool4
I0812 12:44:44.270648 17639 net.cpp:148] Top shape: 1 512 34 44 (765952)
I0812 12:44:44.270650 17639 net.cpp:156] Memory required for data: 836552608
I0812 12:44:44.270651 17639 layer_factory.hpp:77] Creating layer pool4_pool4_0_split
I0812 12:44:44.270655 17639 net.cpp:91] Creating Layer pool4_pool4_0_split
I0812 12:44:44.270658 17639 net.cpp:425] pool4_pool4_0_split <- pool4
I0812 12:44:44.270660 17639 net.cpp:399] pool4_pool4_0_split -> pool4_pool4_0_split_0
I0812 12:44:44.270663 17639 net.cpp:399] pool4_pool4_0_split -> pool4_pool4_0_split_1
I0812 12:44:44.270686 17639 net.cpp:141] Setting up pool4_pool4_0_split
I0812 12:44:44.270689 17639 net.cpp:148] Top shape: 1 512 34 44 (765952)
I0812 12:44:44.270691 17639 net.cpp:148] Top shape: 1 512 34 44 (765952)
I0812 12:44:44.270694 17639 net.cpp:156] Memory required for data: 842680224
I0812 12:44:44.270695 17639 layer_factory.hpp:77] Creating layer conv5_1
I0812 12:44:44.270702 17639 net.cpp:91] Creating Layer conv5_1
I0812 12:44:44.270704 17639 net.cpp:425] conv5_1 <- pool4_pool4_0_split_0
I0812 12:44:44.270707 17639 net.cpp:399] conv5_1 -> conv5_1
I0812 12:44:44.275503 17639 net.cpp:141] Setting up conv5_1
I0812 12:44:44.275578 17639 net.cpp:148] Top shape: 1 512 34 44 (765952)
I0812 12:44:44.275583 17639 net.cpp:156] Memory required for data: 845744032
I0812 12:44:44.275599 17639 layer_factory.hpp:77] Creating layer relu5_1
I0812 12:44:44.275606 17639 net.cpp:91] Creating Layer relu5_1
I0812 12:44:44.275614 17639 net.cpp:425] relu5_1 <- conv5_1
I0812 12:44:44.275619 17639 net.cpp:386] relu5_1 -> conv5_1 (in-place)
I0812 12:44:44.275982 17639 net.cpp:141] Setting up relu5_1
I0812 12:44:44.275990 17639 net.cpp:148] Top shape: 1 512 34 44 (765952)
I0812 12:44:44.276003 17639 net.cpp:156] Memory required for data: 848807840
I0812 12:44:44.276005 17639 layer_factory.hpp:77] Creating layer conv5_2
I0812 12:44:44.276011 17639 net.cpp:91] Creating Layer conv5_2
I0812 12:44:44.276015 17639 net.cpp:425] conv5_2 <- conv5_1
I0812 12:44:44.276018 17639 net.cpp:399] conv5_2 -> conv5_2
I0812 12:44:44.280915 17639 net.cpp:141] Setting up conv5_2
I0812 12:44:44.280938 17639 net.cpp:148] Top shape: 1 512 34 44 (765952)
I0812 12:44:44.280941 17639 net.cpp:156] Memory required for data: 851871648
I0812 12:44:44.280947 17639 layer_factory.hpp:77] Creating layer relu5_2
I0812 12:44:44.280954 17639 net.cpp:91] Creating Layer relu5_2
I0812 12:44:44.280958 17639 net.cpp:425] relu5_2 <- conv5_2
I0812 12:44:44.280973 17639 net.cpp:386] relu5_2 -> conv5_2 (in-place)
I0812 12:44:44.281111 17639 net.cpp:141] Setting up relu5_2
I0812 12:44:44.281118 17639 net.cpp:148] Top shape: 1 512 34 44 (765952)
I0812 12:44:44.281121 17639 net.cpp:156] Memory required for data: 854935456
I0812 12:44:44.281122 17639 layer_factory.hpp:77] Creating layer conv5_3
I0812 12:44:44.281129 17639 net.cpp:91] Creating Layer conv5_3
I0812 12:44:44.281131 17639 net.cpp:425] conv5_3 <- conv5_2
I0812 12:44:44.281136 17639 net.cpp:399] conv5_3 -> conv5_3
I0812 12:44:44.285799 17639 net.cpp:141] Setting up conv5_3
I0812 12:44:44.285823 17639 net.cpp:148] Top shape: 1 512 34 44 (765952)
I0812 12:44:44.285826 17639 net.cpp:156] Memory required for data: 857999264
I0812 12:44:44.285835 17639 layer_factory.hpp:77] Creating layer relu5_3
I0812 12:44:44.285848 17639 net.cpp:91] Creating Layer relu5_3
I0812 12:44:44.285852 17639 net.cpp:425] relu5_3 <- conv5_3
I0812 12:44:44.285867 17639 net.cpp:386] relu5_3 -> conv5_3 (in-place)
I0812 12:44:44.286165 17639 net.cpp:141] Setting up relu5_3
I0812 12:44:44.286175 17639 net.cpp:148] Top shape: 1 512 34 44 (765952)
I0812 12:44:44.286176 17639 net.cpp:156] Memory required for data: 861063072
I0812 12:44:44.286180 17639 layer_factory.hpp:77] Creating layer pool5
I0812 12:44:44.286185 17639 net.cpp:91] Creating Layer pool5
I0812 12:44:44.286188 17639 net.cpp:425] pool5 <- conv5_3
I0812 12:44:44.286192 17639 net.cpp:399] pool5 -> pool5
I0812 12:44:44.286239 17639 net.cpp:141] Setting up pool5
I0812 12:44:44.286252 17639 net.cpp:148] Top shape: 1 512 17 22 (191488)
I0812 12:44:44.286254 17639 net.cpp:156] Memory required for data: 861829024
I0812 12:44:44.286257 17639 layer_factory.hpp:77] Creating layer fc6
I0812 12:44:44.286273 17639 net.cpp:91] Creating Layer fc6
I0812 12:44:44.286276 17639 net.cpp:425] fc6 <- pool5
I0812 12:44:44.286288 17639 net.cpp:399] fc6 -> fc6
I0812 12:44:44.432695 17639 net.cpp:141] Setting up fc6
I0812 12:44:44.432721 17639 net.cpp:148] Top shape: 1 4096 11 16 (720896)
I0812 12:44:44.432724 17639 net.cpp:156] Memory required for data: 864712608
I0812 12:44:44.432732 17639 layer_factory.hpp:77] Creating layer relu6
I0812 12:44:44.432742 17639 net.cpp:91] Creating Layer relu6
I0812 12:44:44.432746 17639 net.cpp:425] relu6 <- fc6
I0812 12:44:44.432751 17639 net.cpp:386] relu6 -> fc6 (in-place)
I0812 12:44:44.433089 17639 net.cpp:141] Setting up relu6
I0812 12:44:44.433099 17639 net.cpp:148] Top shape: 1 4096 11 16 (720896)
I0812 12:44:44.433100 17639 net.cpp:156] Memory required for data: 867596192
I0812 12:44:44.433104 17639 layer_factory.hpp:77] Creating layer drop6
I0812 12:44:44.433114 17639 net.cpp:91] Creating Layer drop6
I0812 12:44:44.433116 17639 net.cpp:425] drop6 <- fc6
I0812 12:44:44.433120 17639 net.cpp:386] drop6 -> fc6 (in-place)
I0812 12:44:44.433157 17639 net.cpp:141] Setting up drop6
I0812 12:44:44.433161 17639 net.cpp:148] Top shape: 1 4096 11 16 (720896)
I0812 12:44:44.433163 17639 net.cpp:156] Memory required for data: 870479776
I0812 12:44:44.433166 17639 layer_factory.hpp:77] Creating layer fc7
I0812 12:44:44.433173 17639 net.cpp:91] Creating Layer fc7
I0812 12:44:44.433176 17639 net.cpp:425] fc7 <- fc6
I0812 12:44:44.433179 17639 net.cpp:399] fc7 -> fc7
I0812 12:44:44.459142 17639 net.cpp:141] Setting up fc7
I0812 12:44:44.459168 17639 net.cpp:148] Top shape: 1 4096 11 16 (720896)
I0812 12:44:44.459172 17639 net.cpp:156] Memory required for data: 873363360
I0812 12:44:44.459177 17639 layer_factory.hpp:77] Creating layer relu7
I0812 12:44:44.459185 17639 net.cpp:91] Creating Layer relu7
I0812 12:44:44.459189 17639 net.cpp:425] relu7 <- fc7
I0812 12:44:44.459194 17639 net.cpp:386] relu7 -> fc7 (in-place)
I0812 12:44:44.459475 17639 net.cpp:141] Setting up relu7
I0812 12:44:44.459482 17639 net.cpp:148] Top shape: 1 4096 11 16 (720896)
I0812 12:44:44.459493 17639 net.cpp:156] Memory required for data: 876246944
I0812 12:44:44.459496 17639 layer_factory.hpp:77] Creating layer drop7
I0812 12:44:44.459502 17639 net.cpp:91] Creating Layer drop7
I0812 12:44:44.459504 17639 net.cpp:425] drop7 <- fc7
I0812 12:44:44.459507 17639 net.cpp:386] drop7 -> fc7 (in-place)
I0812 12:44:44.459532 17639 net.cpp:141] Setting up drop7
I0812 12:44:44.459535 17639 net.cpp:148] Top shape: 1 4096 11 16 (720896)
I0812 12:44:44.459545 17639 net.cpp:156] Memory required for data: 879130528
I0812 12:44:44.459547 17639 layer_factory.hpp:77] Creating layer score_fr
I0812 12:44:44.459553 17639 net.cpp:91] Creating Layer score_fr
I0812 12:44:44.459564 17639 net.cpp:425] score_fr <- fc7
I0812 12:44:44.459568 17639 net.cpp:399] score_fr -> score_fr
I0812 12:44:44.460934 17639 net.cpp:141] Setting up score_fr
I0812 12:44:44.460942 17639 net.cpp:148] Top shape: 1 11 11 16 (1936)
I0812 12:44:44.460945 17639 net.cpp:156] Memory required for data: 879138272
I0812 12:44:44.460950 17639 layer_factory.hpp:77] Creating layer upscore2
I0812 12:44:44.460960 17639 net.cpp:91] Creating Layer upscore2
I0812 12:44:44.460973 17639 net.cpp:425] upscore2 <- score_fr
I0812 12:44:44.460976 17639 net.cpp:399] upscore2 -> upscore2
I0812 12:44:44.461124 17639 net.cpp:141] Setting up upscore2
I0812 12:44:44.461129 17639 net.cpp:148] Top shape: 1 11 24 34 (8976)
I0812 12:44:44.461132 17639 net.cpp:156] Memory required for data: 879174176
I0812 12:44:44.461138 17639 layer_factory.hpp:77] Creating layer upscore2_upscore2_0_split
I0812 12:44:44.461143 17639 net.cpp:91] Creating Layer upscore2_upscore2_0_split
I0812 12:44:44.461145 17639 net.cpp:425] upscore2_upscore2_0_split <- upscore2
I0812 12:44:44.461148 17639 net.cpp:399] upscore2_upscore2_0_split -> upscore2_upscore2_0_split_0
I0812 12:44:44.461161 17639 net.cpp:399] upscore2_upscore2_0_split -> upscore2_upscore2_0_split_1
I0812 12:44:44.461185 17639 net.cpp:141] Setting up upscore2_upscore2_0_split
I0812 12:44:44.461189 17639 net.cpp:148] Top shape: 1 11 24 34 (8976)
I0812 12:44:44.461191 17639 net.cpp:148] Top shape: 1 11 24 34 (8976)
I0812 12:44:44.461194 17639 net.cpp:156] Memory required for data: 879245984
I0812 12:44:44.461195 17639 layer_factory.hpp:77] Creating layer score_pool4
I0812 12:44:44.461200 17639 net.cpp:91] Creating Layer score_pool4
I0812 12:44:44.461202 17639 net.cpp:425] score_pool4 <- pool4_pool4_0_split_1
I0812 12:44:44.461207 17639 net.cpp:399] score_pool4 -> score_pool4
I0812 12:44:44.462040 17639 net.cpp:141] Setting up score_pool4
I0812 12:44:44.462049 17639 net.cpp:148] Top shape: 1 11 34 44 (16456)
I0812 12:44:44.462050 17639 net.cpp:156] Memory required for data: 879311808
I0812 12:44:44.462054 17639 layer_factory.hpp:77] Creating layer score_pool4c
I0812 12:44:44.462062 17639 net.cpp:91] Creating Layer score_pool4c
I0812 12:44:44.462064 17639 net.cpp:425] score_pool4c <- score_pool4
I0812 12:44:44.462067 17639 net.cpp:425] score_pool4c <- upscore2_upscore2_0_split_0
I0812 12:44:44.462080 17639 net.cpp:399] score_pool4c -> score_pool4c
I0812 12:44:44.462105 17639 net.cpp:141] Setting up score_pool4c
I0812 12:44:44.462110 17639 net.cpp:148] Top shape: 1 11 24 34 (8976)
I0812 12:44:44.462123 17639 net.cpp:156] Memory required for data: 879347712
I0812 12:44:44.462126 17639 layer_factory.hpp:77] Creating layer fuse_pool4
I0812 12:44:44.462129 17639 net.cpp:91] Creating Layer fuse_pool4
I0812 12:44:44.462131 17639 net.cpp:425] fuse_pool4 <- upscore2_upscore2_0_split_1
I0812 12:44:44.462134 17639 net.cpp:425] fuse_pool4 <- score_pool4c
I0812 12:44:44.462136 17639 net.cpp:399] fuse_pool4 -> fuse_pool4
I0812 12:44:44.462168 17639 net.cpp:141] Setting up fuse_pool4
I0812 12:44:44.462172 17639 net.cpp:148] Top shape: 1 11 24 34 (8976)
I0812 12:44:44.462174 17639 net.cpp:156] Memory required for data: 879383616
I0812 12:44:44.462177 17639 layer_factory.hpp:77] Creating layer upscore16
I0812 12:44:44.462180 17639 net.cpp:91] Creating Layer upscore16
I0812 12:44:44.462182 17639 net.cpp:425] upscore16 <- fuse_pool4
I0812 12:44:44.462185 17639 net.cpp:399] upscore16 -> upscore16
I0812 12:44:44.462831 17639 net.cpp:141] Setting up upscore16
I0812 12:44:44.462838 17639 net.cpp:148] Top shape: 1 11 400 560 (2464000)
I0812 12:44:44.462841 17639 net.cpp:156] Memory required for data: 889239616
I0812 12:44:44.462844 17639 layer_factory.hpp:77] Creating layer score
I0812 12:44:44.462848 17639 net.cpp:91] Creating Layer score
I0812 12:44:44.462851 17639 net.cpp:425] score <- upscore16
I0812 12:44:44.462853 17639 net.cpp:425] score <- data_data_0_split_1
I0812 12:44:44.462857 17639 net.cpp:399] score -> score
I0812 12:44:44.462874 17639 net.cpp:141] Setting up score
I0812 12:44:44.462878 17639 net.cpp:148] Top shape: 1 11 333 500 (1831500)
I0812 12:44:44.462880 17639 net.cpp:156] Memory required for data: 896565616
I0812 12:44:44.462882 17639 layer_factory.hpp:77] Creating layer loss
I0812 12:44:44.462887 17639 net.cpp:91] Creating Layer loss
I0812 12:44:44.462888 17639 net.cpp:425] loss <- score
I0812 12:44:44.462890 17639 net.cpp:425] loss <- label
I0812 12:44:44.462893 17639 net.cpp:399] loss -> loss
I0812 12:44:44.478132 17639 layer_factory.hpp:77] Creating layer loss
…
