…
I0715 12:37:01.458753 18547 solver.cpp:81] Creating training net from train_net file: train_vgg_weights.prototxt
I0715 12:37:01.459383 18547 net.cpp:49] Initializing net from parameters: 
state {
  phase: TRAIN
}
layer {
  name: "data"
  type: "Python"
  top: "data"
  top: "label"
  python_param {
    module: "pascalpart_layers"
    layer: "PASCALPartSegDataLayer"
    param_str: "{\'part\': \'head\', \'obj_cls\': \'person\', \'split\': \'train\', \'part_dir\': \'/home/cv/hdl/caffe/data/pascal/pascal-part\', \'seed\': 1337, \'voc_dir\': \'/home/cv/hdl/caffe/data/pascal/VOC\'}"
  }
}
layer {
  name: "conv1_1"
  type: "Convolution"
  bottom: "data"
  top: "conv1_1"
  param {
    lr_mult: 1
    decay_mult: 1
  }
  param {
    lr_mult: 2
    decay_mult: 0
  }
  convolution_param {
    num_output: 64
    pad: 100
    kernel_size: 3
    stride: 1
  }
}
layer {
  name: "relu1_1"
  type: "ReLU"
  bottom: "conv1_1"
  top: "conv1_1"
}
layer {
  name: "conv1_2"
  type: "Convolution"
  bottom: "conv1_1"
  top: "conv1_2"
  param {
    lr_mult: 1
    decay_mult: 1
  }
  param {
    lr_mult: 2
    decay_mult: 0
  }
  convolution_param {
    num_output: 64
    pad: 1
    kernel_size: 3
    stride: 1
  }
}
layer {
  name: "relu1_2"
  type: "ReLU"
  bottom: "conv1_2"
  top: "conv1_2"
}
layer {
  name: "pool1"
  type: "Pooling"
  bottom: "conv1_2"
  top: "pool1"
  pooling_param {
    pool: MAX
    kernel_size: 2
    stride: 2
  }
}
layer {
  name: "conv2_1"
  type: "Convolution"
  bottom: "pool1"
  top: "conv2_1"
  param {
    lr_mult: 1
    decay_mult: 1
  }
  param {
    lr_mult: 2
    decay_mult: 0
  }
  convolution_param {
    num_output: 128
    pad: 1
    kernel_size: 3
    stride: 1
  }
}
layer {
  name: "relu2_1"
  type: "ReLU"
  bottom: "conv2_1"
  top: "conv2_1"
}
layer {
  name: "conv2_2"
  type: "Convolution"
  bottom: "conv2_1"
  top: "conv2_2"
  param {
    lr_mult: 1
    decay_mult: 1
  }
  param {
    lr_mult: 2
    decay_mult: 0
  }
  convolution_param {
    num_output: 128
    pad: 1
    kernel_size: 3
    stride: 1
  }
}
layer {
  name: "relu2_2"
  type: "ReLU"
  bottom: "conv2_2"
  top: "conv2_2"
}
layer {
  name: "pool2"
  type: "Pooling"
  bottom: "conv2_2"
  top: "pool2"
  pooling_param {
    pool: MAX
    kernel_size: 2
    stride: 2
  }
}
layer {
  name: "conv3_1"
  type: "Convolution"
  bottom: "pool2"
  top: "conv3_1"
  param {
    lr_mult: 1
    decay_mult: 1
  }
  param {
    lr_mult: 2
    decay_mult: 0
  }
  convolution_param {
    num_output: 256
    pad: 1
    kernel_size: 3
    stride: 1
  }
}
layer {
  name: "relu3_1"
  type: "ReLU"
  bottom: "conv3_1"
  top: "conv3_1"
}
layer {
  name: "conv3_2"
  type: "Convolution"
  bottom: "conv3_1"
  top: "conv3_2"
  param {
    lr_mult: 1
    decay_mult: 1
  }
  param {
    lr_mult: 2
    decay_mult: 0
  }
  convolution_param {
    num_output: 256
    pad: 1
    kernel_size: 3
    stride: 1
  }
}
layer {
  name: "relu3_2"
  type: "ReLU"
  bottom: "conv3_2"
  top: "conv3_2"
}
layer {
  name: "conv3_3"
  type: "Convolution"
  bottom: "conv3_2"
  top: "conv3_3"
  param {
    lr_mult: 1
    decay_mult: 1
  }
  param {
    lr_mult: 2
    decay_mult: 0
  }
  convolution_param {
    num_output: 256
    pad: 1
    kernel_size: 3
    stride: 1
  }
}
layer {
  name: "relu3_3"
  type: "ReLU"
  bottom: "conv3_3"
  top: "conv3_3"
}
layer {
  name: "pool3"
  type: "Pooling"
  bottom: "conv3_3"
  top: "pool3"
  pooling_param {
    pool: MAX
    kernel_size: 2
    stride: 2
  }
}
layer {
  name: "conv4_1"
  type: "Convolution"
  bottom: "pool3"
  top: "conv4_1"
  param {
    lr_mult: 1
    decay_mult: 1
  }
  param {
    lr_mult: 2
    decay_mult: 0
  }
  convolution_param {
    num_output: 512
    pad: 1
    kernel_size: 3
    stride: 1
  }
}
layer {
  name: "relu4_1"
  type: "ReLU"
  bottom: "conv4_1"
  top: "conv4_1"
}
layer {
  name: "conv4_2"
  type: "Convolution"
  bottom: "conv4_1"
  top: "conv4_2"
  param {
    lr_mult: 1
    decay_mult: 1
  }
  param {
    lr_mult: 2
    decay_mult: 0
  }
  convolution_param {
    num_output: 512
    pad: 1
    kernel_size: 3
    stride: 1
  }
}
layer {
  name: "relu4_2"
  type: "ReLU"
  bottom: "conv4_2"
  top: "conv4_2"
}
layer {
  name: "conv4_3"
  type: "Convolution"
  bottom: "conv4_2"
  top: "conv4_3"
  param {
    lr_mult: 1
    decay_mult: 1
  }
  param {
    lr_mult: 2
    decay_mult: 0
  }
  convolution_param {
    num_output: 512
    pad: 1
    kernel_size: 3
    stride: 1
  }
}
layer {
  name: "relu4_3"
  type: "ReLU"
  bottom: "conv4_3"
  top: "conv4_3"
}
layer {
  name: "pool4"
  type: "Pooling"
  bottom: "conv4_3"
  top: "pool4"
  pooling_param {
    pool: MAX
    kernel_size: 2
    stride: 2
  }
}
layer {
  name: "conv5_1"
  type: "Convolution"
  bottom: "pool4"
  top: "conv5_1"
  param {
    lr_mult: 1
    decay_mult: 1
  }
  param {
    lr_mult: 2
    decay_mult: 0
  }
  convolution_param {
    num_output: 512
    pad: 1
    kernel_size: 3
    stride: 1
  }
}
layer {
  name: "relu5_1"
  type: "ReLU"
  bottom: "conv5_1"
  top: "conv5_1"
}
layer {
  name: "conv5_2"
  type: "Convolution"
  bottom: "conv5_1"
  top: "conv5_2"
  param {
    lr_mult: 1
    decay_mult: 1
  }
  param {
    lr_mult: 2
    decay_mult: 0
  }
  convolution_param {
    num_output: 512
    pad: 1
    kernel_size: 3
    stride: 1
  }
}
layer {
  name: "relu5_2"
  type: "ReLU"
  bottom: "conv5_2"
  top: "conv5_2"
}
layer {
  name: "conv5_3"
  type: "Convolution"
  bottom: "conv5_2"
  top: "conv5_3"
  param {
    lr_mult: 1
    decay_mult: 1
  }
  param {
    lr_mult: 2
    decay_mult: 0
  }
  convolution_param {
    num_output: 512
    pad: 1
    kernel_size: 3
    stride: 1
  }
}
layer {
  name: "relu5_3"
  type: "ReLU"
  bottom: "conv5_3"
  top: "conv5_3"
}
layer {
  name: "pool5"
  type: "Pooling"
  bottom: "conv5_3"
  top: "pool5"
  pooling_param {
    pool: MAX
    kernel_size: 2
    stride: 2
  }
}
layer {
  name: "fc6"
  type: "Convolution"
  bottom: "pool5"
  top: "fc6"
  param {
    lr_mult: 1
    decay_mult: 1
  }
  param {
    lr_mult: 2
    decay_mult: 0
  }
  convolution_param {
    num_output: 4096
    pad: 0
    kernel_size: 7
    stride: 1
  }
}
layer {
  name: "relu6"
  type: "ReLU"
  bottom: "fc6"
  top: "fc6"
}
layer {
  name: "drop6"
  type: "Dropout"
  bottom: "fc6"
  top: "fc6"
  dropout_param {
    dropout_ratio: 0.5
  }
}
layer {
  name: "fc7"
  type: "Convolution"
  bottom: "fc6"
  top: "fc7"
  param {
    lr_mult: 1
    decay_mult: 1
  }
  param {
    lr_mult: 2
    decay_mult: 0
  }
  convolution_param {
    num_output: 4096
    pad: 0
    kernel_size: 1
    stride: 1
  }
}
layer {
  name: "relu7"
  type: "ReLU"
  bottom: "fc7"
  top: "fc7"
}
layer {
  name: "drop7"
  type: "Dropout"
  bottom: "fc7"
  top: "fc7"
  dropout_param {
    dropout_ratio: 0.5
  }
}
layer {
  name: "score_fr"
  type: "Convolution"
  bottom: "fc7"
  top: "score_fr"
  param {
    lr_mult: 1
    decay_mult: 1
  }
  param {
    lr_mult: 2
    decay_mult: 0
  }
  convolution_param {
    num_output: 7
    pad: 0
    kernel_size: 1
  }
}
layer {
  name: "upscore"
  type: "Deconvolution"
  bottom: "score_fr"
  top: "upscore"
  param {
    lr_mult: 0
  }
  convolution_param {
    num_output: 7
    bias_term: false
    kernel_size: 64
    stride: 32
  }
}
layer {
  name: "score"
  type: "Crop"
  bottom: "upscore"
  bottom: "data"
  top: "score"
  crop_param {
    axis: 2
    offset: 19
  }
}
layer {
  name: "loss"
  type: "SoftmaxWithLoss"
  bottom: "score"
  bottom: "label"
  top: "loss"
  loss_param {
    ignore_label: 255
    normalize: false
  }
}
I0715 12:37:01.459486 18547 layer_factory.hpp:77] Creating layer data
I0715 12:37:01.463588 18547 net.cpp:91] Creating Layer data
I0715 12:37:01.463599 18547 net.cpp:399] data -> data
I0715 12:37:01.463605 18547 net.cpp:399] data -> label
I0715 12:37:01.977166 18547 net.cpp:141] Setting up data
I0715 12:37:01.977190 18547 net.cpp:148] Top shape: 1 3 377 500 (565500)
I0715 12:37:01.977193 18547 net.cpp:148] Top shape: 1 1 377 500 (188500)
I0715 12:37:01.977195 18547 net.cpp:156] Memory required for data: 3016000
I0715 12:37:01.977201 18547 layer_factory.hpp:77] Creating layer data_data_0_split
I0715 12:37:01.977212 18547 net.cpp:91] Creating Layer data_data_0_split
I0715 12:37:01.977226 18547 net.cpp:425] data_data_0_split <- data
I0715 12:37:01.977231 18547 net.cpp:399] data_data_0_split -> data_data_0_split_0
I0715 12:37:01.977238 18547 net.cpp:399] data_data_0_split -> data_data_0_split_1
I0715 12:37:01.977262 18547 net.cpp:141] Setting up data_data_0_split
I0715 12:37:01.977267 18547 net.cpp:148] Top shape: 1 3 377 500 (565500)
I0715 12:37:01.977269 18547 net.cpp:148] Top shape: 1 3 377 500 (565500)
I0715 12:37:01.977272 18547 net.cpp:156] Memory required for data: 7540000
I0715 12:37:01.977273 18547 layer_factory.hpp:77] Creating layer conv1_1
I0715 12:37:01.977282 18547 net.cpp:91] Creating Layer conv1_1
I0715 12:37:01.977283 18547 net.cpp:425] conv1_1 <- data_data_0_split_0
I0715 12:37:01.977288 18547 net.cpp:399] conv1_1 -> conv1_1
I0715 12:37:02.385016 18547 net.cpp:141] Setting up conv1_1
I0715 12:37:02.385043 18547 net.cpp:148] Top shape: 1 64 575 698 (25686400)
I0715 12:37:02.385046 18547 net.cpp:156] Memory required for data: 110285600
I0715 12:37:02.385058 18547 layer_factory.hpp:77] Creating layer relu1_1
I0715 12:37:02.385067 18547 net.cpp:91] Creating Layer relu1_1
I0715 12:37:02.385071 18547 net.cpp:425] relu1_1 <- conv1_1
I0715 12:37:02.385083 18547 net.cpp:386] relu1_1 -> conv1_1 (in-place)
I0715 12:37:02.385351 18547 net.cpp:141] Setting up relu1_1
I0715 12:37:02.385360 18547 net.cpp:148] Top shape: 1 64 575 698 (25686400)
I0715 12:37:02.385361 18547 net.cpp:156] Memory required for data: 213031200
I0715 12:37:02.385365 18547 layer_factory.hpp:77] Creating layer conv1_2
I0715 12:37:02.385372 18547 net.cpp:91] Creating Layer conv1_2
I0715 12:37:02.385375 18547 net.cpp:425] conv1_2 <- conv1_1
I0715 12:37:02.385378 18547 net.cpp:399] conv1_2 -> conv1_2
I0715 12:37:02.387128 18547 net.cpp:141] Setting up conv1_2
I0715 12:37:02.387140 18547 net.cpp:148] Top shape: 1 64 575 698 (25686400)
I0715 12:37:02.387142 18547 net.cpp:156] Memory required for data: 315776800
I0715 12:37:02.387150 18547 layer_factory.hpp:77] Creating layer relu1_2
I0715 12:37:02.387154 18547 net.cpp:91] Creating Layer relu1_2
I0715 12:37:02.387156 18547 net.cpp:425] relu1_2 <- conv1_2
I0715 12:37:02.387159 18547 net.cpp:386] relu1_2 -> conv1_2 (in-place)
I0715 12:37:02.387428 18547 net.cpp:141] Setting up relu1_2
I0715 12:37:02.387435 18547 net.cpp:148] Top shape: 1 64 575 698 (25686400)
I0715 12:37:02.387437 18547 net.cpp:156] Memory required for data: 418522400
I0715 12:37:02.387439 18547 layer_factory.hpp:77] Creating layer pool1
I0715 12:37:02.387444 18547 net.cpp:91] Creating Layer pool1
I0715 12:37:02.387446 18547 net.cpp:425] pool1 <- conv1_2
I0715 12:37:02.387449 18547 net.cpp:399] pool1 -> pool1
I0715 12:37:02.387491 18547 net.cpp:141] Setting up pool1
I0715 12:37:02.387495 18547 net.cpp:148] Top shape: 1 64 288 349 (6432768)
I0715 12:37:02.387506 18547 net.cpp:156] Memory required for data: 444253472
I0715 12:37:02.387508 18547 layer_factory.hpp:77] Creating layer conv2_1
I0715 12:37:02.387513 18547 net.cpp:91] Creating Layer conv2_1
I0715 12:37:02.387524 18547 net.cpp:425] conv2_1 <- pool1
I0715 12:37:02.387527 18547 net.cpp:399] conv2_1 -> conv2_1
I0715 12:37:02.388847 18547 net.cpp:141] Setting up conv2_1
I0715 12:37:02.388855 18547 net.cpp:148] Top shape: 1 128 288 349 (12865536)
I0715 12:37:02.388859 18547 net.cpp:156] Memory required for data: 495715616
I0715 12:37:02.388864 18547 layer_factory.hpp:77] Creating layer relu2_1
I0715 12:37:02.388871 18547 net.cpp:91] Creating Layer relu2_1
I0715 12:37:02.388873 18547 net.cpp:425] relu2_1 <- conv2_1
I0715 12:37:02.388886 18547 net.cpp:386] relu2_1 -> conv2_1 (in-place)
I0715 12:37:02.389009 18547 net.cpp:141] Setting up relu2_1
I0715 12:37:02.389015 18547 net.cpp:148] Top shape: 1 128 288 349 (12865536)
I0715 12:37:02.389017 18547 net.cpp:156] Memory required for data: 547177760
I0715 12:37:02.389019 18547 layer_factory.hpp:77] Creating layer conv2_2
I0715 12:37:02.389026 18547 net.cpp:91] Creating Layer conv2_2
I0715 12:37:02.389029 18547 net.cpp:425] conv2_2 <- conv2_1
I0715 12:37:02.389031 18547 net.cpp:399] conv2_2 -> conv2_2
I0715 12:37:02.390406 18547 net.cpp:141] Setting up conv2_2
I0715 12:37:02.390415 18547 net.cpp:148] Top shape: 1 128 288 349 (12865536)
I0715 12:37:02.390418 18547 net.cpp:156] Memory required for data: 598639904
I0715 12:37:02.390422 18547 layer_factory.hpp:77] Creating layer relu2_2
I0715 12:37:02.390427 18547 net.cpp:91] Creating Layer relu2_2
I0715 12:37:02.390429 18547 net.cpp:425] relu2_2 <- conv2_2
I0715 12:37:02.390434 18547 net.cpp:386] relu2_2 -> conv2_2 (in-place)
I0715 12:37:02.390709 18547 net.cpp:141] Setting up relu2_2
I0715 12:37:02.390717 18547 net.cpp:148] Top shape: 1 128 288 349 (12865536)
I0715 12:37:02.390719 18547 net.cpp:156] Memory required for data: 650102048
I0715 12:37:02.390722 18547 layer_factory.hpp:77] Creating layer pool2
I0715 12:37:02.390727 18547 net.cpp:91] Creating Layer pool2
I0715 12:37:02.390728 18547 net.cpp:425] pool2 <- conv2_2
I0715 12:37:02.390732 18547 net.cpp:399] pool2 -> pool2
I0715 12:37:02.390769 18547 net.cpp:141] Setting up pool2
I0715 12:37:02.390774 18547 net.cpp:148] Top shape: 1 128 144 175 (3225600)
I0715 12:37:02.390775 18547 net.cpp:156] Memory required for data: 663004448
I0715 12:37:02.390777 18547 layer_factory.hpp:77] Creating layer conv3_1
I0715 12:37:02.390782 18547 net.cpp:91] Creating Layer conv3_1
I0715 12:37:02.390784 18547 net.cpp:425] conv3_1 <- pool2
I0715 12:37:02.390796 18547 net.cpp:399] conv3_1 -> conv3_1
I0715 12:37:02.392065 18547 net.cpp:141] Setting up conv3_1
I0715 12:37:02.392073 18547 net.cpp:148] Top shape: 1 256 144 175 (6451200)
I0715 12:37:02.392076 18547 net.cpp:156] Memory required for data: 688809248
I0715 12:37:02.392083 18547 layer_factory.hpp:77] Creating layer relu3_1
I0715 12:37:02.392087 18547 net.cpp:91] Creating Layer relu3_1
I0715 12:37:02.392089 18547 net.cpp:425] relu3_1 <- conv3_1
I0715 12:37:02.392092 18547 net.cpp:386] relu3_1 -> conv3_1 (in-place)
I0715 12:37:02.392351 18547 net.cpp:141] Setting up relu3_1
I0715 12:37:02.392359 18547 net.cpp:148] Top shape: 1 256 144 175 (6451200)
I0715 12:37:02.392361 18547 net.cpp:156] Memory required for data: 714614048
I0715 12:37:02.392364 18547 layer_factory.hpp:77] Creating layer conv3_2
I0715 12:37:02.392369 18547 net.cpp:91] Creating Layer conv3_2
I0715 12:37:02.392370 18547 net.cpp:425] conv3_2 <- conv3_1
I0715 12:37:02.392375 18547 net.cpp:399] conv3_2 -> conv3_2
I0715 12:37:02.394182 18547 net.cpp:141] Setting up conv3_2
I0715 12:37:02.394196 18547 net.cpp:148] Top shape: 1 256 144 175 (6451200)
I0715 12:37:02.394198 18547 net.cpp:156] Memory required for data: 740418848
I0715 12:37:02.394203 18547 layer_factory.hpp:77] Creating layer relu3_2
I0715 12:37:02.394210 18547 net.cpp:91] Creating Layer relu3_2
I0715 12:37:02.394212 18547 net.cpp:425] relu3_2 <- conv3_2
I0715 12:37:02.394218 18547 net.cpp:386] relu3_2 -> conv3_2 (in-place)
I0715 12:37:02.394331 18547 net.cpp:141] Setting up relu3_2
I0715 12:37:02.394337 18547 net.cpp:148] Top shape: 1 256 144 175 (6451200)
I0715 12:37:02.394340 18547 net.cpp:156] Memory required for data: 766223648
I0715 12:37:02.394341 18547 layer_factory.hpp:77] Creating layer conv3_3
I0715 12:37:02.394351 18547 net.cpp:91] Creating Layer conv3_3
I0715 12:37:02.394352 18547 net.cpp:425] conv3_3 <- conv3_2
I0715 12:37:02.394356 18547 net.cpp:399] conv3_3 -> conv3_3
I0715 12:37:02.396148 18547 net.cpp:141] Setting up conv3_3
I0715 12:37:02.396170 18547 net.cpp:148] Top shape: 1 256 144 175 (6451200)
I0715 12:37:02.396173 18547 net.cpp:156] Memory required for data: 792028448
I0715 12:37:02.396178 18547 layer_factory.hpp:77] Creating layer relu3_3
I0715 12:37:02.396183 18547 net.cpp:91] Creating Layer relu3_3
I0715 12:37:02.396186 18547 net.cpp:425] relu3_3 <- conv3_3
I0715 12:37:02.396189 18547 net.cpp:386] relu3_3 -> conv3_3 (in-place)
I0715 12:37:02.396462 18547 net.cpp:141] Setting up relu3_3
I0715 12:37:02.396471 18547 net.cpp:148] Top shape: 1 256 144 175 (6451200)
I0715 12:37:02.396482 18547 net.cpp:156] Memory required for data: 817833248
I0715 12:37:02.396484 18547 layer_factory.hpp:77] Creating layer pool3
I0715 12:37:02.396489 18547 net.cpp:91] Creating Layer pool3
I0715 12:37:02.396492 18547 net.cpp:425] pool3 <- conv3_3
I0715 12:37:02.396497 18547 net.cpp:399] pool3 -> pool3
I0715 12:37:02.396546 18547 net.cpp:141] Setting up pool3
I0715 12:37:02.396559 18547 net.cpp:148] Top shape: 1 256 72 88 (1622016)
I0715 12:37:02.396561 18547 net.cpp:156] Memory required for data: 824321312
I0715 12:37:02.396564 18547 layer_factory.hpp:77] Creating layer conv4_1
I0715 12:37:02.396580 18547 net.cpp:91] Creating Layer conv4_1
I0715 12:37:02.396582 18547 net.cpp:425] conv4_1 <- pool3
I0715 12:37:02.396585 18547 net.cpp:399] conv4_1 -> conv4_1
I0715 12:37:02.400334 18547 net.cpp:141] Setting up conv4_1
I0715 12:37:02.400365 18547 net.cpp:148] Top shape: 1 512 72 88 (3244032)
I0715 12:37:02.400367 18547 net.cpp:156] Memory required for data: 837297440
I0715 12:37:02.400375 18547 layer_factory.hpp:77] Creating layer relu4_1
I0715 12:37:02.400393 18547 net.cpp:91] Creating Layer relu4_1
I0715 12:37:02.400396 18547 net.cpp:425] relu4_1 <- conv4_1
I0715 12:37:02.400401 18547 net.cpp:386] relu4_1 -> conv4_1 (in-place)
I0715 12:37:02.400820 18547 net.cpp:141] Setting up relu4_1
I0715 12:37:02.400827 18547 net.cpp:148] Top shape: 1 512 72 88 (3244032)
I0715 12:37:02.400840 18547 net.cpp:156] Memory required for data: 850273568
I0715 12:37:02.400842 18547 layer_factory.hpp:77] Creating layer conv4_2
I0715 12:37:02.400849 18547 net.cpp:91] Creating Layer conv4_2
I0715 12:37:02.400852 18547 net.cpp:425] conv4_2 <- conv4_1
I0715 12:37:02.400866 18547 net.cpp:399] conv4_2 -> conv4_2
I0715 12:37:02.405366 18547 net.cpp:141] Setting up conv4_2
I0715 12:37:02.405401 18547 net.cpp:148] Top shape: 1 512 72 88 (3244032)
I0715 12:37:02.405403 18547 net.cpp:156] Memory required for data: 863249696
I0715 12:37:02.405417 18547 layer_factory.hpp:77] Creating layer relu4_2
I0715 12:37:02.405426 18547 net.cpp:91] Creating Layer relu4_2
I0715 12:37:02.405438 18547 net.cpp:425] relu4_2 <- conv4_2
I0715 12:37:02.405442 18547 net.cpp:386] relu4_2 -> conv4_2 (in-place)
I0715 12:37:02.405580 18547 net.cpp:141] Setting up relu4_2
I0715 12:37:02.405586 18547 net.cpp:148] Top shape: 1 512 72 88 (3244032)
I0715 12:37:02.405598 18547 net.cpp:156] Memory required for data: 876225824
I0715 12:37:02.405601 18547 layer_factory.hpp:77] Creating layer conv4_3
I0715 12:37:02.405607 18547 net.cpp:91] Creating Layer conv4_3
I0715 12:37:02.405609 18547 net.cpp:425] conv4_3 <- conv4_2
I0715 12:37:02.405623 18547 net.cpp:399] conv4_3 -> conv4_3
I0715 12:37:02.410172 18547 net.cpp:141] Setting up conv4_3
I0715 12:37:02.410207 18547 net.cpp:148] Top shape: 1 512 72 88 (3244032)
I0715 12:37:02.410210 18547 net.cpp:156] Memory required for data: 889201952
I0715 12:37:02.410218 18547 layer_factory.hpp:77] Creating layer relu4_3
I0715 12:37:02.410228 18547 net.cpp:91] Creating Layer relu4_3
I0715 12:37:02.410240 18547 net.cpp:425] relu4_3 <- conv4_3
I0715 12:37:02.410245 18547 net.cpp:386] relu4_3 -> conv4_3 (in-place)
I0715 12:37:02.410531 18547 net.cpp:141] Setting up relu4_3
I0715 12:37:02.410538 18547 net.cpp:148] Top shape: 1 512 72 88 (3244032)
I0715 12:37:02.410550 18547 net.cpp:156] Memory required for data: 902178080
I0715 12:37:02.410552 18547 layer_factory.hpp:77] Creating layer pool4
I0715 12:37:02.410558 18547 net.cpp:91] Creating Layer pool4
I0715 12:37:02.410560 18547 net.cpp:425] pool4 <- conv4_3
I0715 12:37:02.410573 18547 net.cpp:399] pool4 -> pool4
I0715 12:37:02.410615 18547 net.cpp:141] Setting up pool4
I0715 12:37:02.410620 18547 net.cpp:148] Top shape: 1 512 36 44 (811008)
I0715 12:37:02.410621 18547 net.cpp:156] Memory required for data: 905422112
I0715 12:37:02.410632 18547 layer_factory.hpp:77] Creating layer conv5_1
I0715 12:37:02.410640 18547 net.cpp:91] Creating Layer conv5_1
I0715 12:37:02.410651 18547 net.cpp:425] conv5_1 <- pool4
I0715 12:37:02.410655 18547 net.cpp:399] conv5_1 -> conv5_1
I0715 12:37:02.415529 18547 net.cpp:141] Setting up conv5_1
I0715 12:37:02.415560 18547 net.cpp:148] Top shape: 1 512 36 44 (811008)
I0715 12:37:02.415562 18547 net.cpp:156] Memory required for data: 908666144
I0715 12:37:02.415570 18547 layer_factory.hpp:77] Creating layer relu5_1
I0715 12:37:02.415590 18547 net.cpp:91] Creating Layer relu5_1
I0715 12:37:02.415593 18547 net.cpp:425] relu5_1 <- conv5_1
I0715 12:37:02.415598 18547 net.cpp:386] relu5_1 -> conv5_1 (in-place)
I0715 12:37:02.415901 18547 net.cpp:141] Setting up relu5_1
I0715 12:37:02.415910 18547 net.cpp:148] Top shape: 1 512 36 44 (811008)
I0715 12:37:02.415920 18547 net.cpp:156] Memory required for data: 911910176
I0715 12:37:02.415923 18547 layer_factory.hpp:77] Creating layer conv5_2
I0715 12:37:02.415930 18547 net.cpp:91] Creating Layer conv5_2
I0715 12:37:02.415933 18547 net.cpp:425] conv5_2 <- conv5_1
I0715 12:37:02.415946 18547 net.cpp:399] conv5_2 -> conv5_2
I0715 12:37:02.420524 18547 net.cpp:141] Setting up conv5_2
I0715 12:37:02.420562 18547 net.cpp:148] Top shape: 1 512 36 44 (811008)
I0715 12:37:02.420563 18547 net.cpp:156] Memory required for data: 915154208
I0715 12:37:02.420572 18547 layer_factory.hpp:77] Creating layer relu5_2
I0715 12:37:02.420579 18547 net.cpp:91] Creating Layer relu5_2
I0715 12:37:02.420583 18547 net.cpp:425] relu5_2 <- conv5_2
I0715 12:37:02.420588 18547 net.cpp:386] relu5_2 -> conv5_2 (in-place)
I0715 12:37:02.420722 18547 net.cpp:141] Setting up relu5_2
I0715 12:37:02.420727 18547 net.cpp:148] Top shape: 1 512 36 44 (811008)
I0715 12:37:02.420739 18547 net.cpp:156] Memory required for data: 918398240
I0715 12:37:02.420742 18547 layer_factory.hpp:77] Creating layer conv5_3
I0715 12:37:02.420749 18547 net.cpp:91] Creating Layer conv5_3
I0715 12:37:02.420752 18547 net.cpp:425] conv5_3 <- conv5_2
I0715 12:37:02.420756 18547 net.cpp:399] conv5_3 -> conv5_3
I0715 12:37:02.425484 18547 net.cpp:141] Setting up conv5_3
I0715 12:37:02.425521 18547 net.cpp:148] Top shape: 1 512 36 44 (811008)
I0715 12:37:02.425524 18547 net.cpp:156] Memory required for data: 921642272
I0715 12:37:02.425532 18547 layer_factory.hpp:77] Creating layer relu5_3
I0715 12:37:02.425539 18547 net.cpp:91] Creating Layer relu5_3
I0715 12:37:02.425544 18547 net.cpp:425] relu5_3 <- conv5_3
I0715 12:37:02.425559 18547 net.cpp:386] relu5_3 -> conv5_3 (in-place)
I0715 12:37:02.425855 18547 net.cpp:141] Setting up relu5_3
I0715 12:37:02.425863 18547 net.cpp:148] Top shape: 1 512 36 44 (811008)
I0715 12:37:02.425874 18547 net.cpp:156] Memory required for data: 924886304
I0715 12:37:02.425876 18547 layer_factory.hpp:77] Creating layer pool5
I0715 12:37:02.425885 18547 net.cpp:91] Creating Layer pool5
I0715 12:37:02.425889 18547 net.cpp:425] pool5 <- conv5_3
I0715 12:37:02.425901 18547 net.cpp:399] pool5 -> pool5
I0715 12:37:02.425950 18547 net.cpp:141] Setting up pool5
I0715 12:37:02.425953 18547 net.cpp:148] Top shape: 1 512 18 22 (202752)
I0715 12:37:02.425963 18547 net.cpp:156] Memory required for data: 925697312
I0715 12:37:02.425966 18547 layer_factory.hpp:77] Creating layer fc6
I0715 12:37:02.425982 18547 net.cpp:91] Creating Layer fc6
I0715 12:37:02.425984 18547 net.cpp:425] fc6 <- pool5
I0715 12:37:02.425987 18547 net.cpp:399] fc6 -> fc6
I0715 12:37:02.574012 18547 net.cpp:141] Setting up fc6
I0715 12:37:02.574036 18547 net.cpp:148] Top shape: 1 4096 12 16 (786432)
I0715 12:37:02.574039 18547 net.cpp:156] Memory required for data: 928843040
I0715 12:37:02.574048 18547 layer_factory.hpp:77] Creating layer relu6
I0715 12:37:02.574059 18547 net.cpp:91] Creating Layer relu6
I0715 12:37:02.574064 18547 net.cpp:425] relu6 <- fc6
I0715 12:37:02.574079 18547 net.cpp:386] relu6 -> fc6 (in-place)
I0715 12:37:02.574395 18547 net.cpp:141] Setting up relu6
I0715 12:37:02.574405 18547 net.cpp:148] Top shape: 1 4096 12 16 (786432)
I0715 12:37:02.574407 18547 net.cpp:156] Memory required for data: 931988768
I0715 12:37:02.574409 18547 layer_factory.hpp:77] Creating layer drop6
I0715 12:37:02.574416 18547 net.cpp:91] Creating Layer drop6
I0715 12:37:02.574419 18547 net.cpp:425] drop6 <- fc6
I0715 12:37:02.574422 18547 net.cpp:386] drop6 -> fc6 (in-place)
I0715 12:37:02.574457 18547 net.cpp:141] Setting up drop6
I0715 12:37:02.574460 18547 net.cpp:148] Top shape: 1 4096 12 16 (786432)
I0715 12:37:02.574462 18547 net.cpp:156] Memory required for data: 935134496
I0715 12:37:02.574465 18547 layer_factory.hpp:77] Creating layer fc7
I0715 12:37:02.574472 18547 net.cpp:91] Creating Layer fc7
I0715 12:37:02.574475 18547 net.cpp:425] fc7 <- fc6
I0715 12:37:02.574478 18547 net.cpp:399] fc7 -> fc7
I0715 12:37:02.600427 18547 net.cpp:141] Setting up fc7
I0715 12:37:02.600466 18547 net.cpp:148] Top shape: 1 4096 12 16 (786432)
I0715 12:37:02.600468 18547 net.cpp:156] Memory required for data: 938280224
I0715 12:37:02.600477 18547 layer_factory.hpp:77] Creating layer relu7
I0715 12:37:02.600487 18547 net.cpp:91] Creating Layer relu7
I0715 12:37:02.600492 18547 net.cpp:425] relu7 <- fc7
I0715 12:37:02.600497 18547 net.cpp:386] relu7 -> fc7 (in-place)
I0715 12:37:02.600797 18547 net.cpp:141] Setting up relu7
I0715 12:37:02.600817 18547 net.cpp:148] Top shape: 1 4096 12 16 (786432)
I0715 12:37:02.600819 18547 net.cpp:156] Memory required for data: 941425952
I0715 12:37:02.600822 18547 layer_factory.hpp:77] Creating layer drop7
I0715 12:37:02.600829 18547 net.cpp:91] Creating Layer drop7
I0715 12:37:02.600832 18547 net.cpp:425] drop7 <- fc7
I0715 12:37:02.600836 18547 net.cpp:386] drop7 -> fc7 (in-place)
I0715 12:37:02.600883 18547 net.cpp:141] Setting up drop7
I0715 12:37:02.600888 18547 net.cpp:148] Top shape: 1 4096 12 16 (786432)
I0715 12:37:02.600889 18547 net.cpp:156] Memory required for data: 944571680
I0715 12:37:02.600899 18547 layer_factory.hpp:77] Creating layer score_fr
I0715 12:37:02.600906 18547 net.cpp:91] Creating Layer score_fr
I0715 12:37:02.600919 18547 net.cpp:425] score_fr <- fc7
I0715 12:37:02.600922 18547 net.cpp:399] score_fr -> score_fr
I0715 12:37:02.602185 18547 net.cpp:141] Setting up score_fr
I0715 12:37:02.602195 18547 net.cpp:148] Top shape: 1 7 12 16 (1344)
I0715 12:37:02.602197 18547 net.cpp:156] Memory required for data: 944577056
I0715 12:37:02.602202 18547 layer_factory.hpp:77] Creating layer upscore
I0715 12:37:02.602213 18547 net.cpp:91] Creating Layer upscore
I0715 12:37:02.602226 18547 net.cpp:425] upscore <- score_fr
I0715 12:37:02.602231 18547 net.cpp:399] upscore -> upscore
I0715 12:37:02.602859 18547 net.cpp:141] Setting up upscore
I0715 12:37:02.602867 18547 net.cpp:148] Top shape: 1 7 416 544 (1584128)
I0715 12:37:02.602869 18547 net.cpp:156] Memory required for data: 950913568
I0715 12:37:02.602879 18547 layer_factory.hpp:77] Creating layer score
I0715 12:37:02.602883 18547 net.cpp:91] Creating Layer score
I0715 12:37:02.602886 18547 net.cpp:425] score <- upscore
I0715 12:37:02.602898 18547 net.cpp:425] score <- data_data_0_split_1
I0715 12:37:02.602902 18547 net.cpp:399] score -> score
I0715 12:37:02.602926 18547 net.cpp:141] Setting up score
I0715 12:37:02.602929 18547 net.cpp:148] Top shape: 1 7 377 500 (1319500)
I0715 12:37:02.602931 18547 net.cpp:156] Memory required for data: 956191568
I0715 12:37:02.602941 18547 layer_factory.hpp:77] Creating layer loss
I0715 12:37:02.602946 18547 net.cpp:91] Creating Layer loss
I0715 12:37:02.602948 18547 net.cpp:425] loss <- score
I0715 12:37:02.602962 18547 net.cpp:425] loss <- label
I0715 12:37:02.602964 18547 net.cpp:399] loss -> loss
I0715 12:37:02.602979 18547 layer_factory.hpp:77] Creating layer loss
…
I0715 12:37:02.606324 18547 solver.cpp:181] Creating test net (#0) specified by test_net file: val_vgg_weights.prototxt
I0715 12:37:02.606540 18547 net.cpp:49] Initializing net from parameters: 
state {
  phase: TEST
}
layer {
  name: "data"
  type: "Python"
  top: "data"
  top: "label"
  python_param {
    module: "pascalpart_layers"
    layer: "PASCALPartSegDataLayer"
    param_str: "{\'part\': \'head\', \'obj_cls\': \'person\', \'split\': \'val\', \'part_dir\': \'/home/cv/hdl/caffe/data/pascal/pascal-part\', \'seed\': 1337, \'voc_dir\': \'/home/cv/hdl/caffe/data/pascal/VOC\'}"
  }
}
layer {
  name: "conv1_1"
  type: "Convolution"
  bottom: "data"
  top: "conv1_1"
  param {
    lr_mult: 1
    decay_mult: 1
  }
  param {
    lr_mult: 2
    decay_mult: 0
  }
  convolution_param {
    num_output: 64
    pad: 100
    kernel_size: 3
    stride: 1
  }
}
layer {
  name: "relu1_1"
  type: "ReLU"
  bottom: "conv1_1"
  top: "conv1_1"
}
layer {
  name: "conv1_2"
  type: "Convolution"
  bottom: "conv1_1"
  top: "conv1_2"
  param {
    lr_mult: 1
    decay_mult: 1
  }
  param {
    lr_mult: 2
    decay_mult: 0
  }
  convolution_param {
    num_output: 64
    pad: 1
    kernel_size: 3
    stride: 1
  }
}
layer {
  name: "relu1_2"
  type: "ReLU"
  bottom: "conv1_2"
  top: "conv1_2"
}
layer {
  name: "pool1"
  type: "Pooling"
  bottom: "conv1_2"
  top: "pool1"
  pooling_param {
    pool: MAX
    kernel_size: 2
    stride: 2
  }
}
layer {
  name: "conv2_1"
  type: "Convolution"
  bottom: "pool1"
  top: "conv2_1"
  param {
    lr_mult: 1
    decay_mult: 1
  }
  param {
    lr_mult: 2
    decay_mult: 0
  }
  convolution_param {
    num_output: 128
    pad: 1
    kernel_size: 3
    stride: 1
  }
}
layer {
  name: "relu2_1"
  type: "ReLU"
  bottom: "conv2_1"
  top: "conv2_1"
}
layer {
  name: "conv2_2"
  type: "Convolution"
  bottom: "conv2_1"
  top: "conv2_2"
  param {
    lr_mult: 1
    decay_mult: 1
  }
  param {
    lr_mult: 2
    decay_mult: 0
  }
  convolution_param {
    num_output: 128
    pad: 1
    kernel_size: 3
    stride: 1
  }
}
layer {
  name: "relu2_2"
  type: "ReLU"
  bottom: "conv2_2"
  top: "conv2_2"
}
layer {
  name: "pool2"
  type: "Pooling"
  bottom: "conv2_2"
  top: "pool2"
  pooling_param {
    pool: MAX
    kernel_size: 2
    stride: 2
  }
}
layer {
  name: "conv3_1"
  type: "Convolution"
  bottom: "pool2"
  top: "conv3_1"
  param {
    lr_mult: 1
    decay_mult: 1
  }
  param {
    lr_mult: 2
    decay_mult: 0
  }
  convolution_param {
    num_output: 256
    pad: 1
    kernel_size: 3
    stride: 1
  }
}
layer {
  name: "relu3_1"
  type: "ReLU"
  bottom: "conv3_1"
  top: "conv3_1"
}
layer {
  name: "conv3_2"
  type: "Convolution"
  bottom: "conv3_1"
  top: "conv3_2"
  param {
    lr_mult: 1
    decay_mult: 1
  }
  param {
    lr_mult: 2
    decay_mult: 0
  }
  convolution_param {
    num_output: 256
    pad: 1
    kernel_size: 3
    stride: 1
  }
}
layer {
  name: "relu3_2"
  type: "ReLU"
  bottom: "conv3_2"
  top: "conv3_2"
}
layer {
  name: "conv3_3"
  type: "Convolution"
  bottom: "conv3_2"
  top: "conv3_3"
  param {
    lr_mult: 1
    decay_mult: 1
  }
  param {
    lr_mult: 2
    decay_mult: 0
  }
  convolution_param {
    num_output: 256
    pad: 1
    kernel_size: 3
    stride: 1
  }
}
layer {
  name: "relu3_3"
  type: "ReLU"
  bottom: "conv3_3"
  top: "conv3_3"
}
layer {
  name: "pool3"
  type: "Pooling"
  bottom: "conv3_3"
  top: "pool3"
  pooling_param {
    pool: MAX
    kernel_size: 2
    stride: 2
  }
}
layer {
  name: "conv4_1"
  type: "Convolution"
  bottom: "pool3"
  top: "conv4_1"
  param {
    lr_mult: 1
    decay_mult: 1
  }
  param {
    lr_mult: 2
    decay_mult: 0
  }
  convolution_param {
    num_output: 512
    pad: 1
    kernel_size: 3
    stride: 1
  }
}
layer {
  name: "relu4_1"
  type: "ReLU"
  bottom: "conv4_1"
  top: "conv4_1"
}
layer {
  name: "conv4_2"
  type: "Convolution"
  bottom: "conv4_1"
  top: "conv4_2"
  param {
    lr_mult: 1
    decay_mult: 1
  }
  param {
    lr_mult: 2
    decay_mult: 0
  }
  convolution_param {
    num_output: 512
    pad: 1
    kernel_size: 3
    stride: 1
  }
}
layer {
  name: "relu4_2"
  type: "ReLU"
  bottom: "conv4_2"
  top: "conv4_2"
}
layer {
  name: "conv4_3"
  type: "Convolution"
  bottom: "conv4_2"
  top: "conv4_3"
  param {
    lr_mult: 1
    decay_mult: 1
  }
  param {
    lr_mult: 2
    decay_mult: 0
  }
  convolution_param {
    num_output: 512
    pad: 1
    kernel_size: 3
    stride: 1
  }
}
layer {
  name: "relu4_3"
  type: "ReLU"
  bottom: "conv4_3"
  top: "conv4_3"
}
layer {
  name: "pool4"
  type: "Pooling"
  bottom: "conv4_3"
  top: "pool4"
  pooling_param {
    pool: MAX
    kernel_size: 2
    stride: 2
  }
}
layer {
  name: "conv5_1"
  type: "Convolution"
  bottom: "pool4"
  top: "conv5_1"
  param {
    lr_mult: 1
    decay_mult: 1
  }
  param {
    lr_mult: 2
    decay_mult: 0
  }
  convolution_param {
    num_output: 512
    pad: 1
    kernel_size: 3
    stride: 1
  }
}
layer {
  name: "relu5_1"
  type: "ReLU"
  bottom: "conv5_1"
  top: "conv5_1"
}
layer {
  name: "conv5_2"
  type: "Convolution"
  bottom: "conv5_1"
  top: "conv5_2"
  param {
    lr_mult: 1
    decay_mult: 1
  }
  param {
    lr_mult: 2
    decay_mult: 0
  }
  convolution_param {
    num_output: 512
    pad: 1
    kernel_size: 3
    stride: 1
  }
}
layer {
  name: "relu5_2"
  type: "ReLU"
  bottom: "conv5_2"
  top: "conv5_2"
}
layer {
  name: "conv5_3"
  type: "Convolution"
  bottom: "conv5_2"
  top: "conv5_3"
  param {
    lr_mult: 1
    decay_mult: 1
  }
  param {
    lr_mult: 2
    decay_mult: 0
  }
  convolution_param {
    num_output: 512
    pad: 1
    kernel_size: 3
    stride: 1
  }
}
layer {
  name: "relu5_3"
  type: "ReLU"
  bottom: "conv5_3"
  top: "conv5_3"
}
layer {
  name: "pool5"
  type: "Pooling"
  bottom: "conv5_3"
  top: "pool5"
  pooling_param {
    pool: MAX
    kernel_size: 2
    stride: 2
  }
}
layer {
  name: "fc6"
  type: "Convolution"
  bottom: "pool5"
  top: "fc6"
  param {
    lr_mult: 1
    decay_mult: 1
  }
  param {
    lr_mult: 2
    decay_mult: 0
  }
  convolution_param {
    num_output: 4096
    pad: 0
    kernel_size: 7
    stride: 1
  }
}
layer {
  name: "relu6"
  type: "ReLU"
  bottom: "fc6"
  top: "fc6"
}
layer {
  name: "drop6"
  type: "Dropout"
  bottom: "fc6"
  top: "fc6"
  dropout_param {
    dropout_ratio: 0.5
  }
}
layer {
  name: "fc7"
  type: "Convolution"
  bottom: "fc6"
  top: "fc7"
  param {
    lr_mult: 1
    decay_mult: 1
  }
  param {
    lr_mult: 2
    decay_mult: 0
  }
  convolution_param {
    num_output: 4096
    pad: 0
    kernel_size: 1
    stride: 1
  }
}
layer {
  name: "relu7"
  type: "ReLU"
  bottom: "fc7"
  top: "fc7"
}
layer {
  name: "drop7"
  type: "Dropout"
  bottom: "fc7"
  top: "fc7"
  dropout_param {
    dropout_ratio: 0.5
  }
}
layer {
  name: "score_fr"
  type: "Convolution"
  bottom: "fc7"
  top: "score_fr"
  param {
    lr_mult: 1
    decay_mult: 1
  }
  param {
    lr_mult: 2
    decay_mult: 0
  }
  convolution_param {
    num_output: 7
    pad: 0
    kernel_size: 1
  }
}
layer {
  name: "upscore"
  type: "Deconvolution"
  bottom: "score_fr"
  top: "upscore"
  param {
    lr_mult: 0
  }
  convolution_param {
    num_output: 7
    bias_term: false
    kernel_size: 64
    stride: 32
  }
}
layer {
  name: "score"
  type: "Crop"
  bottom: "upscore"
  bottom: "data"
  top: "score"
  crop_param {
    axis: 2
    offset: 19
  }
}
layer {
  name: "loss"
  type: "SoftmaxWithLoss"
  bottom: "score"
  bottom: "label"
  top: "loss"
  loss_param {
    ignore_label: 255
    normalize: false
  }
}
I0715 12:37:02.606652 18547 layer_factory.hpp:77] Creating layer data
I0715 12:37:02.606691 18547 net.cpp:91] Creating Layer data
I0715 12:37:02.606695 18547 net.cpp:399] data -> data
I0715 12:37:02.606699 18547 net.cpp:399] data -> label
I0715 12:37:03.136709 18547 net.cpp:141] Setting up data
I0715 12:37:03.136729 18547 net.cpp:148] Top shape: 1 3 375 500 (562500)
I0715 12:37:03.136734 18547 net.cpp:148] Top shape: 1 1 375 500 (187500)
I0715 12:37:03.136735 18547 net.cpp:156] Memory required for data: 3000000
I0715 12:37:03.136741 18547 layer_factory.hpp:77] Creating layer data_data_0_split
I0715 12:37:03.136760 18547 net.cpp:91] Creating Layer data_data_0_split
I0715 12:37:03.136764 18547 net.cpp:425] data_data_0_split <- data
I0715 12:37:03.136768 18547 net.cpp:399] data_data_0_split -> data_data_0_split_0
I0715 12:37:03.136777 18547 net.cpp:399] data_data_0_split -> data_data_0_split_1
I0715 12:37:03.136831 18547 net.cpp:141] Setting up data_data_0_split
I0715 12:37:03.136837 18547 net.cpp:148] Top shape: 1 3 375 500 (562500)
I0715 12:37:03.136839 18547 net.cpp:148] Top shape: 1 3 375 500 (562500)
I0715 12:37:03.136842 18547 net.cpp:156] Memory required for data: 7500000
I0715 12:37:03.136843 18547 layer_factory.hpp:77] Creating layer conv1_1
I0715 12:37:03.136850 18547 net.cpp:91] Creating Layer conv1_1
I0715 12:37:03.136852 18547 net.cpp:425] conv1_1 <- data_data_0_split_0
I0715 12:37:03.136855 18547 net.cpp:399] conv1_1 -> conv1_1
I0715 12:37:03.138422 18547 net.cpp:141] Setting up conv1_1
I0715 12:37:03.138432 18547 net.cpp:148] Top shape: 1 64 573 698 (25597056)
I0715 12:37:03.138435 18547 net.cpp:156] Memory required for data: 109888224
I0715 12:37:03.138443 18547 layer_factory.hpp:77] Creating layer relu1_1
I0715 12:37:03.138449 18547 net.cpp:91] Creating Layer relu1_1
I0715 12:37:03.138451 18547 net.cpp:425] relu1_1 <- conv1_1
I0715 12:37:03.138464 18547 net.cpp:386] relu1_1 -> conv1_1 (in-place)
I0715 12:37:03.138736 18547 net.cpp:141] Setting up relu1_1
I0715 12:37:03.138743 18547 net.cpp:148] Top shape: 1 64 573 698 (25597056)
I0715 12:37:03.138746 18547 net.cpp:156] Memory required for data: 212276448
I0715 12:37:03.138747 18547 layer_factory.hpp:77] Creating layer conv1_2
I0715 12:37:03.138753 18547 net.cpp:91] Creating Layer conv1_2
I0715 12:37:03.138756 18547 net.cpp:425] conv1_2 <- conv1_1
I0715 12:37:03.138759 18547 net.cpp:399] conv1_2 -> conv1_2
I0715 12:37:03.140324 18547 net.cpp:141] Setting up conv1_2
I0715 12:37:03.140333 18547 net.cpp:148] Top shape: 1 64 573 698 (25597056)
I0715 12:37:03.140336 18547 net.cpp:156] Memory required for data: 314664672
I0715 12:37:03.140342 18547 layer_factory.hpp:77] Creating layer relu1_2
I0715 12:37:03.140347 18547 net.cpp:91] Creating Layer relu1_2
I0715 12:37:03.140349 18547 net.cpp:425] relu1_2 <- conv1_2
I0715 12:37:03.140352 18547 net.cpp:386] relu1_2 -> conv1_2 (in-place)
I0715 12:37:03.140494 18547 net.cpp:141] Setting up relu1_2
I0715 12:37:03.140501 18547 net.cpp:148] Top shape: 1 64 573 698 (25597056)
I0715 12:37:03.140502 18547 net.cpp:156] Memory required for data: 417052896
I0715 12:37:03.140504 18547 layer_factory.hpp:77] Creating layer pool1
I0715 12:37:03.140509 18547 net.cpp:91] Creating Layer pool1
I0715 12:37:03.140511 18547 net.cpp:425] pool1 <- conv1_2
I0715 12:37:03.140514 18547 net.cpp:399] pool1 -> pool1
I0715 12:37:03.140557 18547 net.cpp:141] Setting up pool1
I0715 12:37:03.140560 18547 net.cpp:148] Top shape: 1 64 287 349 (6410432)
I0715 12:37:03.140571 18547 net.cpp:156] Memory required for data: 442694624
I0715 12:37:03.140573 18547 layer_factory.hpp:77] Creating layer conv2_1
I0715 12:37:03.140579 18547 net.cpp:91] Creating Layer conv2_1
I0715 12:37:03.140590 18547 net.cpp:425] conv2_1 <- pool1
I0715 12:37:03.140594 18547 net.cpp:399] conv2_1 -> conv2_1
I0715 12:37:03.141981 18547 net.cpp:141] Setting up conv2_1
I0715 12:37:03.141990 18547 net.cpp:148] Top shape: 1 128 287 349 (12820864)
I0715 12:37:03.141993 18547 net.cpp:156] Memory required for data: 493978080
I0715 12:37:03.141999 18547 layer_factory.hpp:77] Creating layer relu2_1
I0715 12:37:03.142005 18547 net.cpp:91] Creating Layer relu2_1
I0715 12:37:03.142007 18547 net.cpp:425] relu2_1 <- conv2_1
I0715 12:37:03.142020 18547 net.cpp:386] relu2_1 -> conv2_1 (in-place)
I0715 12:37:03.142295 18547 net.cpp:141] Setting up relu2_1
I0715 12:37:03.142302 18547 net.cpp:148] Top shape: 1 128 287 349 (12820864)
I0715 12:37:03.142304 18547 net.cpp:156] Memory required for data: 545261536
I0715 12:37:03.142307 18547 layer_factory.hpp:77] Creating layer conv2_2
I0715 12:37:03.142313 18547 net.cpp:91] Creating Layer conv2_2
I0715 12:37:03.142314 18547 net.cpp:425] conv2_2 <- conv2_1
I0715 12:37:03.142318 18547 net.cpp:399] conv2_2 -> conv2_2
I0715 12:37:03.143580 18547 net.cpp:141] Setting up conv2_2
I0715 12:37:03.143589 18547 net.cpp:148] Top shape: 1 128 287 349 (12820864)
I0715 12:37:03.143592 18547 net.cpp:156] Memory required for data: 596544992
I0715 12:37:03.143596 18547 layer_factory.hpp:77] Creating layer relu2_2
I0715 12:37:03.143601 18547 net.cpp:91] Creating Layer relu2_2
I0715 12:37:03.143604 18547 net.cpp:425] relu2_2 <- conv2_2
I0715 12:37:03.143607 18547 net.cpp:386] relu2_2 -> conv2_2 (in-place)
I0715 12:37:03.143870 18547 net.cpp:141] Setting up relu2_2
I0715 12:37:03.143878 18547 net.cpp:148] Top shape: 1 128 287 349 (12820864)
I0715 12:37:03.143880 18547 net.cpp:156] Memory required for data: 647828448
I0715 12:37:03.143882 18547 layer_factory.hpp:77] Creating layer pool2
I0715 12:37:03.143887 18547 net.cpp:91] Creating Layer pool2
I0715 12:37:03.143889 18547 net.cpp:425] pool2 <- conv2_2
I0715 12:37:03.143893 18547 net.cpp:399] pool2 -> pool2
I0715 12:37:03.143924 18547 net.cpp:141] Setting up pool2
I0715 12:37:03.143929 18547 net.cpp:148] Top shape: 1 128 144 175 (3225600)
I0715 12:37:03.143931 18547 net.cpp:156] Memory required for data: 660730848
I0715 12:37:03.143934 18547 layer_factory.hpp:77] Creating layer conv3_1
I0715 12:37:03.143939 18547 net.cpp:91] Creating Layer conv3_1
I0715 12:37:03.143940 18547 net.cpp:425] conv3_1 <- pool2
I0715 12:37:03.143944 18547 net.cpp:399] conv3_1 -> conv3_1
I0715 12:37:03.145365 18547 net.cpp:141] Setting up conv3_1
I0715 12:37:03.145375 18547 net.cpp:148] Top shape: 1 256 144 175 (6451200)
I0715 12:37:03.145377 18547 net.cpp:156] Memory required for data: 686535648
I0715 12:37:03.145385 18547 layer_factory.hpp:77] Creating layer relu3_1
I0715 12:37:03.145390 18547 net.cpp:91] Creating Layer relu3_1
I0715 12:37:03.145391 18547 net.cpp:425] relu3_1 <- conv3_1
I0715 12:37:03.145395 18547 net.cpp:386] relu3_1 -> conv3_1 (in-place)
I0715 12:37:03.145509 18547 net.cpp:141] Setting up relu3_1
I0715 12:37:03.145514 18547 net.cpp:148] Top shape: 1 256 144 175 (6451200)
I0715 12:37:03.145516 18547 net.cpp:156] Memory required for data: 712340448
I0715 12:37:03.145519 18547 layer_factory.hpp:77] Creating layer conv3_2
I0715 12:37:03.145524 18547 net.cpp:91] Creating Layer conv3_2
I0715 12:37:03.145525 18547 net.cpp:425] conv3_2 <- conv3_1
I0715 12:37:03.145529 18547 net.cpp:399] conv3_2 -> conv3_2
I0715 12:37:03.147348 18547 net.cpp:141] Setting up conv3_2
I0715 12:37:03.147372 18547 net.cpp:148] Top shape: 1 256 144 175 (6451200)
I0715 12:37:03.147373 18547 net.cpp:156] Memory required for data: 738145248
I0715 12:37:03.147380 18547 layer_factory.hpp:77] Creating layer relu3_2
I0715 12:37:03.147385 18547 net.cpp:91] Creating Layer relu3_2
I0715 12:37:03.147387 18547 net.cpp:425] relu3_2 <- conv3_2
I0715 12:37:03.147392 18547 net.cpp:386] relu3_2 -> conv3_2 (in-place)
I0715 12:37:03.147666 18547 net.cpp:141] Setting up relu3_2
I0715 12:37:03.147675 18547 net.cpp:148] Top shape: 1 256 144 175 (6451200)
I0715 12:37:03.147686 18547 net.cpp:156] Memory required for data: 763950048
I0715 12:37:03.147688 18547 layer_factory.hpp:77] Creating layer conv3_3
I0715 12:37:03.147697 18547 net.cpp:91] Creating Layer conv3_3
I0715 12:37:03.147699 18547 net.cpp:425] conv3_3 <- conv3_2
I0715 12:37:03.147703 18547 net.cpp:399] conv3_3 -> conv3_3
I0715 12:37:03.149591 18547 net.cpp:141] Setting up conv3_3
I0715 12:37:03.149607 18547 net.cpp:148] Top shape: 1 256 144 175 (6451200)
I0715 12:37:03.149610 18547 net.cpp:156] Memory required for data: 789754848
I0715 12:37:03.149616 18547 layer_factory.hpp:77] Creating layer relu3_3
I0715 12:37:03.149622 18547 net.cpp:91] Creating Layer relu3_3
I0715 12:37:03.149626 18547 net.cpp:425] relu3_3 <- conv3_3
I0715 12:37:03.149638 18547 net.cpp:386] relu3_3 -> conv3_3 (in-place)
I0715 12:37:03.150329 18547 net.cpp:141] Setting up relu3_3
I0715 12:37:03.150341 18547 net.cpp:148] Top shape: 1 256 144 175 (6451200)
I0715 12:37:03.150342 18547 net.cpp:156] Memory required for data: 815559648
I0715 12:37:03.150346 18547 layer_factory.hpp:77] Creating layer pool3
I0715 12:37:03.150352 18547 net.cpp:91] Creating Layer pool3
I0715 12:37:03.150354 18547 net.cpp:425] pool3 <- conv3_3
I0715 12:37:03.150368 18547 net.cpp:399] pool3 -> pool3
I0715 12:37:03.150408 18547 net.cpp:141] Setting up pool3
I0715 12:37:03.150413 18547 net.cpp:148] Top shape: 1 256 72 88 (1622016)
I0715 12:37:03.150415 18547 net.cpp:156] Memory required for data: 822047712
I0715 12:37:03.150418 18547 layer_factory.hpp:77] Creating layer conv4_1
I0715 12:37:03.150424 18547 net.cpp:91] Creating Layer conv4_1
I0715 12:37:03.150426 18547 net.cpp:425] conv4_1 <- pool3
I0715 12:37:03.150430 18547 net.cpp:399] conv4_1 -> conv4_1
I0715 12:37:03.153249 18547 net.cpp:141] Setting up conv4_1
I0715 12:37:03.153270 18547 net.cpp:148] Top shape: 1 512 72 88 (3244032)
I0715 12:37:03.153272 18547 net.cpp:156] Memory required for data: 835023840
I0715 12:37:03.153280 18547 layer_factory.hpp:77] Creating layer relu4_1
I0715 12:37:03.153287 18547 net.cpp:91] Creating Layer relu4_1
I0715 12:37:03.153291 18547 net.cpp:425] relu4_1 <- conv4_1
I0715 12:37:03.153295 18547 net.cpp:386] relu4_1 -> conv4_1 (in-place)
I0715 12:37:03.153435 18547 net.cpp:141] Setting up relu4_1
I0715 12:37:03.153441 18547 net.cpp:148] Top shape: 1 512 72 88 (3244032)
I0715 12:37:03.153444 18547 net.cpp:156] Memory required for data: 847999968
I0715 12:37:03.153445 18547 layer_factory.hpp:77] Creating layer conv4_2
I0715 12:37:03.153452 18547 net.cpp:91] Creating Layer conv4_2
I0715 12:37:03.153455 18547 net.cpp:425] conv4_2 <- conv4_1
I0715 12:37:03.153458 18547 net.cpp:399] conv4_2 -> conv4_2
I0715 12:37:03.158120 18547 net.cpp:141] Setting up conv4_2
I0715 12:37:03.158144 18547 net.cpp:148] Top shape: 1 512 72 88 (3244032)
I0715 12:37:03.158146 18547 net.cpp:156] Memory required for data: 860976096
I0715 12:37:03.158159 18547 layer_factory.hpp:77] Creating layer relu4_2
I0715 12:37:03.158177 18547 net.cpp:91] Creating Layer relu4_2
I0715 12:37:03.158180 18547 net.cpp:425] relu4_2 <- conv4_2
I0715 12:37:03.158185 18547 net.cpp:386] relu4_2 -> conv4_2 (in-place)
I0715 12:37:03.158465 18547 net.cpp:141] Setting up relu4_2
I0715 12:37:03.158473 18547 net.cpp:148] Top shape: 1 512 72 88 (3244032)
I0715 12:37:03.158474 18547 net.cpp:156] Memory required for data: 873952224
I0715 12:37:03.158478 18547 layer_factory.hpp:77] Creating layer conv4_3
I0715 12:37:03.158483 18547 net.cpp:91] Creating Layer conv4_3
I0715 12:37:03.158486 18547 net.cpp:425] conv4_3 <- conv4_2
I0715 12:37:03.158489 18547 net.cpp:399] conv4_3 -> conv4_3
I0715 12:37:03.162976 18547 net.cpp:141] Setting up conv4_3
I0715 12:37:03.162999 18547 net.cpp:148] Top shape: 1 512 72 88 (3244032)
I0715 12:37:03.163002 18547 net.cpp:156] Memory required for data: 886928352
I0715 12:37:03.163008 18547 layer_factory.hpp:77] Creating layer relu4_3
I0715 12:37:03.163017 18547 net.cpp:91] Creating Layer relu4_3
I0715 12:37:03.163022 18547 net.cpp:425] relu4_3 <- conv4_3
I0715 12:37:03.163027 18547 net.cpp:386] relu4_3 -> conv4_3 (in-place)
I0715 12:37:03.163300 18547 net.cpp:141] Setting up relu4_3
I0715 12:37:03.163307 18547 net.cpp:148] Top shape: 1 512 72 88 (3244032)
I0715 12:37:03.163318 18547 net.cpp:156] Memory required for data: 899904480
I0715 12:37:03.163321 18547 layer_factory.hpp:77] Creating layer pool4
I0715 12:37:03.163326 18547 net.cpp:91] Creating Layer pool4
I0715 12:37:03.163328 18547 net.cpp:425] pool4 <- conv4_3
I0715 12:37:03.163332 18547 net.cpp:399] pool4 -> pool4
I0715 12:37:03.163377 18547 net.cpp:141] Setting up pool4
I0715 12:37:03.163393 18547 net.cpp:148] Top shape: 1 512 36 44 (811008)
I0715 12:37:03.163394 18547 net.cpp:156] Memory required for data: 903148512
I0715 12:37:03.163396 18547 layer_factory.hpp:77] Creating layer conv5_1
I0715 12:37:03.163403 18547 net.cpp:91] Creating Layer conv5_1
I0715 12:37:03.163403 18547 net.cpp:425] conv5_1 <- pool4
I0715 12:37:03.163408 18547 net.cpp:399] conv5_1 -> conv5_1
I0715 12:37:03.168699 18547 net.cpp:141] Setting up conv5_1
I0715 12:37:03.168730 18547 net.cpp:148] Top shape: 1 512 36 44 (811008)
I0715 12:37:03.168732 18547 net.cpp:156] Memory required for data: 906392544
I0715 12:37:03.168750 18547 layer_factory.hpp:77] Creating layer relu5_1
I0715 12:37:03.168758 18547 net.cpp:91] Creating Layer relu5_1
I0715 12:37:03.168762 18547 net.cpp:425] relu5_1 <- conv5_1
I0715 12:37:03.168767 18547 net.cpp:386] relu5_1 -> conv5_1 (in-place)
I0715 12:37:03.168910 18547 net.cpp:141] Setting up relu5_1
I0715 12:37:03.168916 18547 net.cpp:148] Top shape: 1 512 36 44 (811008)
I0715 12:37:03.168928 18547 net.cpp:156] Memory required for data: 909636576
I0715 12:37:03.168931 18547 layer_factory.hpp:77] Creating layer conv5_2
I0715 12:37:03.168938 18547 net.cpp:91] Creating Layer conv5_2
I0715 12:37:03.168941 18547 net.cpp:425] conv5_2 <- conv5_1
I0715 12:37:03.168944 18547 net.cpp:399] conv5_2 -> conv5_2
I0715 12:37:03.173702 18547 net.cpp:141] Setting up conv5_2
I0715 12:37:03.173738 18547 net.cpp:148] Top shape: 1 512 36 44 (811008)
I0715 12:37:03.173741 18547 net.cpp:156] Memory required for data: 912880608
I0715 12:37:03.173755 18547 layer_factory.hpp:77] Creating layer relu5_2
I0715 12:37:03.173764 18547 net.cpp:91] Creating Layer relu5_2
I0715 12:37:03.173768 18547 net.cpp:425] relu5_2 <- conv5_2
I0715 12:37:03.173773 18547 net.cpp:386] relu5_2 -> conv5_2 (in-place)
I0715 12:37:03.174060 18547 net.cpp:141] Setting up relu5_2
I0715 12:37:03.174068 18547 net.cpp:148] Top shape: 1 512 36 44 (811008)
I0715 12:37:03.174079 18547 net.cpp:156] Memory required for data: 916124640
I0715 12:37:03.174082 18547 layer_factory.hpp:77] Creating layer conv5_3
I0715 12:37:03.174089 18547 net.cpp:91] Creating Layer conv5_3
I0715 12:37:03.174093 18547 net.cpp:425] conv5_3 <- conv5_2
I0715 12:37:03.174095 18547 net.cpp:399] conv5_3 -> conv5_3
I0715 12:37:03.178551 18547 net.cpp:141] Setting up conv5_3
I0715 12:37:03.178586 18547 net.cpp:148] Top shape: 1 512 36 44 (811008)
I0715 12:37:03.178588 18547 net.cpp:156] Memory required for data: 919368672
I0715 12:37:03.178596 18547 layer_factory.hpp:77] Creating layer relu5_3
I0715 12:37:03.178604 18547 net.cpp:91] Creating Layer relu5_3
I0715 12:37:03.178608 18547 net.cpp:425] relu5_3 <- conv5_3
I0715 12:37:03.178612 18547 net.cpp:386] relu5_3 -> conv5_3 (in-place)
I0715 12:37:03.178899 18547 net.cpp:141] Setting up relu5_3
I0715 12:37:03.178906 18547 net.cpp:148] Top shape: 1 512 36 44 (811008)
I0715 12:37:03.178917 18547 net.cpp:156] Memory required for data: 922612704
I0715 12:37:03.178920 18547 layer_factory.hpp:77] Creating layer pool5
I0715 12:37:03.178928 18547 net.cpp:91] Creating Layer pool5
I0715 12:37:03.178930 18547 net.cpp:425] pool5 <- conv5_3
I0715 12:37:03.178936 18547 net.cpp:399] pool5 -> pool5
I0715 12:37:03.178980 18547 net.cpp:141] Setting up pool5
I0715 12:37:03.178984 18547 net.cpp:148] Top shape: 1 512 18 22 (202752)
I0715 12:37:03.178997 18547 net.cpp:156] Memory required for data: 923423712
I0715 12:37:03.178997 18547 layer_factory.hpp:77] Creating layer fc6
I0715 12:37:03.179005 18547 net.cpp:91] Creating Layer fc6
I0715 12:37:03.179008 18547 net.cpp:425] fc6 <- pool5
I0715 12:37:03.179010 18547 net.cpp:399] fc6 -> fc6
I0715 12:37:03.329120 18547 net.cpp:141] Setting up fc6
I0715 12:37:03.329145 18547 net.cpp:148] Top shape: 1 4096 12 16 (786432)
I0715 12:37:03.329149 18547 net.cpp:156] Memory required for data: 926569440
I0715 12:37:03.329156 18547 layer_factory.hpp:77] Creating layer relu6
I0715 12:37:03.329164 18547 net.cpp:91] Creating Layer relu6
I0715 12:37:03.329169 18547 net.cpp:425] relu6 <- fc6
I0715 12:37:03.329174 18547 net.cpp:386] relu6 -> fc6 (in-place)
I0715 12:37:03.329462 18547 net.cpp:141] Setting up relu6
I0715 12:37:03.329468 18547 net.cpp:148] Top shape: 1 4096 12 16 (786432)
I0715 12:37:03.329470 18547 net.cpp:156] Memory required for data: 929715168
I0715 12:37:03.329473 18547 layer_factory.hpp:77] Creating layer drop6
I0715 12:37:03.329478 18547 net.cpp:91] Creating Layer drop6
I0715 12:37:03.329481 18547 net.cpp:425] drop6 <- fc6
I0715 12:37:03.329484 18547 net.cpp:386] drop6 -> fc6 (in-place)
I0715 12:37:03.329519 18547 net.cpp:141] Setting up drop6
I0715 12:37:03.329524 18547 net.cpp:148] Top shape: 1 4096 12 16 (786432)
I0715 12:37:03.329525 18547 net.cpp:156] Memory required for data: 932860896
I0715 12:37:03.329527 18547 layer_factory.hpp:77] Creating layer fc7
I0715 12:37:03.329535 18547 net.cpp:91] Creating Layer fc7
I0715 12:37:03.329537 18547 net.cpp:425] fc7 <- fc6
I0715 12:37:03.329541 18547 net.cpp:399] fc7 -> fc7
I0715 12:37:03.355283 18547 net.cpp:141] Setting up fc7
I0715 12:37:03.355322 18547 net.cpp:148] Top shape: 1 4096 12 16 (786432)
I0715 12:37:03.355324 18547 net.cpp:156] Memory required for data: 936006624
I0715 12:37:03.355332 18547 layer_factory.hpp:77] Creating layer relu7
I0715 12:37:03.355341 18547 net.cpp:91] Creating Layer relu7
I0715 12:37:03.355345 18547 net.cpp:425] relu7 <- fc7
I0715 12:37:03.355350 18547 net.cpp:386] relu7 -> fc7 (in-place)
I0715 12:37:03.355661 18547 net.cpp:141] Setting up relu7
I0715 12:37:03.355669 18547 net.cpp:148] Top shape: 1 4096 12 16 (786432)
I0715 12:37:03.355680 18547 net.cpp:156] Memory required for data: 939152352
I0715 12:37:03.355684 18547 layer_factory.hpp:77] Creating layer drop7
I0715 12:37:03.355689 18547 net.cpp:91] Creating Layer drop7
I0715 12:37:03.355690 18547 net.cpp:425] drop7 <- fc7
I0715 12:37:03.355695 18547 net.cpp:386] drop7 -> fc7 (in-place)
I0715 12:37:03.355720 18547 net.cpp:141] Setting up drop7
I0715 12:37:03.355732 18547 net.cpp:148] Top shape: 1 4096 12 16 (786432)
I0715 12:37:03.355734 18547 net.cpp:156] Memory required for data: 942298080
I0715 12:37:03.355736 18547 layer_factory.hpp:77] Creating layer score_fr
I0715 12:37:03.355752 18547 net.cpp:91] Creating Layer score_fr
I0715 12:37:03.355754 18547 net.cpp:425] score_fr <- fc7
I0715 12:37:03.355757 18547 net.cpp:399] score_fr -> score_fr
I0715 12:37:03.356917 18547 net.cpp:141] Setting up score_fr
I0715 12:37:03.356926 18547 net.cpp:148] Top shape: 1 7 12 16 (1344)
I0715 12:37:03.356930 18547 net.cpp:156] Memory required for data: 942303456
I0715 12:37:03.356933 18547 layer_factory.hpp:77] Creating layer upscore
I0715 12:37:03.356940 18547 net.cpp:91] Creating Layer upscore
I0715 12:37:03.356941 18547 net.cpp:425] upscore <- score_fr
I0715 12:37:03.356945 18547 net.cpp:399] upscore -> upscore
I0715 12:37:03.357528 18547 net.cpp:141] Setting up upscore
I0715 12:37:03.357537 18547 net.cpp:148] Top shape: 1 7 416 544 (1584128)
I0715 12:37:03.357538 18547 net.cpp:156] Memory required for data: 948639968
I0715 12:37:03.357545 18547 layer_factory.hpp:77] Creating layer score
I0715 12:37:03.357552 18547 net.cpp:91] Creating Layer score
I0715 12:37:03.357563 18547 net.cpp:425] score <- upscore
I0715 12:37:03.357566 18547 net.cpp:425] score <- data_data_0_split_1
I0715 12:37:03.357569 18547 net.cpp:399] score -> score
I0715 12:37:03.357590 18547 net.cpp:141] Setting up score
I0715 12:37:03.357594 18547 net.cpp:148] Top shape: 1 7 375 500 (1312500)
I0715 12:37:03.357609 18547 net.cpp:156] Memory required for data: 953889968
I0715 12:37:03.357610 18547 layer_factory.hpp:77] Creating layer loss
I0715 12:37:03.357614 18547 net.cpp:91] Creating Layer loss
I0715 12:37:03.357616 18547 net.cpp:425] loss <- score
I0715 12:37:03.357619 18547 net.cpp:425] loss <- label
I0715 12:37:03.357622 18547 net.cpp:399] loss -> loss
I0715 12:37:03.357627 18547 layer_factory.hpp:77] Creating layer loss
…
