…
I0720 12:15:11.340282 26814 solver.cpp:81] Creating training net from train_net file: train.prototxt
I0720 12:15:11.340890 26814 net.cpp:49] Initializing net from parameters: 
state {
  phase: TRAIN
}
layer {
  name: "data"
  type: "Python"
  top: "data"
  top: "label"
  python_param {
    module: "pascalpart_layers"
    layer: "PASCALPartSegDataLayer"
    param_str: "{\'part\': \'head\', \'obj_cls\': \'person\', \'split\': \'train\', \'part_dir\': \'/home/cv/hdl/caffe/data/pascal/pascal-part\', \'seed\': 1337, \'voc_dir\': \'/home/cv/hdl/caffe/data/pascal/VOC\'}"
  }
}
layer {
  name: "conv1_1"
  type: "Convolution"
  bottom: "data"
  top: "conv1_1"
  param {
    lr_mult: 1
    decay_mult: 1
  }
  param {
    lr_mult: 2
    decay_mult: 0
  }
  convolution_param {
    num_output: 64
    pad: 100
    kernel_size: 3
    stride: 1
  }
}
layer {
  name: "relu1_1"
  type: "ReLU"
  bottom: "conv1_1"
  top: "conv1_1"
}
layer {
  name: "conv1_2"
  type: "Convolution"
  bottom: "conv1_1"
  top: "conv1_2"
  param {
    lr_mult: 1
    decay_mult: 1
  }
  param {
    lr_mult: 2
    decay_mult: 0
  }
  convolution_param {
    num_output: 64
    pad: 1
    kernel_size: 3
    stride: 1
  }
}
layer {
  name: "relu1_2"
  type: "ReLU"
  bottom: "conv1_2"
  top: "conv1_2"
}
layer {
  name: "pool1"
  type: "Pooling"
  bottom: "conv1_2"
  top: "pool1"
  pooling_param {
    pool: MAX
    kernel_size: 2
    stride: 2
  }
}
layer {
  name: "conv2_1"
  type: "Convolution"
  bottom: "pool1"
  top: "conv2_1"
  param {
    lr_mult: 1
    decay_mult: 1
  }
  param {
    lr_mult: 2
    decay_mult: 0
  }
  convolution_param {
    num_output: 128
    pad: 1
    kernel_size: 3
    stride: 1
  }
}
layer {
  name: "relu2_1"
  type: "ReLU"
  bottom: "conv2_1"
  top: "conv2_1"
}
layer {
  name: "conv2_2"
  type: "Convolution"
  bottom: "conv2_1"
  top: "conv2_2"
  param {
    lr_mult: 1
    decay_mult: 1
  }
  param {
    lr_mult: 2
    decay_mult: 0
  }
  convolution_param {
    num_output: 128
    pad: 1
    kernel_size: 3
    stride: 1
  }
}
layer {
  name: "relu2_2"
  type: "ReLU"
  bottom: "conv2_2"
  top: "conv2_2"
}
layer {
  name: "pool2"
  type: "Pooling"
  bottom: "conv2_2"
  top: "pool2"
  pooling_param {
    pool: MAX
    kernel_size: 2
    stride: 2
  }
}
layer {
  name: "conv3_1"
  type: "Convolution"
  bottom: "pool2"
  top: "conv3_1"
  param {
    lr_mult: 1
    decay_mult: 1
  }
  param {
    lr_mult: 2
    decay_mult: 0
  }
  convolution_param {
    num_output: 256
    pad: 1
    kernel_size: 3
    stride: 1
  }
}
layer {
  name: "relu3_1"
  type: "ReLU"
  bottom: "conv3_1"
  top: "conv3_1"
}
layer {
  name: "conv3_2"
  type: "Convolution"
  bottom: "conv3_1"
  top: "conv3_2"
  param {
    lr_mult: 1
    decay_mult: 1
  }
  param {
    lr_mult: 2
    decay_mult: 0
  }
  convolution_param {
    num_output: 256
    pad: 1
    kernel_size: 3
    stride: 1
  }
}
layer {
  name: "relu3_2"
  type: "ReLU"
  bottom: "conv3_2"
  top: "conv3_2"
}
layer {
  name: "conv3_3"
  type: "Convolution"
  bottom: "conv3_2"
  top: "conv3_3"
  param {
    lr_mult: 1
    decay_mult: 1
  }
  param {
    lr_mult: 2
    decay_mult: 0
  }
  convolution_param {
    num_output: 256
    pad: 1
    kernel_size: 3
    stride: 1
  }
}
layer {
  name: "relu3_3"
  type: "ReLU"
  bottom: "conv3_3"
  top: "conv3_3"
}
layer {
  name: "pool3"
  type: "Pooling"
  bottom: "conv3_3"
  top: "pool3"
  pooling_param {
    pool: MAX
    kernel_size: 2
    stride: 2
  }
}
layer {
  name: "conv4_1"
  type: "Convolution"
  bottom: "pool3"
  top: "conv4_1"
  param {
    lr_mult: 1
    decay_mult: 1
  }
  param {
    lr_mult: 2
    decay_mult: 0
  }
  convolution_param {
    num_output: 512
    pad: 1
    kernel_size: 3
    stride: 1
  }
}
layer {
  name: "relu4_1"
  type: "ReLU"
  bottom: "conv4_1"
  top: "conv4_1"
}
layer {
  name: "conv4_2"
  type: "Convolution"
  bottom: "conv4_1"
  top: "conv4_2"
  param {
    lr_mult: 1
    decay_mult: 1
  }
  param {
    lr_mult: 2
    decay_mult: 0
  }
  convolution_param {
    num_output: 512
    pad: 1
    kernel_size: 3
    stride: 1
  }
}
layer {
  name: "relu4_2"
  type: "ReLU"
  bottom: "conv4_2"
  top: "conv4_2"
}
layer {
  name: "conv4_3"
  type: "Convolution"
  bottom: "conv4_2"
  top: "conv4_3"
  param {
    lr_mult: 1
    decay_mult: 1
  }
  param {
    lr_mult: 2
    decay_mult: 0
  }
  convolution_param {
    num_output: 512
    pad: 1
    kernel_size: 3
    stride: 1
  }
}
layer {
  name: "relu4_3"
  type: "ReLU"
  bottom: "conv4_3"
  top: "conv4_3"
}
layer {
  name: "pool4"
  type: "Pooling"
  bottom: "conv4_3"
  top: "pool4"
  pooling_param {
    pool: MAX
    kernel_size: 2
    stride: 2
  }
}
layer {
  name: "conv5_1"
  type: "Convolution"
  bottom: "pool4"
  top: "conv5_1"
  param {
    lr_mult: 1
    decay_mult: 1
  }
  param {
    lr_mult: 2
    decay_mult: 0
  }
  convolution_param {
    num_output: 512
    pad: 1
    kernel_size: 3
    stride: 1
  }
}
layer {
  name: "relu5_1"
  type: "ReLU"
  bottom: "conv5_1"
  top: "conv5_1"
}
layer {
  name: "conv5_2"
  type: "Convolution"
  bottom: "conv5_1"
  top: "conv5_2"
  param {
    lr_mult: 1
    decay_mult: 1
  }
  param {
    lr_mult: 2
    decay_mult: 0
  }
  convolution_param {
    num_output: 512
    pad: 1
    kernel_size: 3
    stride: 1
  }
}
layer {
  name: "relu5_2"
  type: "ReLU"
  bottom: "conv5_2"
  top: "conv5_2"
}
layer {
  name: "conv5_3"
  type: "Convolution"
  bottom: "conv5_2"
  top: "conv5_3"
  param {
    lr_mult: 1
    decay_mult: 1
  }
  param {
    lr_mult: 2
    decay_mult: 0
  }
  convolution_param {
    num_output: 512
    pad: 1
    kernel_size: 3
    stride: 1
  }
}
layer {
  name: "relu5_3"
  type: "ReLU"
  bottom: "conv5_3"
  top: "conv5_3"
}
layer {
  name: "pool5"
  type: "Pooling"
  bottom: "conv5_3"
  top: "pool5"
  pooling_param {
    pool: MAX
    kernel_size: 2
    stride: 2
  }
}
layer {
  name: "fc6"
  type: "Convolution"
  bottom: "pool5"
  top: "fc6"
  param {
    lr_mult: 1
    decay_mult: 1
  }
  param {
    lr_mult: 2
    decay_mult: 0
  }
  convolution_param {
    num_output: 4096
    pad: 0
    kernel_size: 7
    stride: 1
  }
}
layer {
  name: "relu6"
  type: "ReLU"
  bottom: "fc6"
  top: "fc6"
}
layer {
  name: "drop6"
  type: "Dropout"
  bottom: "fc6"
  top: "fc6"
  dropout_param {
    dropout_ratio: 0.5
  }
}
layer {
  name: "fc7"
  type: "Convolution"
  bottom: "fc6"
  top: "fc7"
  param {
    lr_mult: 1
    decay_mult: 1
  }
  param {
    lr_mult: 2
    decay_mult: 0
  }
  convolution_param {
    num_output: 4096
    pad: 0
    kernel_size: 1
    stride: 1
  }
}
layer {
  name: "relu7"
  type: "ReLU"
  bottom: "fc7"
  top: "fc7"
}
layer {
  name: "drop7"
  type: "Dropout"
  bottom: "fc7"
  top: "fc7"
  dropout_param {
    dropout_ratio: 0.5
  }
}
layer {
  name: "score_fr"
  type: "Convolution"
  bottom: "fc7"
  top: "score_fr"
  param {
    lr_mult: 1
    decay_mult: 1
  }
  param {
    lr_mult: 2
    decay_mult: 0
  }
  convolution_param {
    num_output: 7
    pad: 0
    kernel_size: 1
  }
}
layer {
  name: "upscore"
  type: "Deconvolution"
  bottom: "score_fr"
  top: "upscore"
  param {
    lr_mult: 0
  }
  convolution_param {
    num_output: 7
    bias_term: false
    kernel_size: 64
    stride: 32
  }
}
layer {
  name: "score"
  type: "Crop"
  bottom: "upscore"
  bottom: "data"
  top: "score"
  crop_param {
    axis: 2
    offset: 19
  }
}
layer {
  name: "loss"
  type: "SoftmaxWithLoss"
  bottom: "score"
  bottom: "label"
  top: "loss"
  loss_param {
    ignore_label: 255
    normalize: false
  }
}
I0720 12:15:11.340994 26814 layer_factory.hpp:77] Creating layer data
I0720 12:15:11.345425 26814 net.cpp:91] Creating Layer data
I0720 12:15:11.345438 26814 net.cpp:399] data -> data
I0720 12:15:11.345443 26814 net.cpp:399] data -> label
I0720 12:15:11.849256 26814 net.cpp:141] Setting up data
I0720 12:15:11.849279 26814 net.cpp:148] Top shape: 1 3 377 500 (565500)
I0720 12:15:11.849282 26814 net.cpp:148] Top shape: 1 1 377 500 (188500)
I0720 12:15:11.849284 26814 net.cpp:156] Memory required for data: 3016000
I0720 12:15:11.849289 26814 layer_factory.hpp:77] Creating layer data_data_0_split
I0720 12:15:11.849313 26814 net.cpp:91] Creating Layer data_data_0_split
I0720 12:15:11.849316 26814 net.cpp:425] data_data_0_split <- data
I0720 12:15:11.849321 26814 net.cpp:399] data_data_0_split -> data_data_0_split_0
I0720 12:15:11.849329 26814 net.cpp:399] data_data_0_split -> data_data_0_split_1
I0720 12:15:11.849352 26814 net.cpp:141] Setting up data_data_0_split
I0720 12:15:11.849357 26814 net.cpp:148] Top shape: 1 3 377 500 (565500)
I0720 12:15:11.849360 26814 net.cpp:148] Top shape: 1 3 377 500 (565500)
I0720 12:15:11.849361 26814 net.cpp:156] Memory required for data: 7540000
I0720 12:15:11.849364 26814 layer_factory.hpp:77] Creating layer conv1_1
I0720 12:15:11.849371 26814 net.cpp:91] Creating Layer conv1_1
I0720 12:15:11.849375 26814 net.cpp:425] conv1_1 <- data_data_0_split_0
I0720 12:15:11.849377 26814 net.cpp:399] conv1_1 -> conv1_1
I0720 12:15:12.258142 26814 net.cpp:141] Setting up conv1_1
I0720 12:15:12.258177 26814 net.cpp:148] Top shape: 1 64 575 698 (25686400)
I0720 12:15:12.258180 26814 net.cpp:156] Memory required for data: 110285600
I0720 12:15:12.258193 26814 layer_factory.hpp:77] Creating layer relu1_1
I0720 12:15:12.258210 26814 net.cpp:91] Creating Layer relu1_1
I0720 12:15:12.258214 26814 net.cpp:425] relu1_1 <- conv1_1
I0720 12:15:12.258219 26814 net.cpp:386] relu1_1 -> conv1_1 (in-place)
I0720 12:15:12.258496 26814 net.cpp:141] Setting up relu1_1
I0720 12:15:12.258502 26814 net.cpp:148] Top shape: 1 64 575 698 (25686400)
I0720 12:15:12.258514 26814 net.cpp:156] Memory required for data: 213031200
I0720 12:15:12.258517 26814 layer_factory.hpp:77] Creating layer conv1_2
I0720 12:15:12.258525 26814 net.cpp:91] Creating Layer conv1_2
I0720 12:15:12.258527 26814 net.cpp:425] conv1_2 <- conv1_1
I0720 12:15:12.258541 26814 net.cpp:399] conv1_2 -> conv1_2
I0720 12:15:12.260275 26814 net.cpp:141] Setting up conv1_2
I0720 12:15:12.260288 26814 net.cpp:148] Top shape: 1 64 575 698 (25686400)
I0720 12:15:12.260289 26814 net.cpp:156] Memory required for data: 315776800
I0720 12:15:12.260296 26814 layer_factory.hpp:77] Creating layer relu1_2
I0720 12:15:12.260301 26814 net.cpp:91] Creating Layer relu1_2
I0720 12:15:12.260303 26814 net.cpp:425] relu1_2 <- conv1_2
I0720 12:15:12.260318 26814 net.cpp:386] relu1_2 -> conv1_2 (in-place)
I0720 12:15:12.260576 26814 net.cpp:141] Setting up relu1_2
I0720 12:15:12.260582 26814 net.cpp:148] Top shape: 1 64 575 698 (25686400)
I0720 12:15:12.260584 26814 net.cpp:156] Memory required for data: 418522400
I0720 12:15:12.260586 26814 layer_factory.hpp:77] Creating layer pool1
I0720 12:15:12.260591 26814 net.cpp:91] Creating Layer pool1
I0720 12:15:12.260593 26814 net.cpp:425] pool1 <- conv1_2
I0720 12:15:12.260597 26814 net.cpp:399] pool1 -> pool1
I0720 12:15:12.260637 26814 net.cpp:141] Setting up pool1
I0720 12:15:12.260640 26814 net.cpp:148] Top shape: 1 64 288 349 (6432768)
I0720 12:15:12.260643 26814 net.cpp:156] Memory required for data: 444253472
I0720 12:15:12.260644 26814 layer_factory.hpp:77] Creating layer conv2_1
I0720 12:15:12.260650 26814 net.cpp:91] Creating Layer conv2_1
I0720 12:15:12.260653 26814 net.cpp:425] conv2_1 <- pool1
I0720 12:15:12.260655 26814 net.cpp:399] conv2_1 -> conv2_1
I0720 12:15:12.261957 26814 net.cpp:141] Setting up conv2_1
I0720 12:15:12.261966 26814 net.cpp:148] Top shape: 1 128 288 349 (12865536)
I0720 12:15:12.261970 26814 net.cpp:156] Memory required for data: 495715616
I0720 12:15:12.261976 26814 layer_factory.hpp:77] Creating layer relu2_1
I0720 12:15:12.261981 26814 net.cpp:91] Creating Layer relu2_1
I0720 12:15:12.261982 26814 net.cpp:425] relu2_1 <- conv2_1
I0720 12:15:12.261996 26814 net.cpp:386] relu2_1 -> conv2_1 (in-place)
I0720 12:15:12.262115 26814 net.cpp:141] Setting up relu2_1
I0720 12:15:12.262120 26814 net.cpp:148] Top shape: 1 128 288 349 (12865536)
I0720 12:15:12.262122 26814 net.cpp:156] Memory required for data: 547177760
I0720 12:15:12.262125 26814 layer_factory.hpp:77] Creating layer conv2_2
I0720 12:15:12.262130 26814 net.cpp:91] Creating Layer conv2_2
I0720 12:15:12.262132 26814 net.cpp:425] conv2_2 <- conv2_1
I0720 12:15:12.262135 26814 net.cpp:399] conv2_2 -> conv2_2
I0720 12:15:12.263470 26814 net.cpp:141] Setting up conv2_2
I0720 12:15:12.263480 26814 net.cpp:148] Top shape: 1 128 288 349 (12865536)
I0720 12:15:12.263483 26814 net.cpp:156] Memory required for data: 598639904
I0720 12:15:12.263487 26814 layer_factory.hpp:77] Creating layer relu2_2
I0720 12:15:12.263491 26814 net.cpp:91] Creating Layer relu2_2
I0720 12:15:12.263494 26814 net.cpp:425] relu2_2 <- conv2_2
I0720 12:15:12.263496 26814 net.cpp:386] relu2_2 -> conv2_2 (in-place)
I0720 12:15:12.263779 26814 net.cpp:141] Setting up relu2_2
I0720 12:15:12.263787 26814 net.cpp:148] Top shape: 1 128 288 349 (12865536)
I0720 12:15:12.263789 26814 net.cpp:156] Memory required for data: 650102048
I0720 12:15:12.263792 26814 layer_factory.hpp:77] Creating layer pool2
I0720 12:15:12.263795 26814 net.cpp:91] Creating Layer pool2
I0720 12:15:12.263797 26814 net.cpp:425] pool2 <- conv2_2
I0720 12:15:12.263802 26814 net.cpp:399] pool2 -> pool2
I0720 12:15:12.263840 26814 net.cpp:141] Setting up pool2
I0720 12:15:12.263844 26814 net.cpp:148] Top shape: 1 128 144 175 (3225600)
I0720 12:15:12.263846 26814 net.cpp:156] Memory required for data: 663004448
I0720 12:15:12.263849 26814 layer_factory.hpp:77] Creating layer conv3_1
I0720 12:15:12.263854 26814 net.cpp:91] Creating Layer conv3_1
I0720 12:15:12.263856 26814 net.cpp:425] conv3_1 <- pool2
I0720 12:15:12.263859 26814 net.cpp:399] conv3_1 -> conv3_1
I0720 12:15:12.265125 26814 net.cpp:141] Setting up conv3_1
I0720 12:15:12.265135 26814 net.cpp:148] Top shape: 1 256 144 175 (6451200)
I0720 12:15:12.265136 26814 net.cpp:156] Memory required for data: 688809248
I0720 12:15:12.265142 26814 layer_factory.hpp:77] Creating layer relu3_1
I0720 12:15:12.265147 26814 net.cpp:91] Creating Layer relu3_1
I0720 12:15:12.265149 26814 net.cpp:425] relu3_1 <- conv3_1
I0720 12:15:12.265153 26814 net.cpp:386] relu3_1 -> conv3_1 (in-place)
I0720 12:15:12.265409 26814 net.cpp:141] Setting up relu3_1
I0720 12:15:12.265416 26814 net.cpp:148] Top shape: 1 256 144 175 (6451200)
I0720 12:15:12.265419 26814 net.cpp:156] Memory required for data: 714614048
I0720 12:15:12.265420 26814 layer_factory.hpp:77] Creating layer conv3_2
I0720 12:15:12.265426 26814 net.cpp:91] Creating Layer conv3_2
I0720 12:15:12.265429 26814 net.cpp:425] conv3_2 <- conv3_1
I0720 12:15:12.265432 26814 net.cpp:399] conv3_2 -> conv3_2
I0720 12:15:12.267071 26814 net.cpp:141] Setting up conv3_2
I0720 12:15:12.267081 26814 net.cpp:148] Top shape: 1 256 144 175 (6451200)
I0720 12:15:12.267083 26814 net.cpp:156] Memory required for data: 740418848
I0720 12:15:12.267088 26814 layer_factory.hpp:77] Creating layer relu3_2
I0720 12:15:12.267094 26814 net.cpp:91] Creating Layer relu3_2
I0720 12:15:12.267096 26814 net.cpp:425] relu3_2 <- conv3_2
I0720 12:15:12.267099 26814 net.cpp:386] relu3_2 -> conv3_2 (in-place)
I0720 12:15:12.267210 26814 net.cpp:141] Setting up relu3_2
I0720 12:15:12.267215 26814 net.cpp:148] Top shape: 1 256 144 175 (6451200)
I0720 12:15:12.267217 26814 net.cpp:156] Memory required for data: 766223648
I0720 12:15:12.267220 26814 layer_factory.hpp:77] Creating layer conv3_3
I0720 12:15:12.267228 26814 net.cpp:91] Creating Layer conv3_3
I0720 12:15:12.267230 26814 net.cpp:425] conv3_3 <- conv3_2
I0720 12:15:12.267233 26814 net.cpp:399] conv3_3 -> conv3_3
I0720 12:15:12.269016 26814 net.cpp:141] Setting up conv3_3
I0720 12:15:12.269037 26814 net.cpp:148] Top shape: 1 256 144 175 (6451200)
I0720 12:15:12.269039 26814 net.cpp:156] Memory required for data: 792028448
I0720 12:15:12.269045 26814 layer_factory.hpp:77] Creating layer relu3_3
I0720 12:15:12.269052 26814 net.cpp:91] Creating Layer relu3_3
I0720 12:15:12.269054 26814 net.cpp:425] relu3_3 <- conv3_3
I0720 12:15:12.269057 26814 net.cpp:386] relu3_3 -> conv3_3 (in-place)
I0720 12:15:12.269328 26814 net.cpp:141] Setting up relu3_3
I0720 12:15:12.269335 26814 net.cpp:148] Top shape: 1 256 144 175 (6451200)
I0720 12:15:12.269347 26814 net.cpp:156] Memory required for data: 817833248
I0720 12:15:12.269350 26814 layer_factory.hpp:77] Creating layer pool3
I0720 12:15:12.269356 26814 net.cpp:91] Creating Layer pool3
I0720 12:15:12.269357 26814 net.cpp:425] pool3 <- conv3_3
I0720 12:15:12.269361 26814 net.cpp:399] pool3 -> pool3
I0720 12:15:12.269402 26814 net.cpp:141] Setting up pool3
I0720 12:15:12.269405 26814 net.cpp:148] Top shape: 1 256 72 88 (1622016)
I0720 12:15:12.269407 26814 net.cpp:156] Memory required for data: 824321312
I0720 12:15:12.269418 26814 layer_factory.hpp:77] Creating layer conv4_1
I0720 12:15:12.269426 26814 net.cpp:91] Creating Layer conv4_1
I0720 12:15:12.269428 26814 net.cpp:425] conv4_1 <- pool3
I0720 12:15:12.269433 26814 net.cpp:399] conv4_1 -> conv4_1
I0720 12:15:12.273371 26814 net.cpp:141] Setting up conv4_1
I0720 12:15:12.273403 26814 net.cpp:148] Top shape: 1 512 72 88 (3244032)
I0720 12:15:12.273406 26814 net.cpp:156] Memory required for data: 837297440
I0720 12:15:12.273414 26814 layer_factory.hpp:77] Creating layer relu4_1
I0720 12:15:12.273422 26814 net.cpp:91] Creating Layer relu4_1
I0720 12:15:12.273424 26814 net.cpp:425] relu4_1 <- conv4_1
I0720 12:15:12.273429 26814 net.cpp:386] relu4_1 -> conv4_1 (in-place)
I0720 12:15:12.273845 26814 net.cpp:141] Setting up relu4_1
I0720 12:15:12.273854 26814 net.cpp:148] Top shape: 1 512 72 88 (3244032)
I0720 12:15:12.273865 26814 net.cpp:156] Memory required for data: 850273568
I0720 12:15:12.273867 26814 layer_factory.hpp:77] Creating layer conv4_2
I0720 12:15:12.273876 26814 net.cpp:91] Creating Layer conv4_2
I0720 12:15:12.273879 26814 net.cpp:425] conv4_2 <- conv4_1
I0720 12:15:12.273883 26814 net.cpp:399] conv4_2 -> conv4_2
I0720 12:15:12.278302 26814 net.cpp:141] Setting up conv4_2
I0720 12:15:12.278324 26814 net.cpp:148] Top shape: 1 512 72 88 (3244032)
I0720 12:15:12.278326 26814 net.cpp:156] Memory required for data: 863249696
I0720 12:15:12.278338 26814 layer_factory.hpp:77] Creating layer relu4_2
I0720 12:15:12.278347 26814 net.cpp:91] Creating Layer relu4_2
I0720 12:15:12.278348 26814 net.cpp:425] relu4_2 <- conv4_2
I0720 12:15:12.278363 26814 net.cpp:386] relu4_2 -> conv4_2 (in-place)
I0720 12:15:12.278523 26814 net.cpp:141] Setting up relu4_2
I0720 12:15:12.278538 26814 net.cpp:148] Top shape: 1 512 72 88 (3244032)
I0720 12:15:12.278540 26814 net.cpp:156] Memory required for data: 876225824
I0720 12:15:12.278542 26814 layer_factory.hpp:77] Creating layer conv4_3
I0720 12:15:12.278559 26814 net.cpp:91] Creating Layer conv4_3
I0720 12:15:12.278563 26814 net.cpp:425] conv4_3 <- conv4_2
I0720 12:15:12.278566 26814 net.cpp:399] conv4_3 -> conv4_3
I0720 12:15:12.283165 26814 net.cpp:141] Setting up conv4_3
I0720 12:15:12.283191 26814 net.cpp:148] Top shape: 1 512 72 88 (3244032)
I0720 12:15:12.283195 26814 net.cpp:156] Memory required for data: 889201952
I0720 12:15:12.283201 26814 layer_factory.hpp:77] Creating layer relu4_3
I0720 12:15:12.283210 26814 net.cpp:91] Creating Layer relu4_3
I0720 12:15:12.283215 26814 net.cpp:425] relu4_3 <- conv4_3
I0720 12:15:12.283228 26814 net.cpp:386] relu4_3 -> conv4_3 (in-place)
I0720 12:15:12.283500 26814 net.cpp:141] Setting up relu4_3
I0720 12:15:12.283507 26814 net.cpp:148] Top shape: 1 512 72 88 (3244032)
I0720 12:15:12.283509 26814 net.cpp:156] Memory required for data: 902178080
I0720 12:15:12.283511 26814 layer_factory.hpp:77] Creating layer pool4
I0720 12:15:12.283516 26814 net.cpp:91] Creating Layer pool4
I0720 12:15:12.283519 26814 net.cpp:425] pool4 <- conv4_3
I0720 12:15:12.283522 26814 net.cpp:399] pool4 -> pool4
I0720 12:15:12.283561 26814 net.cpp:141] Setting up pool4
I0720 12:15:12.283567 26814 net.cpp:148] Top shape: 1 512 36 44 (811008)
I0720 12:15:12.283577 26814 net.cpp:156] Memory required for data: 905422112
I0720 12:15:12.283579 26814 layer_factory.hpp:77] Creating layer conv5_1
I0720 12:15:12.283584 26814 net.cpp:91] Creating Layer conv5_1
I0720 12:15:12.283586 26814 net.cpp:425] conv5_1 <- pool4
I0720 12:15:12.283591 26814 net.cpp:399] conv5_1 -> conv5_1
I0720 12:15:12.288300 26814 net.cpp:141] Setting up conv5_1
I0720 12:15:12.288329 26814 net.cpp:148] Top shape: 1 512 36 44 (811008)
I0720 12:15:12.288332 26814 net.cpp:156] Memory required for data: 908666144
I0720 12:15:12.288339 26814 layer_factory.hpp:77] Creating layer relu5_1
I0720 12:15:12.288357 26814 net.cpp:91] Creating Layer relu5_1
I0720 12:15:12.288362 26814 net.cpp:425] relu5_1 <- conv5_1
I0720 12:15:12.288365 26814 net.cpp:386] relu5_1 -> conv5_1 (in-place)
I0720 12:15:12.288733 26814 net.cpp:141] Setting up relu5_1
I0720 12:15:12.288740 26814 net.cpp:148] Top shape: 1 512 36 44 (811008)
I0720 12:15:12.288753 26814 net.cpp:156] Memory required for data: 911910176
I0720 12:15:12.288754 26814 layer_factory.hpp:77] Creating layer conv5_2
I0720 12:15:12.288763 26814 net.cpp:91] Creating Layer conv5_2
I0720 12:15:12.288764 26814 net.cpp:425] conv5_2 <- conv5_1
I0720 12:15:12.288779 26814 net.cpp:399] conv5_2 -> conv5_2
I0720 12:15:12.293308 26814 net.cpp:141] Setting up conv5_2
I0720 12:15:12.293332 26814 net.cpp:148] Top shape: 1 512 36 44 (811008)
I0720 12:15:12.293334 26814 net.cpp:156] Memory required for data: 915154208
I0720 12:15:12.293341 26814 layer_factory.hpp:77] Creating layer relu5_2
I0720 12:15:12.293350 26814 net.cpp:91] Creating Layer relu5_2
I0720 12:15:12.293354 26814 net.cpp:425] relu5_2 <- conv5_2
I0720 12:15:12.293368 26814 net.cpp:386] relu5_2 -> conv5_2 (in-place)
I0720 12:15:12.293496 26814 net.cpp:141] Setting up relu5_2
I0720 12:15:12.293503 26814 net.cpp:148] Top shape: 1 512 36 44 (811008)
I0720 12:15:12.293504 26814 net.cpp:156] Memory required for data: 918398240
I0720 12:15:12.293506 26814 layer_factory.hpp:77] Creating layer conv5_3
I0720 12:15:12.293514 26814 net.cpp:91] Creating Layer conv5_3
I0720 12:15:12.293515 26814 net.cpp:425] conv5_3 <- conv5_2
I0720 12:15:12.293519 26814 net.cpp:399] conv5_3 -> conv5_3
I0720 12:15:12.298177 26814 net.cpp:141] Setting up conv5_3
I0720 12:15:12.298202 26814 net.cpp:148] Top shape: 1 512 36 44 (811008)
I0720 12:15:12.298204 26814 net.cpp:156] Memory required for data: 921642272
I0720 12:15:12.298212 26814 layer_factory.hpp:77] Creating layer relu5_3
I0720 12:15:12.298220 26814 net.cpp:91] Creating Layer relu5_3
I0720 12:15:12.298223 26814 net.cpp:425] relu5_3 <- conv5_3
I0720 12:15:12.298228 26814 net.cpp:386] relu5_3 -> conv5_3 (in-place)
I0720 12:15:12.298512 26814 net.cpp:141] Setting up relu5_3
I0720 12:15:12.298521 26814 net.cpp:148] Top shape: 1 512 36 44 (811008)
I0720 12:15:12.298522 26814 net.cpp:156] Memory required for data: 924886304
I0720 12:15:12.298524 26814 layer_factory.hpp:77] Creating layer pool5
I0720 12:15:12.298532 26814 net.cpp:91] Creating Layer pool5
I0720 12:15:12.298534 26814 net.cpp:425] pool5 <- conv5_3
I0720 12:15:12.298538 26814 net.cpp:399] pool5 -> pool5
I0720 12:15:12.298579 26814 net.cpp:141] Setting up pool5
I0720 12:15:12.298593 26814 net.cpp:148] Top shape: 1 512 18 22 (202752)
I0720 12:15:12.298594 26814 net.cpp:156] Memory required for data: 925697312
I0720 12:15:12.298596 26814 layer_factory.hpp:77] Creating layer fc6
I0720 12:15:12.298614 26814 net.cpp:91] Creating Layer fc6
I0720 12:15:12.298615 26814 net.cpp:425] fc6 <- pool5
I0720 12:15:12.298619 26814 net.cpp:399] fc6 -> fc6
I0720 12:15:12.446391 26814 net.cpp:141] Setting up fc6
I0720 12:15:12.446413 26814 net.cpp:148] Top shape: 1 4096 12 16 (786432)
I0720 12:15:12.446416 26814 net.cpp:156] Memory required for data: 928843040
I0720 12:15:12.446424 26814 layer_factory.hpp:77] Creating layer relu6
I0720 12:15:12.446430 26814 net.cpp:91] Creating Layer relu6
I0720 12:15:12.446434 26814 net.cpp:425] relu6 <- fc6
I0720 12:15:12.446447 26814 net.cpp:386] relu6 -> fc6 (in-place)
I0720 12:15:12.446723 26814 net.cpp:141] Setting up relu6
I0720 12:15:12.446732 26814 net.cpp:148] Top shape: 1 4096 12 16 (786432)
I0720 12:15:12.446733 26814 net.cpp:156] Memory required for data: 931988768
I0720 12:15:12.446735 26814 layer_factory.hpp:77] Creating layer drop6
I0720 12:15:12.446744 26814 net.cpp:91] Creating Layer drop6
I0720 12:15:12.446748 26814 net.cpp:425] drop6 <- fc6
I0720 12:15:12.446750 26814 net.cpp:386] drop6 -> fc6 (in-place)
I0720 12:15:12.446781 26814 net.cpp:141] Setting up drop6
I0720 12:15:12.446784 26814 net.cpp:148] Top shape: 1 4096 12 16 (786432)
I0720 12:15:12.446786 26814 net.cpp:156] Memory required for data: 935134496
I0720 12:15:12.446789 26814 layer_factory.hpp:77] Creating layer fc7
I0720 12:15:12.446794 26814 net.cpp:91] Creating Layer fc7
I0720 12:15:12.446796 26814 net.cpp:425] fc7 <- fc6
I0720 12:15:12.446800 26814 net.cpp:399] fc7 -> fc7
I0720 12:15:12.472420 26814 net.cpp:141] Setting up fc7
I0720 12:15:12.472445 26814 net.cpp:148] Top shape: 1 4096 12 16 (786432)
I0720 12:15:12.472446 26814 net.cpp:156] Memory required for data: 938280224
I0720 12:15:12.472453 26814 layer_factory.hpp:77] Creating layer relu7
I0720 12:15:12.472461 26814 net.cpp:91] Creating Layer relu7
I0720 12:15:12.472465 26814 net.cpp:425] relu7 <- fc7
I0720 12:15:12.472478 26814 net.cpp:386] relu7 -> fc7 (in-place)
I0720 12:15:12.472753 26814 net.cpp:141] Setting up relu7
I0720 12:15:12.472760 26814 net.cpp:148] Top shape: 1 4096 12 16 (786432)
I0720 12:15:12.472772 26814 net.cpp:156] Memory required for data: 941425952
I0720 12:15:12.472774 26814 layer_factory.hpp:77] Creating layer drop7
I0720 12:15:12.472779 26814 net.cpp:91] Creating Layer drop7
I0720 12:15:12.472781 26814 net.cpp:425] drop7 <- fc7
I0720 12:15:12.472785 26814 net.cpp:386] drop7 -> fc7 (in-place)
I0720 12:15:12.472807 26814 net.cpp:141] Setting up drop7
I0720 12:15:12.472811 26814 net.cpp:148] Top shape: 1 4096 12 16 (786432)
I0720 12:15:12.472813 26814 net.cpp:156] Memory required for data: 944571680
I0720 12:15:12.472815 26814 layer_factory.hpp:77] Creating layer score_fr
I0720 12:15:12.472821 26814 net.cpp:91] Creating Layer score_fr
I0720 12:15:12.472825 26814 net.cpp:425] score_fr <- fc7
I0720 12:15:12.472827 26814 net.cpp:399] score_fr -> score_fr
I0720 12:15:12.474154 26814 net.cpp:141] Setting up score_fr
I0720 12:15:12.474162 26814 net.cpp:148] Top shape: 1 7 12 16 (1344)
I0720 12:15:12.474165 26814 net.cpp:156] Memory required for data: 944577056
I0720 12:15:12.474170 26814 layer_factory.hpp:77] Creating layer upscore
I0720 12:15:12.474179 26814 net.cpp:91] Creating Layer upscore
I0720 12:15:12.474181 26814 net.cpp:425] upscore <- score_fr
I0720 12:15:12.474196 26814 net.cpp:399] upscore -> upscore
I0720 12:15:12.474761 26814 net.cpp:141] Setting up upscore
I0720 12:15:12.474768 26814 net.cpp:148] Top shape: 1 7 416 544 (1584128)
I0720 12:15:12.474771 26814 net.cpp:156] Memory required for data: 950913568
I0720 12:15:12.474778 26814 layer_factory.hpp:77] Creating layer score
I0720 12:15:12.474786 26814 net.cpp:91] Creating Layer score
I0720 12:15:12.474787 26814 net.cpp:425] score <- upscore
I0720 12:15:12.474798 26814 net.cpp:425] score <- data_data_0_split_1
I0720 12:15:12.474802 26814 net.cpp:399] score -> score
I0720 12:15:12.474820 26814 net.cpp:141] Setting up score
I0720 12:15:12.474824 26814 net.cpp:148] Top shape: 1 7 377 500 (1319500)
I0720 12:15:12.474827 26814 net.cpp:156] Memory required for data: 956191568
I0720 12:15:12.474828 26814 layer_factory.hpp:77] Creating layer loss
I0720 12:15:12.474833 26814 net.cpp:91] Creating Layer loss
I0720 12:15:12.474834 26814 net.cpp:425] loss <- score
I0720 12:15:12.474836 26814 net.cpp:425] loss <- label
I0720 12:15:12.474839 26814 net.cpp:399] loss -> loss
I0720 12:15:12.474844 26814 layer_factory.hpp:77] Creating layer loss
…
I0720 12:15:12.478130 26814 solver.cpp:181] Creating test net (#0) specified by test_net file: val.prototxt
I0720 12:15:12.478346 26814 net.cpp:49] Initializing net from parameters: 
state {
  phase: TEST
}
layer {
  name: "data"
  type: "Python"
  top: "data"
  top: "label"
  python_param {
    module: "pascalpart_layers"
    layer: "PASCALPartSegDataLayer"
    param_str: "{\'part\': \'head\', \'obj_cls\': \'person\', \'split\': \'val\', \'part_dir\': \'/home/cv/hdl/caffe/data/pascal/pascal-part\', \'seed\': 1337, \'voc_dir\': \'/home/cv/hdl/caffe/data/pascal/VOC\'}"
  }
}
layer {
  name: "conv1_1"
  type: "Convolution"
  bottom: "data"
  top: "conv1_1"
  param {
    lr_mult: 1
    decay_mult: 1
  }
  param {
    lr_mult: 2
    decay_mult: 0
  }
  convolution_param {
    num_output: 64
    pad: 100
    kernel_size: 3
    stride: 1
  }
}
layer {
  name: "relu1_1"
  type: "ReLU"
  bottom: "conv1_1"
  top: "conv1_1"
}
layer {
  name: "conv1_2"
  type: "Convolution"
  bottom: "conv1_1"
  top: "conv1_2"
  param {
    lr_mult: 1
    decay_mult: 1
  }
  param {
    lr_mult: 2
    decay_mult: 0
  }
  convolution_param {
    num_output: 64
    pad: 1
    kernel_size: 3
    stride: 1
  }
}
layer {
  name: "relu1_2"
  type: "ReLU"
  bottom: "conv1_2"
  top: "conv1_2"
}
layer {
  name: "pool1"
  type: "Pooling"
  bottom: "conv1_2"
  top: "pool1"
  pooling_param {
    pool: MAX
    kernel_size: 2
    stride: 2
  }
}
layer {
  name: "conv2_1"
  type: "Convolution"
  bottom: "pool1"
  top: "conv2_1"
  param {
    lr_mult: 1
    decay_mult: 1
  }
  param {
    lr_mult: 2
    decay_mult: 0
  }
  convolution_param {
    num_output: 128
    pad: 1
    kernel_size: 3
    stride: 1
  }
}
layer {
  name: "relu2_1"
  type: "ReLU"
  bottom: "conv2_1"
  top: "conv2_1"
}
layer {
  name: "conv2_2"
  type: "Convolution"
  bottom: "conv2_1"
  top: "conv2_2"
  param {
    lr_mult: 1
    decay_mult: 1
  }
  param {
    lr_mult: 2
    decay_mult: 0
  }
  convolution_param {
    num_output: 128
    pad: 1
    kernel_size: 3
    stride: 1
  }
}
layer {
  name: "relu2_2"
  type: "ReLU"
  bottom: "conv2_2"
  top: "conv2_2"
}
layer {
  name: "pool2"
  type: "Pooling"
  bottom: "conv2_2"
  top: "pool2"
  pooling_param {
    pool: MAX
    kernel_size: 2
    stride: 2
  }
}
layer {
  name: "conv3_1"
  type: "Convolution"
  bottom: "pool2"
  top: "conv3_1"
  param {
    lr_mult: 1
    decay_mult: 1
  }
  param {
    lr_mult: 2
    decay_mult: 0
  }
  convolution_param {
    num_output: 256
    pad: 1
    kernel_size: 3
    stride: 1
  }
}
layer {
  name: "relu3_1"
  type: "ReLU"
  bottom: "conv3_1"
  top: "conv3_1"
}
layer {
  name: "conv3_2"
  type: "Convolution"
  bottom: "conv3_1"
  top: "conv3_2"
  param {
    lr_mult: 1
    decay_mult: 1
  }
  param {
    lr_mult: 2
    decay_mult: 0
  }
  convolution_param {
    num_output: 256
    pad: 1
    kernel_size: 3
    stride: 1
  }
}
layer {
  name: "relu3_2"
  type: "ReLU"
  bottom: "conv3_2"
  top: "conv3_2"
}
layer {
  name: "conv3_3"
  type: "Convolution"
  bottom: "conv3_2"
  top: "conv3_3"
  param {
    lr_mult: 1
    decay_mult: 1
  }
  param {
    lr_mult: 2
    decay_mult: 0
  }
  convolution_param {
    num_output: 256
    pad: 1
    kernel_size: 3
    stride: 1
  }
}
layer {
  name: "relu3_3"
  type: "ReLU"
  bottom: "conv3_3"
  top: "conv3_3"
}
layer {
  name: "pool3"
  type: "Pooling"
  bottom: "conv3_3"
  top: "pool3"
  pooling_param {
    pool: MAX
    kernel_size: 2
    stride: 2
  }
}
layer {
  name: "conv4_1"
  type: "Convolution"
  bottom: "pool3"
  top: "conv4_1"
  param {
    lr_mult: 1
    decay_mult: 1
  }
  param {
    lr_mult: 2
    decay_mult: 0
  }
  convolution_param {
    num_output: 512
    pad: 1
    kernel_size: 3
    stride: 1
  }
}
layer {
  name: "relu4_1"
  type: "ReLU"
  bottom: "conv4_1"
  top: "conv4_1"
}
layer {
  name: "conv4_2"
  type: "Convolution"
  bottom: "conv4_1"
  top: "conv4_2"
  param {
    lr_mult: 1
    decay_mult: 1
  }
  param {
    lr_mult: 2
    decay_mult: 0
  }
  convolution_param {
    num_output: 512
    pad: 1
    kernel_size: 3
    stride: 1
  }
}
layer {
  name: "relu4_2"
  type: "ReLU"
  bottom: "conv4_2"
  top: "conv4_2"
}
layer {
  name: "conv4_3"
  type: "Convolution"
  bottom: "conv4_2"
  top: "conv4_3"
  param {
    lr_mult: 1
    decay_mult: 1
  }
  param {
    lr_mult: 2
    decay_mult: 0
  }
  convolution_param {
    num_output: 512
    pad: 1
    kernel_size: 3
    stride: 1
  }
}
layer {
  name: "relu4_3"
  type: "ReLU"
  bottom: "conv4_3"
  top: "conv4_3"
}
layer {
  name: "pool4"
  type: "Pooling"
  bottom: "conv4_3"
  top: "pool4"
  pooling_param {
    pool: MAX
    kernel_size: 2
    stride: 2
  }
}
layer {
  name: "conv5_1"
  type: "Convolution"
  bottom: "pool4"
  top: "conv5_1"
  param {
    lr_mult: 1
    decay_mult: 1
  }
  param {
    lr_mult: 2
    decay_mult: 0
  }
  convolution_param {
    num_output: 512
    pad: 1
    kernel_size: 3
    stride: 1
  }
}
layer {
  name: "relu5_1"
  type: "ReLU"
  bottom: "conv5_1"
  top: "conv5_1"
}
layer {
  name: "conv5_2"
  type: "Convolution"
  bottom: "conv5_1"
  top: "conv5_2"
  param {
    lr_mult: 1
    decay_mult: 1
  }
  param {
    lr_mult: 2
    decay_mult: 0
  }
  convolution_param {
    num_output: 512
    pad: 1
    kernel_size: 3
    stride: 1
  }
}
layer {
  name: "relu5_2"
  type: "ReLU"
  bottom: "conv5_2"
  top: "conv5_2"
}
layer {
  name: "conv5_3"
  type: "Convolution"
  bottom: "conv5_2"
  top: "conv5_3"
  param {
    lr_mult: 1
    decay_mult: 1
  }
  param {
    lr_mult: 2
    decay_mult: 0
  }
  convolution_param {
    num_output: 512
    pad: 1
    kernel_size: 3
    stride: 1
  }
}
layer {
  name: "relu5_3"
  type: "ReLU"
  bottom: "conv5_3"
  top: "conv5_3"
}
layer {
  name: "pool5"
  type: "Pooling"
  bottom: "conv5_3"
  top: "pool5"
  pooling_param {
    pool: MAX
    kernel_size: 2
    stride: 2
  }
}
layer {
  name: "fc6"
  type: "Convolution"
  bottom: "pool5"
  top: "fc6"
  param {
    lr_mult: 1
    decay_mult: 1
  }
  param {
    lr_mult: 2
    decay_mult: 0
  }
  convolution_param {
    num_output: 4096
    pad: 0
    kernel_size: 7
    stride: 1
  }
}
layer {
  name: "relu6"
  type: "ReLU"
  bottom: "fc6"
  top: "fc6"
}
layer {
  name: "drop6"
  type: "Dropout"
  bottom: "fc6"
  top: "fc6"
  dropout_param {
    dropout_ratio: 0.5
  }
}
layer {
  name: "fc7"
  type: "Convolution"
  bottom: "fc6"
  top: "fc7"
  param {
    lr_mult: 1
    decay_mult: 1
  }
  param {
    lr_mult: 2
    decay_mult: 0
  }
  convolution_param {
    num_output: 4096
    pad: 0
    kernel_size: 1
    stride: 1
  }
}
layer {
  name: "relu7"
  type: "ReLU"
  bottom: "fc7"
  top: "fc7"
}
layer {
  name: "drop7"
  type: "Dropout"
  bottom: "fc7"
  top: "fc7"
  dropout_param {
    dropout_ratio: 0.5
  }
}
layer {
  name: "score_fr"
  type: "Convolution"
  bottom: "fc7"
  top: "score_fr"
  param {
    lr_mult: 1
    decay_mult: 1
  }
  param {
    lr_mult: 2
    decay_mult: 0
  }
  convolution_param {
    num_output: 7
    pad: 0
    kernel_size: 1
  }
}
layer {
  name: "upscore"
  type: "Deconvolution"
  bottom: "score_fr"
  top: "upscore"
  param {
    lr_mult: 0
  }
  convolution_param {
    num_output: 7
    bias_term: false
    kernel_size: 64
    stride: 32
  }
}
layer {
  name: "score"
  type: "Crop"
  bottom: "upscore"
  bottom: "data"
  top: "score"
  crop_param {
    axis: 2
    offset: 19
  }
}
layer {
  name: "loss"
  type: "SoftmaxWithLoss"
  bottom: "score"
  bottom: "label"
  top: "loss"
  loss_param {
    ignore_label: 255
    normalize: false
  }
}
I0720 12:15:12.478438 26814 layer_factory.hpp:77] Creating layer data
I0720 12:15:12.478477 26814 net.cpp:91] Creating Layer data
I0720 12:15:12.478482 26814 net.cpp:399] data -> data
I0720 12:15:12.478487 26814 net.cpp:399] data -> label
I0720 12:15:12.986768 26814 net.cpp:141] Setting up data
I0720 12:15:12.986788 26814 net.cpp:148] Top shape: 1 3 375 500 (562500)
I0720 12:15:12.986791 26814 net.cpp:148] Top shape: 1 1 375 500 (187500)
I0720 12:15:12.986793 26814 net.cpp:156] Memory required for data: 3000000
I0720 12:15:12.986799 26814 layer_factory.hpp:77] Creating layer data_data_0_split
I0720 12:15:12.986806 26814 net.cpp:91] Creating Layer data_data_0_split
I0720 12:15:12.986809 26814 net.cpp:425] data_data_0_split <- data
I0720 12:15:12.986824 26814 net.cpp:399] data_data_0_split -> data_data_0_split_0
I0720 12:15:12.986830 26814 net.cpp:399] data_data_0_split -> data_data_0_split_1
I0720 12:15:12.986858 26814 net.cpp:141] Setting up data_data_0_split
I0720 12:15:12.986871 26814 net.cpp:148] Top shape: 1 3 375 500 (562500)
I0720 12:15:12.986874 26814 net.cpp:148] Top shape: 1 3 375 500 (562500)
I0720 12:15:12.986876 26814 net.cpp:156] Memory required for data: 7500000
I0720 12:15:12.986878 26814 layer_factory.hpp:77] Creating layer conv1_1
I0720 12:15:12.986896 26814 net.cpp:91] Creating Layer conv1_1
I0720 12:15:12.986897 26814 net.cpp:425] conv1_1 <- data_data_0_split_0
I0720 12:15:12.986901 26814 net.cpp:399] conv1_1 -> conv1_1
I0720 12:15:12.988435 26814 net.cpp:141] Setting up conv1_1
I0720 12:15:12.988446 26814 net.cpp:148] Top shape: 1 64 573 698 (25597056)
I0720 12:15:12.988448 26814 net.cpp:156] Memory required for data: 109888224
I0720 12:15:12.988456 26814 layer_factory.hpp:77] Creating layer relu1_1
I0720 12:15:12.988461 26814 net.cpp:91] Creating Layer relu1_1
I0720 12:15:12.988463 26814 net.cpp:425] relu1_1 <- conv1_1
I0720 12:15:12.988476 26814 net.cpp:386] relu1_1 -> conv1_1 (in-place)
I0720 12:15:12.988749 26814 net.cpp:141] Setting up relu1_1
I0720 12:15:12.988756 26814 net.cpp:148] Top shape: 1 64 573 698 (25597056)
I0720 12:15:12.988759 26814 net.cpp:156] Memory required for data: 212276448
I0720 12:15:12.988760 26814 layer_factory.hpp:77] Creating layer conv1_2
I0720 12:15:12.988766 26814 net.cpp:91] Creating Layer conv1_2
I0720 12:15:12.988770 26814 net.cpp:425] conv1_2 <- conv1_1
I0720 12:15:12.988772 26814 net.cpp:399] conv1_2 -> conv1_2
I0720 12:15:12.990340 26814 net.cpp:141] Setting up conv1_2
I0720 12:15:12.990350 26814 net.cpp:148] Top shape: 1 64 573 698 (25597056)
I0720 12:15:12.990352 26814 net.cpp:156] Memory required for data: 314664672
I0720 12:15:12.990360 26814 layer_factory.hpp:77] Creating layer relu1_2
I0720 12:15:12.990365 26814 net.cpp:91] Creating Layer relu1_2
I0720 12:15:12.990366 26814 net.cpp:425] relu1_2 <- conv1_2
I0720 12:15:12.990380 26814 net.cpp:386] relu1_2 -> conv1_2 (in-place)
I0720 12:15:12.990512 26814 net.cpp:141] Setting up relu1_2
I0720 12:15:12.990519 26814 net.cpp:148] Top shape: 1 64 573 698 (25597056)
I0720 12:15:12.990520 26814 net.cpp:156] Memory required for data: 417052896
I0720 12:15:12.990522 26814 layer_factory.hpp:77] Creating layer pool1
I0720 12:15:12.990526 26814 net.cpp:91] Creating Layer pool1
I0720 12:15:12.990528 26814 net.cpp:425] pool1 <- conv1_2
I0720 12:15:12.990531 26814 net.cpp:399] pool1 -> pool1
I0720 12:15:12.990574 26814 net.cpp:141] Setting up pool1
I0720 12:15:12.990578 26814 net.cpp:148] Top shape: 1 64 287 349 (6410432)
I0720 12:15:12.990588 26814 net.cpp:156] Memory required for data: 442694624
I0720 12:15:12.990591 26814 layer_factory.hpp:77] Creating layer conv2_1
I0720 12:15:12.990595 26814 net.cpp:91] Creating Layer conv2_1
I0720 12:15:12.990607 26814 net.cpp:425] conv2_1 <- pool1
I0720 12:15:12.990610 26814 net.cpp:399] conv2_1 -> conv2_1
I0720 12:15:12.991997 26814 net.cpp:141] Setting up conv2_1
I0720 12:15:12.992005 26814 net.cpp:148] Top shape: 1 128 287 349 (12820864)
I0720 12:15:12.992007 26814 net.cpp:156] Memory required for data: 493978080
I0720 12:15:12.992014 26814 layer_factory.hpp:77] Creating layer relu2_1
I0720 12:15:12.992019 26814 net.cpp:91] Creating Layer relu2_1
I0720 12:15:12.992022 26814 net.cpp:425] relu2_1 <- conv2_1
I0720 12:15:12.992024 26814 net.cpp:386] relu2_1 -> conv2_1 (in-place)
I0720 12:15:12.992311 26814 net.cpp:141] Setting up relu2_1
I0720 12:15:12.992317 26814 net.cpp:148] Top shape: 1 128 287 349 (12820864)
I0720 12:15:12.992319 26814 net.cpp:156] Memory required for data: 545261536
I0720 12:15:12.992321 26814 layer_factory.hpp:77] Creating layer conv2_2
I0720 12:15:12.992327 26814 net.cpp:91] Creating Layer conv2_2
I0720 12:15:12.992329 26814 net.cpp:425] conv2_2 <- conv2_1
I0720 12:15:12.992333 26814 net.cpp:399] conv2_2 -> conv2_2
I0720 12:15:12.993557 26814 net.cpp:141] Setting up conv2_2
I0720 12:15:12.993566 26814 net.cpp:148] Top shape: 1 128 287 349 (12820864)
I0720 12:15:12.993568 26814 net.cpp:156] Memory required for data: 596544992
I0720 12:15:12.993573 26814 layer_factory.hpp:77] Creating layer relu2_2
I0720 12:15:12.993577 26814 net.cpp:91] Creating Layer relu2_2
I0720 12:15:12.993579 26814 net.cpp:425] relu2_2 <- conv2_2
I0720 12:15:12.993582 26814 net.cpp:386] relu2_2 -> conv2_2 (in-place)
I0720 12:15:12.993890 26814 net.cpp:141] Setting up relu2_2
I0720 12:15:12.993896 26814 net.cpp:148] Top shape: 1 128 287 349 (12820864)
I0720 12:15:12.993898 26814 net.cpp:156] Memory required for data: 647828448
I0720 12:15:12.993901 26814 layer_factory.hpp:77] Creating layer pool2
I0720 12:15:12.993906 26814 net.cpp:91] Creating Layer pool2
I0720 12:15:12.993907 26814 net.cpp:425] pool2 <- conv2_2
I0720 12:15:12.993911 26814 net.cpp:399] pool2 -> pool2
I0720 12:15:12.993953 26814 net.cpp:141] Setting up pool2
I0720 12:15:12.993958 26814 net.cpp:148] Top shape: 1 128 144 175 (3225600)
I0720 12:15:12.993960 26814 net.cpp:156] Memory required for data: 660730848
I0720 12:15:12.993963 26814 layer_factory.hpp:77] Creating layer conv3_1
I0720 12:15:12.993966 26814 net.cpp:91] Creating Layer conv3_1
I0720 12:15:12.993969 26814 net.cpp:425] conv3_1 <- pool2
I0720 12:15:12.993973 26814 net.cpp:399] conv3_1 -> conv3_1
I0720 12:15:12.995270 26814 net.cpp:141] Setting up conv3_1
I0720 12:15:12.995278 26814 net.cpp:148] Top shape: 1 256 144 175 (6451200)
I0720 12:15:12.995281 26814 net.cpp:156] Memory required for data: 686535648
I0720 12:15:12.995287 26814 layer_factory.hpp:77] Creating layer relu3_1
I0720 12:15:12.995291 26814 net.cpp:91] Creating Layer relu3_1
I0720 12:15:12.995293 26814 net.cpp:425] relu3_1 <- conv3_1
I0720 12:15:12.995296 26814 net.cpp:386] relu3_1 -> conv3_1 (in-place)
I0720 12:15:12.995409 26814 net.cpp:141] Setting up relu3_1
I0720 12:15:12.995415 26814 net.cpp:148] Top shape: 1 256 144 175 (6451200)
I0720 12:15:12.995417 26814 net.cpp:156] Memory required for data: 712340448
I0720 12:15:12.995419 26814 layer_factory.hpp:77] Creating layer conv3_2
I0720 12:15:12.995424 26814 net.cpp:91] Creating Layer conv3_2
I0720 12:15:12.995426 26814 net.cpp:425] conv3_2 <- conv3_1
I0720 12:15:12.995429 26814 net.cpp:399] conv3_2 -> conv3_2
I0720 12:15:12.997205 26814 net.cpp:141] Setting up conv3_2
I0720 12:15:12.997215 26814 net.cpp:148] Top shape: 1 256 144 175 (6451200)
I0720 12:15:12.997227 26814 net.cpp:156] Memory required for data: 738145248
I0720 12:15:12.997232 26814 layer_factory.hpp:77] Creating layer relu3_2
I0720 12:15:12.997238 26814 net.cpp:91] Creating Layer relu3_2
I0720 12:15:12.997241 26814 net.cpp:425] relu3_2 <- conv3_2
I0720 12:15:12.997243 26814 net.cpp:386] relu3_2 -> conv3_2 (in-place)
I0720 12:15:12.997517 26814 net.cpp:141] Setting up relu3_2
I0720 12:15:12.997524 26814 net.cpp:148] Top shape: 1 256 144 175 (6451200)
I0720 12:15:12.997535 26814 net.cpp:156] Memory required for data: 763950048
I0720 12:15:12.997539 26814 layer_factory.hpp:77] Creating layer conv3_3
I0720 12:15:12.997546 26814 net.cpp:91] Creating Layer conv3_3
I0720 12:15:12.997548 26814 net.cpp:425] conv3_3 <- conv3_2
I0720 12:15:12.997552 26814 net.cpp:399] conv3_3 -> conv3_3
I0720 12:15:12.999431 26814 net.cpp:141] Setting up conv3_3
I0720 12:15:12.999449 26814 net.cpp:148] Top shape: 1 256 144 175 (6451200)
I0720 12:15:12.999451 26814 net.cpp:156] Memory required for data: 789754848
I0720 12:15:12.999469 26814 layer_factory.hpp:77] Creating layer relu3_3
I0720 12:15:12.999476 26814 net.cpp:91] Creating Layer relu3_3
I0720 12:15:12.999480 26814 net.cpp:425] relu3_3 <- conv3_3
I0720 12:15:12.999493 26814 net.cpp:386] relu3_3 -> conv3_3 (in-place)
I0720 12:15:12.999963 26814 net.cpp:141] Setting up relu3_3
I0720 12:15:12.999970 26814 net.cpp:148] Top shape: 1 256 144 175 (6451200)
I0720 12:15:12.999972 26814 net.cpp:156] Memory required for data: 815559648
I0720 12:15:12.999974 26814 layer_factory.hpp:77] Creating layer pool3
I0720 12:15:12.999989 26814 net.cpp:91] Creating Layer pool3
I0720 12:15:12.999991 26814 net.cpp:425] pool3 <- conv3_3
I0720 12:15:12.999995 26814 net.cpp:399] pool3 -> pool3
I0720 12:15:13.000031 26814 net.cpp:141] Setting up pool3
I0720 12:15:13.000036 26814 net.cpp:148] Top shape: 1 256 72 88 (1622016)
I0720 12:15:13.000038 26814 net.cpp:156] Memory required for data: 822047712
I0720 12:15:13.000041 26814 layer_factory.hpp:77] Creating layer conv4_1
I0720 12:15:13.000046 26814 net.cpp:91] Creating Layer conv4_1
I0720 12:15:13.000048 26814 net.cpp:425] conv4_1 <- pool3
I0720 12:15:13.000051 26814 net.cpp:399] conv4_1 -> conv4_1
I0720 12:15:13.002930 26814 net.cpp:141] Setting up conv4_1
I0720 12:15:13.002954 26814 net.cpp:148] Top shape: 1 512 72 88 (3244032)
I0720 12:15:13.002955 26814 net.cpp:156] Memory required for data: 835023840
I0720 12:15:13.002964 26814 layer_factory.hpp:77] Creating layer relu4_1
I0720 12:15:13.002971 26814 net.cpp:91] Creating Layer relu4_1
I0720 12:15:13.002985 26814 net.cpp:425] relu4_1 <- conv4_1
I0720 12:15:13.002990 26814 net.cpp:386] relu4_1 -> conv4_1 (in-place)
I0720 12:15:13.003118 26814 net.cpp:141] Setting up relu4_1
I0720 12:15:13.003123 26814 net.cpp:148] Top shape: 1 512 72 88 (3244032)
I0720 12:15:13.003125 26814 net.cpp:156] Memory required for data: 847999968
I0720 12:15:13.003128 26814 layer_factory.hpp:77] Creating layer conv4_2
I0720 12:15:13.003134 26814 net.cpp:91] Creating Layer conv4_2
I0720 12:15:13.003136 26814 net.cpp:425] conv4_2 <- conv4_1
I0720 12:15:13.003139 26814 net.cpp:399] conv4_2 -> conv4_2
I0720 12:15:13.007665 26814 net.cpp:141] Setting up conv4_2
I0720 12:15:13.007691 26814 net.cpp:148] Top shape: 1 512 72 88 (3244032)
I0720 12:15:13.007694 26814 net.cpp:156] Memory required for data: 860976096
I0720 12:15:13.007706 26814 layer_factory.hpp:77] Creating layer relu4_2
I0720 12:15:13.007714 26814 net.cpp:91] Creating Layer relu4_2
I0720 12:15:13.007717 26814 net.cpp:425] relu4_2 <- conv4_2
I0720 12:15:13.007731 26814 net.cpp:386] relu4_2 -> conv4_2 (in-place)
I0720 12:15:13.008013 26814 net.cpp:141] Setting up relu4_2
I0720 12:15:13.008021 26814 net.cpp:148] Top shape: 1 512 72 88 (3244032)
I0720 12:15:13.008023 26814 net.cpp:156] Memory required for data: 873952224
I0720 12:15:13.008025 26814 layer_factory.hpp:77] Creating layer conv4_3
I0720 12:15:13.008033 26814 net.cpp:91] Creating Layer conv4_3
I0720 12:15:13.008034 26814 net.cpp:425] conv4_3 <- conv4_2
I0720 12:15:13.008038 26814 net.cpp:399] conv4_3 -> conv4_3
I0720 12:15:13.012578 26814 net.cpp:141] Setting up conv4_3
I0720 12:15:13.012603 26814 net.cpp:148] Top shape: 1 512 72 88 (3244032)
I0720 12:15:13.012604 26814 net.cpp:156] Memory required for data: 886928352
I0720 12:15:13.012612 26814 layer_factory.hpp:77] Creating layer relu4_3
I0720 12:15:13.012620 26814 net.cpp:91] Creating Layer relu4_3
I0720 12:15:13.012624 26814 net.cpp:425] relu4_3 <- conv4_3
I0720 12:15:13.012629 26814 net.cpp:386] relu4_3 -> conv4_3 (in-place)
I0720 12:15:13.012903 26814 net.cpp:141] Setting up relu4_3
I0720 12:15:13.012912 26814 net.cpp:148] Top shape: 1 512 72 88 (3244032)
I0720 12:15:13.012913 26814 net.cpp:156] Memory required for data: 899904480
I0720 12:15:13.012915 26814 layer_factory.hpp:77] Creating layer pool4
I0720 12:15:13.012922 26814 net.cpp:91] Creating Layer pool4
I0720 12:15:13.012923 26814 net.cpp:425] pool4 <- conv4_3
I0720 12:15:13.012928 26814 net.cpp:399] pool4 -> pool4
I0720 12:15:13.012962 26814 net.cpp:141] Setting up pool4
I0720 12:15:13.012966 26814 net.cpp:148] Top shape: 1 512 36 44 (811008)
I0720 12:15:13.012969 26814 net.cpp:156] Memory required for data: 903148512
I0720 12:15:13.012970 26814 layer_factory.hpp:77] Creating layer conv5_1
I0720 12:15:13.012976 26814 net.cpp:91] Creating Layer conv5_1
I0720 12:15:13.012979 26814 net.cpp:425] conv5_1 <- pool4
I0720 12:15:13.012982 26814 net.cpp:399] conv5_1 -> conv5_1
I0720 12:15:13.018235 26814 net.cpp:141] Setting up conv5_1
I0720 12:15:13.018267 26814 net.cpp:148] Top shape: 1 512 36 44 (811008)
I0720 12:15:13.018270 26814 net.cpp:156] Memory required for data: 906392544
I0720 12:15:13.018277 26814 layer_factory.hpp:77] Creating layer relu5_1
I0720 12:15:13.018285 26814 net.cpp:91] Creating Layer relu5_1
I0720 12:15:13.018297 26814 net.cpp:425] relu5_1 <- conv5_1
I0720 12:15:13.018303 26814 net.cpp:386] relu5_1 -> conv5_1 (in-place)
I0720 12:15:13.018448 26814 net.cpp:141] Setting up relu5_1
I0720 12:15:13.018455 26814 net.cpp:148] Top shape: 1 512 36 44 (811008)
I0720 12:15:13.018466 26814 net.cpp:156] Memory required for data: 909636576
I0720 12:15:13.018468 26814 layer_factory.hpp:77] Creating layer conv5_2
I0720 12:15:13.018476 26814 net.cpp:91] Creating Layer conv5_2
I0720 12:15:13.018478 26814 net.cpp:425] conv5_2 <- conv5_1
I0720 12:15:13.018492 26814 net.cpp:399] conv5_2 -> conv5_2
I0720 12:15:13.023311 26814 net.cpp:141] Setting up conv5_2
I0720 12:15:13.023346 26814 net.cpp:148] Top shape: 1 512 36 44 (811008)
I0720 12:15:13.023349 26814 net.cpp:156] Memory required for data: 912880608
I0720 12:15:13.023355 26814 layer_factory.hpp:77] Creating layer relu5_2
I0720 12:15:13.023365 26814 net.cpp:91] Creating Layer relu5_2
I0720 12:15:13.023368 26814 net.cpp:425] relu5_2 <- conv5_2
I0720 12:15:13.023382 26814 net.cpp:386] relu5_2 -> conv5_2 (in-place)
I0720 12:15:13.023681 26814 net.cpp:141] Setting up relu5_2
I0720 12:15:13.023699 26814 net.cpp:148] Top shape: 1 512 36 44 (811008)
I0720 12:15:13.023702 26814 net.cpp:156] Memory required for data: 916124640
I0720 12:15:13.023705 26814 layer_factory.hpp:77] Creating layer conv5_3
I0720 12:15:13.023710 26814 net.cpp:91] Creating Layer conv5_3
I0720 12:15:13.023713 26814 net.cpp:425] conv5_3 <- conv5_2
I0720 12:15:13.023727 26814 net.cpp:399] conv5_3 -> conv5_3
I0720 12:15:13.028208 26814 net.cpp:141] Setting up conv5_3
I0720 12:15:13.028246 26814 net.cpp:148] Top shape: 1 512 36 44 (811008)
I0720 12:15:13.028249 26814 net.cpp:156] Memory required for data: 919368672
I0720 12:15:13.028256 26814 layer_factory.hpp:77] Creating layer relu5_3
I0720 12:15:13.028264 26814 net.cpp:91] Creating Layer relu5_3
I0720 12:15:13.028267 26814 net.cpp:425] relu5_3 <- conv5_3
I0720 12:15:13.028281 26814 net.cpp:386] relu5_3 -> conv5_3 (in-place)
I0720 12:15:13.028578 26814 net.cpp:141] Setting up relu5_3
I0720 12:15:13.028585 26814 net.cpp:148] Top shape: 1 512 36 44 (811008)
I0720 12:15:13.028597 26814 net.cpp:156] Memory required for data: 922612704
I0720 12:15:13.028599 26814 layer_factory.hpp:77] Creating layer pool5
I0720 12:15:13.028609 26814 net.cpp:91] Creating Layer pool5
I0720 12:15:13.028621 26814 net.cpp:425] pool5 <- conv5_3
I0720 12:15:13.028625 26814 net.cpp:399] pool5 -> pool5
I0720 12:15:13.028671 26814 net.cpp:141] Setting up pool5
I0720 12:15:13.028683 26814 net.cpp:148] Top shape: 1 512 18 22 (202752)
I0720 12:15:13.028686 26814 net.cpp:156] Memory required for data: 923423712
I0720 12:15:13.028687 26814 layer_factory.hpp:77] Creating layer fc6
I0720 12:15:13.028704 26814 net.cpp:91] Creating Layer fc6
I0720 12:15:13.028707 26814 net.cpp:425] fc6 <- pool5
I0720 12:15:13.028710 26814 net.cpp:399] fc6 -> fc6
I0720 12:15:13.177997 26814 net.cpp:141] Setting up fc6
I0720 12:15:13.178023 26814 net.cpp:148] Top shape: 1 4096 12 16 (786432)
I0720 12:15:13.178026 26814 net.cpp:156] Memory required for data: 926569440
I0720 12:15:13.178035 26814 layer_factory.hpp:77] Creating layer relu6
I0720 12:15:13.178045 26814 net.cpp:91] Creating Layer relu6
I0720 12:15:13.178048 26814 net.cpp:425] relu6 <- fc6
I0720 12:15:13.178053 26814 net.cpp:386] relu6 -> fc6 (in-place)
I0720 12:15:13.178374 26814 net.cpp:141] Setting up relu6
I0720 12:15:13.178383 26814 net.cpp:148] Top shape: 1 4096 12 16 (786432)
I0720 12:15:13.178385 26814 net.cpp:156] Memory required for data: 929715168
I0720 12:15:13.178388 26814 layer_factory.hpp:77] Creating layer drop6
I0720 12:15:13.178393 26814 net.cpp:91] Creating Layer drop6
I0720 12:15:13.178396 26814 net.cpp:425] drop6 <- fc6
I0720 12:15:13.178402 26814 net.cpp:386] drop6 -> fc6 (in-place)
I0720 12:15:13.178450 26814 net.cpp:141] Setting up drop6
I0720 12:15:13.178454 26814 net.cpp:148] Top shape: 1 4096 12 16 (786432)
I0720 12:15:13.178457 26814 net.cpp:156] Memory required for data: 932860896
I0720 12:15:13.178468 26814 layer_factory.hpp:77] Creating layer fc7
I0720 12:15:13.178478 26814 net.cpp:91] Creating Layer fc7
I0720 12:15:13.178481 26814 net.cpp:425] fc7 <- fc6
I0720 12:15:13.178484 26814 net.cpp:399] fc7 -> fc7
I0720 12:15:13.204870 26814 net.cpp:141] Setting up fc7
I0720 12:15:13.204905 26814 net.cpp:148] Top shape: 1 4096 12 16 (786432)
I0720 12:15:13.204908 26814 net.cpp:156] Memory required for data: 936006624
I0720 12:15:13.204919 26814 layer_factory.hpp:77] Creating layer relu7
I0720 12:15:13.204938 26814 net.cpp:91] Creating Layer relu7
I0720 12:15:13.204944 26814 net.cpp:425] relu7 <- fc7
I0720 12:15:13.204951 26814 net.cpp:386] relu7 -> fc7 (in-place)
I0720 12:15:13.205343 26814 net.cpp:141] Setting up relu7
I0720 12:15:13.205363 26814 net.cpp:148] Top shape: 1 4096 12 16 (786432)
I0720 12:15:13.205368 26814 net.cpp:156] Memory required for data: 939152352
I0720 12:15:13.205370 26814 layer_factory.hpp:77] Creating layer drop7
I0720 12:15:13.205376 26814 net.cpp:91] Creating Layer drop7
I0720 12:15:13.205379 26814 net.cpp:425] drop7 <- fc7
I0720 12:15:13.205384 26814 net.cpp:386] drop7 -> fc7 (in-place)
I0720 12:15:13.205426 26814 net.cpp:141] Setting up drop7
I0720 12:15:13.205430 26814 net.cpp:148] Top shape: 1 4096 12 16 (786432)
I0720 12:15:13.205432 26814 net.cpp:156] Memory required for data: 942298080
I0720 12:15:13.205435 26814 layer_factory.hpp:77] Creating layer score_fr
I0720 12:15:13.205452 26814 net.cpp:91] Creating Layer score_fr
I0720 12:15:13.205454 26814 net.cpp:425] score_fr <- fc7
I0720 12:15:13.205457 26814 net.cpp:399] score_fr -> score_fr
I0720 12:15:13.206668 26814 net.cpp:141] Setting up score_fr
I0720 12:15:13.206677 26814 net.cpp:148] Top shape: 1 7 12 16 (1344)
I0720 12:15:13.206679 26814 net.cpp:156] Memory required for data: 942303456
I0720 12:15:13.206684 26814 layer_factory.hpp:77] Creating layer upscore
I0720 12:15:13.206691 26814 net.cpp:91] Creating Layer upscore
I0720 12:15:13.206694 26814 net.cpp:425] upscore <- score_fr
I0720 12:15:13.206698 26814 net.cpp:399] upscore -> upscore
I0720 12:15:13.207340 26814 net.cpp:141] Setting up upscore
I0720 12:15:13.207348 26814 net.cpp:148] Top shape: 1 7 416 544 (1584128)
I0720 12:15:13.207350 26814 net.cpp:156] Memory required for data: 948639968
I0720 12:15:13.207360 26814 layer_factory.hpp:77] Creating layer score
I0720 12:15:13.207365 26814 net.cpp:91] Creating Layer score
I0720 12:15:13.207367 26814 net.cpp:425] score <- upscore
I0720 12:15:13.207379 26814 net.cpp:425] score <- data_data_0_split_1
I0720 12:15:13.207382 26814 net.cpp:399] score -> score
I0720 12:15:13.207403 26814 net.cpp:141] Setting up score
I0720 12:15:13.207407 26814 net.cpp:148] Top shape: 1 7 375 500 (1312500)
I0720 12:15:13.207409 26814 net.cpp:156] Memory required for data: 953889968
I0720 12:15:13.207412 26814 layer_factory.hpp:77] Creating layer loss
I0720 12:15:13.207417 26814 net.cpp:91] Creating Layer loss
I0720 12:15:13.207419 26814 net.cpp:425] loss <- score
I0720 12:15:13.207422 26814 net.cpp:425] loss <- label
I0720 12:15:13.207424 26814 net.cpp:399] loss -> loss
I0720 12:15:13.207429 26814 layer_factory.hpp:77] Creating layer loss
…
