…
I0718 15:17:43.133397 22982 solver.cpp:81] Creating training net from train_net file: train.prototxt
I0718 15:17:43.134052 22982 net.cpp:49] Initializing net from parameters: 
state {
  phase: TRAIN
}
layer {
  name: "data"
  type: "Python"
  top: "data"
  top: "label"
  python_param {
    module: "pascalpart_layers"
    layer: "PASCALPartSegDataLayer"
    param_str: "{\'part\': \'head\', \'obj_cls\': \'person\', \'split\': \'train\', \'part_dir\': \'/home/cv/hdl/caffe/data/pascal/pascal-part\', \'seed\': 1337, \'voc_dir\': \'/home/cv/hdl/caffe/data/pascal/VOC\'}"
  }
}
layer {
  name: "conv1_1"
  type: "Convolution"
  bottom: "data"
  top: "conv1_1"
  param {
    lr_mult: 1
    decay_mult: 1
  }
  param {
    lr_mult: 2
    decay_mult: 0
  }
  convolution_param {
    num_output: 64
    pad: 100
    kernel_size: 3
    stride: 1
  }
}
layer {
  name: "relu1_1"
  type: "ReLU"
  bottom: "conv1_1"
  top: "conv1_1"
}
layer {
  name: "conv1_2"
  type: "Convolution"
  bottom: "conv1_1"
  top: "conv1_2"
  param {
    lr_mult: 1
    decay_mult: 1
  }
  param {
    lr_mult: 2
    decay_mult: 0
  }
  convolution_param {
    num_output: 64
    pad: 1
    kernel_size: 3
    stride: 1
  }
}
layer {
  name: "relu1_2"
  type: "ReLU"
  bottom: "conv1_2"
  top: "conv1_2"
}
layer {
  name: "pool1"
  type: "Pooling"
  bottom: "conv1_2"
  top: "pool1"
  pooling_param {
    pool: MAX
    kernel_size: 2
    stride: 2
  }
}
layer {
  name: "conv2_1"
  type: "Convolution"
  bottom: "pool1"
  top: "conv2_1"
  param {
    lr_mult: 1
    decay_mult: 1
  }
  param {
    lr_mult: 2
    decay_mult: 0
  }
  convolution_param {
    num_output: 128
    pad: 1
    kernel_size: 3
    stride: 1
  }
}
layer {
  name: "relu2_1"
  type: "ReLU"
  bottom: "conv2_1"
  top: "conv2_1"
}
layer {
  name: "conv2_2"
  type: "Convolution"
  bottom: "conv2_1"
  top: "conv2_2"
  param {
    lr_mult: 1
    decay_mult: 1
  }
  param {
    lr_mult: 2
    decay_mult: 0
  }
  convolution_param {
    num_output: 128
    pad: 1
    kernel_size: 3
    stride: 1
  }
}
layer {
  name: "relu2_2"
  type: "ReLU"
  bottom: "conv2_2"
  top: "conv2_2"
}
layer {
  name: "pool2"
  type: "Pooling"
  bottom: "conv2_2"
  top: "pool2"
  pooling_param {
    pool: MAX
    kernel_size: 2
    stride: 2
  }
}
layer {
  name: "conv3_1"
  type: "Convolution"
  bottom: "pool2"
  top: "conv3_1"
  param {
    lr_mult: 1
    decay_mult: 1
  }
  param {
    lr_mult: 2
    decay_mult: 0
  }
  convolution_param {
    num_output: 256
    pad: 1
    kernel_size: 3
    stride: 1
  }
}
layer {
  name: "relu3_1"
  type: "ReLU"
  bottom: "conv3_1"
  top: "conv3_1"
}
layer {
  name: "conv3_2"
  type: "Convolution"
  bottom: "conv3_1"
  top: "conv3_2"
  param {
    lr_mult: 1
    decay_mult: 1
  }
  param {
    lr_mult: 2
    decay_mult: 0
  }
  convolution_param {
    num_output: 256
    pad: 1
    kernel_size: 3
    stride: 1
  }
}
layer {
  name: "relu3_2"
  type: "ReLU"
  bottom: "conv3_2"
  top: "conv3_2"
}
layer {
  name: "conv3_3"
  type: "Convolution"
  bottom: "conv3_2"
  top: "conv3_3"
  param {
    lr_mult: 1
    decay_mult: 1
  }
  param {
    lr_mult: 2
    decay_mult: 0
  }
  convolution_param {
    num_output: 256
    pad: 1
    kernel_size: 3
    stride: 1
  }
}
layer {
  name: "relu3_3"
  type: "ReLU"
  bottom: "conv3_3"
  top: "conv3_3"
}
layer {
  name: "pool3"
  type: "Pooling"
  bottom: "conv3_3"
  top: "pool3"
  pooling_param {
    pool: MAX
    kernel_size: 2
    stride: 2
  }
}
layer {
  name: "conv4_1"
  type: "Convolution"
  bottom: "pool3"
  top: "conv4_1"
  param {
    lr_mult: 1
    decay_mult: 1
  }
  param {
    lr_mult: 2
    decay_mult: 0
  }
  convolution_param {
    num_output: 512
    pad: 1
    kernel_size: 3
    stride: 1
  }
}
layer {
  name: "relu4_1"
  type: "ReLU"
  bottom: "conv4_1"
  top: "conv4_1"
}
layer {
  name: "conv4_2"
  type: "Convolution"
  bottom: "conv4_1"
  top: "conv4_2"
  param {
    lr_mult: 1
    decay_mult: 1
  }
  param {
    lr_mult: 2
    decay_mult: 0
  }
  convolution_param {
    num_output: 512
    pad: 1
    kernel_size: 3
    stride: 1
  }
}
layer {
  name: "relu4_2"
  type: "ReLU"
  bottom: "conv4_2"
  top: "conv4_2"
}
layer {
  name: "conv4_3"
  type: "Convolution"
  bottom: "conv4_2"
  top: "conv4_3"
  param {
    lr_mult: 1
    decay_mult: 1
  }
  param {
    lr_mult: 2
    decay_mult: 0
  }
  convolution_param {
    num_output: 512
    pad: 1
    kernel_size: 3
    stride: 1
  }
}
layer {
  name: "relu4_3"
  type: "ReLU"
  bottom: "conv4_3"
  top: "conv4_3"
}
layer {
  name: "pool4"
  type: "Pooling"
  bottom: "conv4_3"
  top: "pool4"
  pooling_param {
    pool: MAX
    kernel_size: 2
    stride: 2
  }
}
layer {
  name: "conv5_1"
  type: "Convolution"
  bottom: "pool4"
  top: "conv5_1"
  param {
    lr_mult: 1
    decay_mult: 1
  }
  param {
    lr_mult: 2
    decay_mult: 0
  }
  convolution_param {
    num_output: 512
    pad: 1
    kernel_size: 3
    stride: 1
  }
}
layer {
  name: "relu5_1"
  type: "ReLU"
  bottom: "conv5_1"
  top: "conv5_1"
}
layer {
  name: "conv5_2"
  type: "Convolution"
  bottom: "conv5_1"
  top: "conv5_2"
  param {
    lr_mult: 1
    decay_mult: 1
  }
  param {
    lr_mult: 2
    decay_mult: 0
  }
  convolution_param {
    num_output: 512
    pad: 1
    kernel_size: 3
    stride: 1
  }
}
layer {
  name: "relu5_2"
  type: "ReLU"
  bottom: "conv5_2"
  top: "conv5_2"
}
layer {
  name: "conv5_3"
  type: "Convolution"
  bottom: "conv5_2"
  top: "conv5_3"
  param {
    lr_mult: 1
    decay_mult: 1
  }
  param {
    lr_mult: 2
    decay_mult: 0
  }
  convolution_param {
    num_output: 512
    pad: 1
    kernel_size: 3
    stride: 1
  }
}
layer {
  name: "relu5_3"
  type: "ReLU"
  bottom: "conv5_3"
  top: "conv5_3"
}
layer {
  name: "pool5"
  type: "Pooling"
  bottom: "conv5_3"
  top: "pool5"
  pooling_param {
    pool: MAX
    kernel_size: 2
    stride: 2
  }
}
layer {
  name: "fc6"
  type: "Convolution"
  bottom: "pool5"
  top: "fc6"
  param {
    lr_mult: 1
    decay_mult: 1
  }
  param {
    lr_mult: 2
    decay_mult: 0
  }
  convolution_param {
    num_output: 4096
    pad: 0
    kernel_size: 7
    stride: 1
  }
}
layer {
  name: "relu6"
  type: "ReLU"
  bottom: "fc6"
  top: "fc6"
}
layer {
  name: "drop6"
  type: "Dropout"
  bottom: "fc6"
  top: "fc6"
  dropout_param {
    dropout_ratio: 0.5
  }
}
layer {
  name: "fc7"
  type: "Convolution"
  bottom: "fc6"
  top: "fc7"
  param {
    lr_mult: 1
    decay_mult: 1
  }
  param {
    lr_mult: 2
    decay_mult: 0
  }
  convolution_param {
    num_output: 4096
    pad: 0
    kernel_size: 1
    stride: 1
  }
}
layer {
  name: "relu7"
  type: "ReLU"
  bottom: "fc7"
  top: "fc7"
}
layer {
  name: "drop7"
  type: "Dropout"
  bottom: "fc7"
  top: "fc7"
  dropout_param {
    dropout_ratio: 0.5
  }
}
layer {
  name: "score_fr"
  type: "Convolution"
  bottom: "fc7"
  top: "score_fr"
  param {
    lr_mult: 1
    decay_mult: 1
  }
  param {
    lr_mult: 2
    decay_mult: 0
  }
  convolution_param {
    num_output: 7
    pad: 0
    kernel_size: 1
  }
}
layer {
  name: "upscore"
  type: "Deconvolution"
  bottom: "score_fr"
  top: "upscore"
  param {
    lr_mult: 0
  }
  convolution_param {
    num_output: 7
    bias_term: false
    kernel_size: 64
    stride: 32
  }
}
layer {
  name: "score"
  type: "Crop"
  bottom: "upscore"
  bottom: "data"
  top: "score"
  crop_param {
    axis: 2
    offset: 19
  }
}
layer {
  name: "loss"
  type: "SoftmaxWithLoss"
  bottom: "score"
  bottom: "label"
  top: "loss"
  loss_param {
    ignore_label: 255
    normalize: false
  }
}
I0718 15:17:43.134156 22982 layer_factory.hpp:77] Creating layer data
I0718 15:17:43.138298 22982 net.cpp:91] Creating Layer data
I0718 15:17:43.138310 22982 net.cpp:399] data -> data
I0718 15:17:43.138316 22982 net.cpp:399] data -> label
I0718 15:17:43.632793 22982 net.cpp:141] Setting up data
I0718 15:17:43.632817 22982 net.cpp:148] Top shape: 1 3 377 500 (565500)
I0718 15:17:43.632822 22982 net.cpp:148] Top shape: 1 1 377 500 (188500)
I0718 15:17:43.632822 22982 net.cpp:156] Memory required for data: 3016000
I0718 15:17:43.632827 22982 layer_factory.hpp:77] Creating layer data_data_0_split
I0718 15:17:43.632839 22982 net.cpp:91] Creating Layer data_data_0_split
I0718 15:17:43.632841 22982 net.cpp:425] data_data_0_split <- data
I0718 15:17:43.632858 22982 net.cpp:399] data_data_0_split -> data_data_0_split_0
I0718 15:17:43.632865 22982 net.cpp:399] data_data_0_split -> data_data_0_split_1
I0718 15:17:43.632892 22982 net.cpp:141] Setting up data_data_0_split
I0718 15:17:43.632896 22982 net.cpp:148] Top shape: 1 3 377 500 (565500)
I0718 15:17:43.632899 22982 net.cpp:148] Top shape: 1 3 377 500 (565500)
I0718 15:17:43.632901 22982 net.cpp:156] Memory required for data: 7540000
I0718 15:17:43.632904 22982 layer_factory.hpp:77] Creating layer conv1_1
I0718 15:17:43.632912 22982 net.cpp:91] Creating Layer conv1_1
I0718 15:17:43.632915 22982 net.cpp:425] conv1_1 <- data_data_0_split_0
I0718 15:17:43.632918 22982 net.cpp:399] conv1_1 -> conv1_1
I0718 15:17:44.043145 22982 net.cpp:141] Setting up conv1_1
I0718 15:17:44.043169 22982 net.cpp:148] Top shape: 1 64 575 698 (25686400)
I0718 15:17:44.043172 22982 net.cpp:156] Memory required for data: 110285600
I0718 15:17:44.043185 22982 layer_factory.hpp:77] Creating layer relu1_1
I0718 15:17:44.043203 22982 net.cpp:91] Creating Layer relu1_1
I0718 15:17:44.043206 22982 net.cpp:425] relu1_1 <- conv1_1
I0718 15:17:44.043210 22982 net.cpp:386] relu1_1 -> conv1_1 (in-place)
I0718 15:17:44.043481 22982 net.cpp:141] Setting up relu1_1
I0718 15:17:44.043489 22982 net.cpp:148] Top shape: 1 64 575 698 (25686400)
I0718 15:17:44.043491 22982 net.cpp:156] Memory required for data: 213031200
I0718 15:17:44.043494 22982 layer_factory.hpp:77] Creating layer conv1_2
I0718 15:17:44.043503 22982 net.cpp:91] Creating Layer conv1_2
I0718 15:17:44.043504 22982 net.cpp:425] conv1_2 <- conv1_1
I0718 15:17:44.043509 22982 net.cpp:399] conv1_2 -> conv1_2
I0718 15:17:44.045280 22982 net.cpp:141] Setting up conv1_2
I0718 15:17:44.045290 22982 net.cpp:148] Top shape: 1 64 575 698 (25686400)
I0718 15:17:44.045294 22982 net.cpp:156] Memory required for data: 315776800
I0718 15:17:44.045300 22982 layer_factory.hpp:77] Creating layer relu1_2
I0718 15:17:44.045305 22982 net.cpp:91] Creating Layer relu1_2
I0718 15:17:44.045307 22982 net.cpp:425] relu1_2 <- conv1_2
I0718 15:17:44.045320 22982 net.cpp:386] relu1_2 -> conv1_2 (in-place)
I0718 15:17:44.045580 22982 net.cpp:141] Setting up relu1_2
I0718 15:17:44.045588 22982 net.cpp:148] Top shape: 1 64 575 698 (25686400)
I0718 15:17:44.045590 22982 net.cpp:156] Memory required for data: 418522400
I0718 15:17:44.045593 22982 layer_factory.hpp:77] Creating layer pool1
I0718 15:17:44.045598 22982 net.cpp:91] Creating Layer pool1
I0718 15:17:44.045599 22982 net.cpp:425] pool1 <- conv1_2
I0718 15:17:44.045613 22982 net.cpp:399] pool1 -> pool1
I0718 15:17:44.045646 22982 net.cpp:141] Setting up pool1
I0718 15:17:44.045650 22982 net.cpp:148] Top shape: 1 64 288 349 (6432768)
I0718 15:17:44.045652 22982 net.cpp:156] Memory required for data: 444253472
I0718 15:17:44.045662 22982 layer_factory.hpp:77] Creating layer conv2_1
I0718 15:17:44.045668 22982 net.cpp:91] Creating Layer conv2_1
I0718 15:17:44.045670 22982 net.cpp:425] conv2_1 <- pool1
I0718 15:17:44.045683 22982 net.cpp:399] conv2_1 -> conv2_1
I0718 15:17:44.047008 22982 net.cpp:141] Setting up conv2_1
I0718 15:17:44.047016 22982 net.cpp:148] Top shape: 1 128 288 349 (12865536)
I0718 15:17:44.047019 22982 net.cpp:156] Memory required for data: 495715616
I0718 15:17:44.047025 22982 layer_factory.hpp:77] Creating layer relu2_1
I0718 15:17:44.047030 22982 net.cpp:91] Creating Layer relu2_1
I0718 15:17:44.047032 22982 net.cpp:425] relu2_1 <- conv2_1
I0718 15:17:44.047045 22982 net.cpp:386] relu2_1 -> conv2_1 (in-place)
I0718 15:17:44.047166 22982 net.cpp:141] Setting up relu2_1
I0718 15:17:44.047173 22982 net.cpp:148] Top shape: 1 128 288 349 (12865536)
I0718 15:17:44.047174 22982 net.cpp:156] Memory required for data: 547177760
I0718 15:17:44.047176 22982 layer_factory.hpp:77] Creating layer conv2_2
I0718 15:17:44.047181 22982 net.cpp:91] Creating Layer conv2_2
I0718 15:17:44.047183 22982 net.cpp:425] conv2_2 <- conv2_1
I0718 15:17:44.047188 22982 net.cpp:399] conv2_2 -> conv2_2
I0718 15:17:44.048550 22982 net.cpp:141] Setting up conv2_2
I0718 15:17:44.048560 22982 net.cpp:148] Top shape: 1 128 288 349 (12865536)
I0718 15:17:44.048563 22982 net.cpp:156] Memory required for data: 598639904
I0718 15:17:44.048568 22982 layer_factory.hpp:77] Creating layer relu2_2
I0718 15:17:44.048571 22982 net.cpp:91] Creating Layer relu2_2
I0718 15:17:44.048574 22982 net.cpp:425] relu2_2 <- conv2_2
I0718 15:17:44.048578 22982 net.cpp:386] relu2_2 -> conv2_2 (in-place)
I0718 15:17:44.048848 22982 net.cpp:141] Setting up relu2_2
I0718 15:17:44.048856 22982 net.cpp:148] Top shape: 1 128 288 349 (12865536)
I0718 15:17:44.048857 22982 net.cpp:156] Memory required for data: 650102048
I0718 15:17:44.048861 22982 layer_factory.hpp:77] Creating layer pool2
I0718 15:17:44.048864 22982 net.cpp:91] Creating Layer pool2
I0718 15:17:44.048866 22982 net.cpp:425] pool2 <- conv2_2
I0718 15:17:44.048871 22982 net.cpp:399] pool2 -> pool2
I0718 15:17:44.048907 22982 net.cpp:141] Setting up pool2
I0718 15:17:44.048912 22982 net.cpp:148] Top shape: 1 128 144 175 (3225600)
I0718 15:17:44.048913 22982 net.cpp:156] Memory required for data: 663004448
I0718 15:17:44.048915 22982 layer_factory.hpp:77] Creating layer conv3_1
I0718 15:17:44.048920 22982 net.cpp:91] Creating Layer conv3_1
I0718 15:17:44.048923 22982 net.cpp:425] conv3_1 <- pool2
I0718 15:17:44.048925 22982 net.cpp:399] conv3_1 -> conv3_1
I0718 15:17:44.050199 22982 net.cpp:141] Setting up conv3_1
I0718 15:17:44.050209 22982 net.cpp:148] Top shape: 1 256 144 175 (6451200)
I0718 15:17:44.050212 22982 net.cpp:156] Memory required for data: 688809248
I0718 15:17:44.050218 22982 layer_factory.hpp:77] Creating layer relu3_1
I0718 15:17:44.050223 22982 net.cpp:91] Creating Layer relu3_1
I0718 15:17:44.050225 22982 net.cpp:425] relu3_1 <- conv3_1
I0718 15:17:44.050230 22982 net.cpp:386] relu3_1 -> conv3_1 (in-place)
I0718 15:17:44.050484 22982 net.cpp:141] Setting up relu3_1
I0718 15:17:44.050493 22982 net.cpp:148] Top shape: 1 256 144 175 (6451200)
I0718 15:17:44.050494 22982 net.cpp:156] Memory required for data: 714614048
I0718 15:17:44.050496 22982 layer_factory.hpp:77] Creating layer conv3_2
I0718 15:17:44.050503 22982 net.cpp:91] Creating Layer conv3_2
I0718 15:17:44.050504 22982 net.cpp:425] conv3_2 <- conv3_1
I0718 15:17:44.050508 22982 net.cpp:399] conv3_2 -> conv3_2
I0718 15:17:44.052317 22982 net.cpp:141] Setting up conv3_2
I0718 15:17:44.052331 22982 net.cpp:148] Top shape: 1 256 144 175 (6451200)
I0718 15:17:44.052333 22982 net.cpp:156] Memory required for data: 740418848
I0718 15:17:44.052340 22982 layer_factory.hpp:77] Creating layer relu3_2
I0718 15:17:44.052345 22982 net.cpp:91] Creating Layer relu3_2
I0718 15:17:44.052346 22982 net.cpp:425] relu3_2 <- conv3_2
I0718 15:17:44.052350 22982 net.cpp:386] relu3_2 -> conv3_2 (in-place)
I0718 15:17:44.052465 22982 net.cpp:141] Setting up relu3_2
I0718 15:17:44.052470 22982 net.cpp:148] Top shape: 1 256 144 175 (6451200)
I0718 15:17:44.052472 22982 net.cpp:156] Memory required for data: 766223648
I0718 15:17:44.052474 22982 layer_factory.hpp:77] Creating layer conv3_3
I0718 15:17:44.052482 22982 net.cpp:91] Creating Layer conv3_3
I0718 15:17:44.052484 22982 net.cpp:425] conv3_3 <- conv3_2
I0718 15:17:44.052489 22982 net.cpp:399] conv3_3 -> conv3_3
I0718 15:17:44.054323 22982 net.cpp:141] Setting up conv3_3
I0718 15:17:44.054345 22982 net.cpp:148] Top shape: 1 256 144 175 (6451200)
I0718 15:17:44.054347 22982 net.cpp:156] Memory required for data: 792028448
I0718 15:17:44.054353 22982 layer_factory.hpp:77] Creating layer relu3_3
I0718 15:17:44.054359 22982 net.cpp:91] Creating Layer relu3_3
I0718 15:17:44.054363 22982 net.cpp:425] relu3_3 <- conv3_3
I0718 15:17:44.054365 22982 net.cpp:386] relu3_3 -> conv3_3 (in-place)
I0718 15:17:44.054638 22982 net.cpp:141] Setting up relu3_3
I0718 15:17:44.054646 22982 net.cpp:148] Top shape: 1 256 144 175 (6451200)
I0718 15:17:44.054657 22982 net.cpp:156] Memory required for data: 817833248
I0718 15:17:44.054661 22982 layer_factory.hpp:77] Creating layer pool3
I0718 15:17:44.054666 22982 net.cpp:91] Creating Layer pool3
I0718 15:17:44.054668 22982 net.cpp:425] pool3 <- conv3_3
I0718 15:17:44.054673 22982 net.cpp:399] pool3 -> pool3
I0718 15:17:44.054723 22982 net.cpp:141] Setting up pool3
I0718 15:17:44.054736 22982 net.cpp:148] Top shape: 1 256 72 88 (1622016)
I0718 15:17:44.054738 22982 net.cpp:156] Memory required for data: 824321312
I0718 15:17:44.054739 22982 layer_factory.hpp:77] Creating layer conv4_1
I0718 15:17:44.054756 22982 net.cpp:91] Creating Layer conv4_1
I0718 15:17:44.054759 22982 net.cpp:425] conv4_1 <- pool3
I0718 15:17:44.054761 22982 net.cpp:399] conv4_1 -> conv4_1
I0718 15:17:44.058682 22982 net.cpp:141] Setting up conv4_1
I0718 15:17:44.058712 22982 net.cpp:148] Top shape: 1 512 72 88 (3244032)
I0718 15:17:44.058715 22982 net.cpp:156] Memory required for data: 837297440
I0718 15:17:44.058723 22982 layer_factory.hpp:77] Creating layer relu4_1
I0718 15:17:44.058732 22982 net.cpp:91] Creating Layer relu4_1
I0718 15:17:44.058734 22982 net.cpp:425] relu4_1 <- conv4_1
I0718 15:17:44.058738 22982 net.cpp:386] relu4_1 -> conv4_1 (in-place)
I0718 15:17:44.059152 22982 net.cpp:141] Setting up relu4_1
I0718 15:17:44.059160 22982 net.cpp:148] Top shape: 1 512 72 88 (3244032)
I0718 15:17:44.059172 22982 net.cpp:156] Memory required for data: 850273568
I0718 15:17:44.059175 22982 layer_factory.hpp:77] Creating layer conv4_2
I0718 15:17:44.059183 22982 net.cpp:91] Creating Layer conv4_2
I0718 15:17:44.059185 22982 net.cpp:425] conv4_2 <- conv4_1
I0718 15:17:44.059190 22982 net.cpp:399] conv4_2 -> conv4_2
I0718 15:17:44.063797 22982 net.cpp:141] Setting up conv4_2
I0718 15:17:44.063823 22982 net.cpp:148] Top shape: 1 512 72 88 (3244032)
I0718 15:17:44.063825 22982 net.cpp:156] Memory required for data: 863249696
I0718 15:17:44.063838 22982 layer_factory.hpp:77] Creating layer relu4_2
I0718 15:17:44.063845 22982 net.cpp:91] Creating Layer relu4_2
I0718 15:17:44.063849 22982 net.cpp:425] relu4_2 <- conv4_2
I0718 15:17:44.063864 22982 net.cpp:386] relu4_2 -> conv4_2 (in-place)
I0718 15:17:44.063997 22982 net.cpp:141] Setting up relu4_2
I0718 15:17:44.064002 22982 net.cpp:148] Top shape: 1 512 72 88 (3244032)
I0718 15:17:44.064004 22982 net.cpp:156] Memory required for data: 876225824
I0718 15:17:44.064007 22982 layer_factory.hpp:77] Creating layer conv4_3
I0718 15:17:44.064013 22982 net.cpp:91] Creating Layer conv4_3
I0718 15:17:44.064015 22982 net.cpp:425] conv4_3 <- conv4_2
I0718 15:17:44.064019 22982 net.cpp:399] conv4_3 -> conv4_3
I0718 15:17:44.068636 22982 net.cpp:141] Setting up conv4_3
I0718 15:17:44.068661 22982 net.cpp:148] Top shape: 1 512 72 88 (3244032)
I0718 15:17:44.068665 22982 net.cpp:156] Memory required for data: 889201952
I0718 15:17:44.068671 22982 layer_factory.hpp:77] Creating layer relu4_3
I0718 15:17:44.068681 22982 net.cpp:91] Creating Layer relu4_3
I0718 15:17:44.068684 22982 net.cpp:425] relu4_3 <- conv4_3
I0718 15:17:44.068689 22982 net.cpp:386] relu4_3 -> conv4_3 (in-place)
I0718 15:17:44.068975 22982 net.cpp:141] Setting up relu4_3
I0718 15:17:44.068982 22982 net.cpp:148] Top shape: 1 512 72 88 (3244032)
I0718 15:17:44.068984 22982 net.cpp:156] Memory required for data: 902178080
I0718 15:17:44.068986 22982 layer_factory.hpp:77] Creating layer pool4
I0718 15:17:44.068991 22982 net.cpp:91] Creating Layer pool4
I0718 15:17:44.068994 22982 net.cpp:425] pool4 <- conv4_3
I0718 15:17:44.068997 22982 net.cpp:399] pool4 -> pool4
I0718 15:17:44.069038 22982 net.cpp:141] Setting up pool4
I0718 15:17:44.069042 22982 net.cpp:148] Top shape: 1 512 36 44 (811008)
I0718 15:17:44.069044 22982 net.cpp:156] Memory required for data: 905422112
I0718 15:17:44.069046 22982 layer_factory.hpp:77] Creating layer conv5_1
I0718 15:17:44.069062 22982 net.cpp:91] Creating Layer conv5_1
I0718 15:17:44.069064 22982 net.cpp:425] conv5_1 <- pool4
I0718 15:17:44.069067 22982 net.cpp:399] conv5_1 -> conv5_1
I0718 15:17:44.074079 22982 net.cpp:141] Setting up conv5_1
I0718 15:17:44.074126 22982 net.cpp:148] Top shape: 1 512 36 44 (811008)
I0718 15:17:44.074128 22982 net.cpp:156] Memory required for data: 908666144
I0718 15:17:44.074146 22982 layer_factory.hpp:77] Creating layer relu5_1
I0718 15:17:44.074153 22982 net.cpp:91] Creating Layer relu5_1
I0718 15:17:44.074157 22982 net.cpp:425] relu5_1 <- conv5_1
I0718 15:17:44.074172 22982 net.cpp:386] relu5_1 -> conv5_1 (in-place)
I0718 15:17:44.074468 22982 net.cpp:141] Setting up relu5_1
I0718 15:17:44.074476 22982 net.cpp:148] Top shape: 1 512 36 44 (811008)
I0718 15:17:44.074487 22982 net.cpp:156] Memory required for data: 911910176
I0718 15:17:44.074489 22982 layer_factory.hpp:77] Creating layer conv5_2
I0718 15:17:44.074497 22982 net.cpp:91] Creating Layer conv5_2
I0718 15:17:44.074509 22982 net.cpp:425] conv5_2 <- conv5_1
I0718 15:17:44.074514 22982 net.cpp:399] conv5_2 -> conv5_2
I0718 15:17:44.079217 22982 net.cpp:141] Setting up conv5_2
I0718 15:17:44.079241 22982 net.cpp:148] Top shape: 1 512 36 44 (811008)
I0718 15:17:44.079242 22982 net.cpp:156] Memory required for data: 915154208
I0718 15:17:44.079251 22982 layer_factory.hpp:77] Creating layer relu5_2
I0718 15:17:44.079258 22982 net.cpp:91] Creating Layer relu5_2
I0718 15:17:44.079262 22982 net.cpp:425] relu5_2 <- conv5_2
I0718 15:17:44.079277 22982 net.cpp:386] relu5_2 -> conv5_2 (in-place)
I0718 15:17:44.079408 22982 net.cpp:141] Setting up relu5_2
I0718 15:17:44.079413 22982 net.cpp:148] Top shape: 1 512 36 44 (811008)
I0718 15:17:44.079416 22982 net.cpp:156] Memory required for data: 918398240
I0718 15:17:44.079417 22982 layer_factory.hpp:77] Creating layer conv5_3
I0718 15:17:44.079426 22982 net.cpp:91] Creating Layer conv5_3
I0718 15:17:44.079427 22982 net.cpp:425] conv5_3 <- conv5_2
I0718 15:17:44.079432 22982 net.cpp:399] conv5_3 -> conv5_3
I0718 15:17:44.084235 22982 net.cpp:141] Setting up conv5_3
I0718 15:17:44.084261 22982 net.cpp:148] Top shape: 1 512 36 44 (811008)
I0718 15:17:44.084264 22982 net.cpp:156] Memory required for data: 921642272
I0718 15:17:44.084271 22982 layer_factory.hpp:77] Creating layer relu5_3
I0718 15:17:44.084280 22982 net.cpp:91] Creating Layer relu5_3
I0718 15:17:44.084283 22982 net.cpp:425] relu5_3 <- conv5_3
I0718 15:17:44.084287 22982 net.cpp:386] relu5_3 -> conv5_3 (in-place)
I0718 15:17:44.084574 22982 net.cpp:141] Setting up relu5_3
I0718 15:17:44.084583 22982 net.cpp:148] Top shape: 1 512 36 44 (811008)
I0718 15:17:44.084584 22982 net.cpp:156] Memory required for data: 924886304
I0718 15:17:44.084586 22982 layer_factory.hpp:77] Creating layer pool5
I0718 15:17:44.084594 22982 net.cpp:91] Creating Layer pool5
I0718 15:17:44.084596 22982 net.cpp:425] pool5 <- conv5_3
I0718 15:17:44.084600 22982 net.cpp:399] pool5 -> pool5
I0718 15:17:44.084652 22982 net.cpp:141] Setting up pool5
I0718 15:17:44.084656 22982 net.cpp:148] Top shape: 1 512 18 22 (202752)
I0718 15:17:44.084658 22982 net.cpp:156] Memory required for data: 925697312
I0718 15:17:44.084661 22982 layer_factory.hpp:77] Creating layer fc6
I0718 15:17:44.084677 22982 net.cpp:91] Creating Layer fc6
I0718 15:17:44.084679 22982 net.cpp:425] fc6 <- pool5
I0718 15:17:44.084691 22982 net.cpp:399] fc6 -> fc6
I0718 15:17:44.233495 22982 net.cpp:141] Setting up fc6
I0718 15:17:44.233521 22982 net.cpp:148] Top shape: 1 4096 12 16 (786432)
I0718 15:17:44.233525 22982 net.cpp:156] Memory required for data: 928843040
I0718 15:17:44.233535 22982 layer_factory.hpp:77] Creating layer relu6
I0718 15:17:44.233542 22982 net.cpp:91] Creating Layer relu6
I0718 15:17:44.233547 22982 net.cpp:425] relu6 <- fc6
I0718 15:17:44.233552 22982 net.cpp:386] relu6 -> fc6 (in-place)
I0718 15:17:44.233887 22982 net.cpp:141] Setting up relu6
I0718 15:17:44.233897 22982 net.cpp:148] Top shape: 1 4096 12 16 (786432)
I0718 15:17:44.233901 22982 net.cpp:156] Memory required for data: 931988768
I0718 15:17:44.233903 22982 layer_factory.hpp:77] Creating layer drop6
I0718 15:17:44.233909 22982 net.cpp:91] Creating Layer drop6
I0718 15:17:44.233911 22982 net.cpp:425] drop6 <- fc6
I0718 15:17:44.233916 22982 net.cpp:386] drop6 -> fc6 (in-place)
I0718 15:17:44.233952 22982 net.cpp:141] Setting up drop6
I0718 15:17:44.233957 22982 net.cpp:148] Top shape: 1 4096 12 16 (786432)
I0718 15:17:44.233958 22982 net.cpp:156] Memory required for data: 935134496
I0718 15:17:44.233960 22982 layer_factory.hpp:77] Creating layer fc7
I0718 15:17:44.233966 22982 net.cpp:91] Creating Layer fc7
I0718 15:17:44.233968 22982 net.cpp:425] fc7 <- fc6
I0718 15:17:44.233973 22982 net.cpp:399] fc7 -> fc7
I0718 15:17:44.260071 22982 net.cpp:141] Setting up fc7
I0718 15:17:44.260095 22982 net.cpp:148] Top shape: 1 4096 12 16 (786432)
I0718 15:17:44.260116 22982 net.cpp:156] Memory required for data: 938280224
I0718 15:17:44.260128 22982 layer_factory.hpp:77] Creating layer relu7
I0718 15:17:44.260136 22982 net.cpp:91] Creating Layer relu7
I0718 15:17:44.260140 22982 net.cpp:425] relu7 <- fc7
I0718 15:17:44.260150 22982 net.cpp:386] relu7 -> fc7 (in-place)
I0718 15:17:44.260454 22982 net.cpp:141] Setting up relu7
I0718 15:17:44.260475 22982 net.cpp:148] Top shape: 1 4096 12 16 (786432)
I0718 15:17:44.260478 22982 net.cpp:156] Memory required for data: 941425952
I0718 15:17:44.260481 22982 layer_factory.hpp:77] Creating layer drop7
I0718 15:17:44.260499 22982 net.cpp:91] Creating Layer drop7
I0718 15:17:44.260501 22982 net.cpp:425] drop7 <- fc7
I0718 15:17:44.260505 22982 net.cpp:386] drop7 -> fc7 (in-place)
I0718 15:17:44.260542 22982 net.cpp:141] Setting up drop7
I0718 15:17:44.260547 22982 net.cpp:148] Top shape: 1 4096 12 16 (786432)
I0718 15:17:44.260558 22982 net.cpp:156] Memory required for data: 944571680
I0718 15:17:44.260560 22982 layer_factory.hpp:77] Creating layer score_fr
I0718 15:17:44.260576 22982 net.cpp:91] Creating Layer score_fr
I0718 15:17:44.260579 22982 net.cpp:425] score_fr <- fc7
I0718 15:17:44.260583 22982 net.cpp:399] score_fr -> score_fr
I0718 15:17:44.261837 22982 net.cpp:141] Setting up score_fr
I0718 15:17:44.261847 22982 net.cpp:148] Top shape: 1 7 12 16 (1344)
I0718 15:17:44.261848 22982 net.cpp:156] Memory required for data: 944577056
I0718 15:17:44.261853 22982 layer_factory.hpp:77] Creating layer upscore
I0718 15:17:44.261863 22982 net.cpp:91] Creating Layer upscore
I0718 15:17:44.261865 22982 net.cpp:425] upscore <- score_fr
I0718 15:17:44.261880 22982 net.cpp:399] upscore -> upscore
I0718 15:17:44.262511 22982 net.cpp:141] Setting up upscore
I0718 15:17:44.262521 22982 net.cpp:148] Top shape: 1 7 416 544 (1584128)
I0718 15:17:44.262522 22982 net.cpp:156] Memory required for data: 950913568
I0718 15:17:44.262531 22982 layer_factory.hpp:77] Creating layer score
I0718 15:17:44.262547 22982 net.cpp:91] Creating Layer score
I0718 15:17:44.262549 22982 net.cpp:425] score <- upscore
I0718 15:17:44.262552 22982 net.cpp:425] score <- data_data_0_split_1
I0718 15:17:44.262555 22982 net.cpp:399] score -> score
I0718 15:17:44.262588 22982 net.cpp:141] Setting up score
I0718 15:17:44.262593 22982 net.cpp:148] Top shape: 1 7 377 500 (1319500)
I0718 15:17:44.262594 22982 net.cpp:156] Memory required for data: 956191568
I0718 15:17:44.262595 22982 layer_factory.hpp:77] Creating layer loss
I0718 15:17:44.262609 22982 net.cpp:91] Creating Layer loss
I0718 15:17:44.262611 22982 net.cpp:425] loss <- score
I0718 15:17:44.262614 22982 net.cpp:425] loss <- label
I0718 15:17:44.262626 22982 net.cpp:399] loss -> loss
I0718 15:17:44.262642 22982 layer_factory.hpp:77] Creating layer loss
…
I0718 15:17:44.266022 22982 solver.cpp:181] Creating test net (#0) specified by test_net file: val.prototxt
I0718 15:17:44.266239 22982 net.cpp:49] Initializing net from parameters: 
state {
  phase: TEST
}
layer {
  name: "data"
  type: "Python"
  top: "data"
  top: "label"
  python_param {
    module: "pascalpart_layers"
    layer: "PASCALPartSegDataLayer"
    param_str: "{\'part\': \'head\', \'obj_cls\': \'person\', \'split\': \'val\', \'part_dir\': \'/home/cv/hdl/caffe/data/pascal/pascal-part\', \'seed\': 1337, \'voc_dir\': \'/home/cv/hdl/caffe/data/pascal/VOC\'}"
  }
}
layer {
  name: "conv1_1"
  type: "Convolution"
  bottom: "data"
  top: "conv1_1"
  param {
    lr_mult: 1
    decay_mult: 1
  }
  param {
    lr_mult: 2
    decay_mult: 0
  }
  convolution_param {
    num_output: 64
    pad: 100
    kernel_size: 3
    stride: 1
  }
}
layer {
  name: "relu1_1"
  type: "ReLU"
  bottom: "conv1_1"
  top: "conv1_1"
}
layer {
  name: "conv1_2"
  type: "Convolution"
  bottom: "conv1_1"
  top: "conv1_2"
  param {
    lr_mult: 1
    decay_mult: 1
  }
  param {
    lr_mult: 2
    decay_mult: 0
  }
  convolution_param {
    num_output: 64
    pad: 1
    kernel_size: 3
    stride: 1
  }
}
layer {
  name: "relu1_2"
  type: "ReLU"
  bottom: "conv1_2"
  top: "conv1_2"
}
layer {
  name: "pool1"
  type: "Pooling"
  bottom: "conv1_2"
  top: "pool1"
  pooling_param {
    pool: MAX
    kernel_size: 2
    stride: 2
  }
}
layer {
  name: "conv2_1"
  type: "Convolution"
  bottom: "pool1"
  top: "conv2_1"
  param {
    lr_mult: 1
    decay_mult: 1
  }
  param {
    lr_mult: 2
    decay_mult: 0
  }
  convolution_param {
    num_output: 128
    pad: 1
    kernel_size: 3
    stride: 1
  }
}
layer {
  name: "relu2_1"
  type: "ReLU"
  bottom: "conv2_1"
  top: "conv2_1"
}
layer {
  name: "conv2_2"
  type: "Convolution"
  bottom: "conv2_1"
  top: "conv2_2"
  param {
    lr_mult: 1
    decay_mult: 1
  }
  param {
    lr_mult: 2
    decay_mult: 0
  }
  convolution_param {
    num_output: 128
    pad: 1
    kernel_size: 3
    stride: 1
  }
}
layer {
  name: "relu2_2"
  type: "ReLU"
  bottom: "conv2_2"
  top: "conv2_2"
}
layer {
  name: "pool2"
  type: "Pooling"
  bottom: "conv2_2"
  top: "pool2"
  pooling_param {
    pool: MAX
    kernel_size: 2
    stride: 2
  }
}
layer {
  name: "conv3_1"
  type: "Convolution"
  bottom: "pool2"
  top: "conv3_1"
  param {
    lr_mult: 1
    decay_mult: 1
  }
  param {
    lr_mult: 2
    decay_mult: 0
  }
  convolution_param {
    num_output: 256
    pad: 1
    kernel_size: 3
    stride: 1
  }
}
layer {
  name: "relu3_1"
  type: "ReLU"
  bottom: "conv3_1"
  top: "conv3_1"
}
layer {
  name: "conv3_2"
  type: "Convolution"
  bottom: "conv3_1"
  top: "conv3_2"
  param {
    lr_mult: 1
    decay_mult: 1
  }
  param {
    lr_mult: 2
    decay_mult: 0
  }
  convolution_param {
    num_output: 256
    pad: 1
    kernel_size: 3
    stride: 1
  }
}
layer {
  name: "relu3_2"
  type: "ReLU"
  bottom: "conv3_2"
  top: "conv3_2"
}
layer {
  name: "conv3_3"
  type: "Convolution"
  bottom: "conv3_2"
  top: "conv3_3"
  param {
    lr_mult: 1
    decay_mult: 1
  }
  param {
    lr_mult: 2
    decay_mult: 0
  }
  convolution_param {
    num_output: 256
    pad: 1
    kernel_size: 3
    stride: 1
  }
}
layer {
  name: "relu3_3"
  type: "ReLU"
  bottom: "conv3_3"
  top: "conv3_3"
}
layer {
  name: "pool3"
  type: "Pooling"
  bottom: "conv3_3"
  top: "pool3"
  pooling_param {
    pool: MAX
    kernel_size: 2
    stride: 2
  }
}
layer {
  name: "conv4_1"
  type: "Convolution"
  bottom: "pool3"
  top: "conv4_1"
  param {
    lr_mult: 1
    decay_mult: 1
  }
  param {
    lr_mult: 2
    decay_mult: 0
  }
  convolution_param {
    num_output: 512
    pad: 1
    kernel_size: 3
    stride: 1
  }
}
layer {
  name: "relu4_1"
  type: "ReLU"
  bottom: "conv4_1"
  top: "conv4_1"
}
layer {
  name: "conv4_2"
  type: "Convolution"
  bottom: "conv4_1"
  top: "conv4_2"
  param {
    lr_mult: 1
    decay_mult: 1
  }
  param {
    lr_mult: 2
    decay_mult: 0
  }
  convolution_param {
    num_output: 512
    pad: 1
    kernel_size: 3
    stride: 1
  }
}
layer {
  name: "relu4_2"
  type: "ReLU"
  bottom: "conv4_2"
  top: "conv4_2"
}
layer {
  name: "conv4_3"
  type: "Convolution"
  bottom: "conv4_2"
  top: "conv4_3"
  param {
    lr_mult: 1
    decay_mult: 1
  }
  param {
    lr_mult: 2
    decay_mult: 0
  }
  convolution_param {
    num_output: 512
    pad: 1
    kernel_size: 3
    stride: 1
  }
}
layer {
  name: "relu4_3"
  type: "ReLU"
  bottom: "conv4_3"
  top: "conv4_3"
}
layer {
  name: "pool4"
  type: "Pooling"
  bottom: "conv4_3"
  top: "pool4"
  pooling_param {
    pool: MAX
    kernel_size: 2
    stride: 2
  }
}
layer {
  name: "conv5_1"
  type: "Convolution"
  bottom: "pool4"
  top: "conv5_1"
  param {
    lr_mult: 1
    decay_mult: 1
  }
  param {
    lr_mult: 2
    decay_mult: 0
  }
  convolution_param {
    num_output: 512
    pad: 1
    kernel_size: 3
    stride: 1
  }
}
layer {
  name: "relu5_1"
  type: "ReLU"
  bottom: "conv5_1"
  top: "conv5_1"
}
layer {
  name: "conv5_2"
  type: "Convolution"
  bottom: "conv5_1"
  top: "conv5_2"
  param {
    lr_mult: 1
    decay_mult: 1
  }
  param {
    lr_mult: 2
    decay_mult: 0
  }
  convolution_param {
    num_output: 512
    pad: 1
    kernel_size: 3
    stride: 1
  }
}
layer {
  name: "relu5_2"
  type: "ReLU"
  bottom: "conv5_2"
  top: "conv5_2"
}
layer {
  name: "conv5_3"
  type: "Convolution"
  bottom: "conv5_2"
  top: "conv5_3"
  param {
    lr_mult: 1
    decay_mult: 1
  }
  param {
    lr_mult: 2
    decay_mult: 0
  }
  convolution_param {
    num_output: 512
    pad: 1
    kernel_size: 3
    stride: 1
  }
}
layer {
  name: "relu5_3"
  type: "ReLU"
  bottom: "conv5_3"
  top: "conv5_3"
}
layer {
  name: "pool5"
  type: "Pooling"
  bottom: "conv5_3"
  top: "pool5"
  pooling_param {
    pool: MAX
    kernel_size: 2
    stride: 2
  }
}
layer {
  name: "fc6"
  type: "Convolution"
  bottom: "pool5"
  top: "fc6"
  param {
    lr_mult: 1
    decay_mult: 1
  }
  param {
    lr_mult: 2
    decay_mult: 0
  }
  convolution_param {
    num_output: 4096
    pad: 0
    kernel_size: 7
    stride: 1
  }
}
layer {
  name: "relu6"
  type: "ReLU"
  bottom: "fc6"
  top: "fc6"
}
layer {
  name: "drop6"
  type: "Dropout"
  bottom: "fc6"
  top: "fc6"
  dropout_param {
    dropout_ratio: 0.5
  }
}
layer {
  name: "fc7"
  type: "Convolution"
  bottom: "fc6"
  top: "fc7"
  param {
    lr_mult: 1
    decay_mult: 1
  }
  param {
    lr_mult: 2
    decay_mult: 0
  }
  convolution_param {
    num_output: 4096
    pad: 0
    kernel_size: 1
    stride: 1
  }
}
layer {
  name: "relu7"
  type: "ReLU"
  bottom: "fc7"
  top: "fc7"
}
layer {
  name: "drop7"
  type: "Dropout"
  bottom: "fc7"
  top: "fc7"
  dropout_param {
    dropout_ratio: 0.5
  }
}
layer {
  name: "score_fr"
  type: "Convolution"
  bottom: "fc7"
  top: "score_fr"
  param {
    lr_mult: 1
    decay_mult: 1
  }
  param {
    lr_mult: 2
    decay_mult: 0
  }
  convolution_param {
    num_output: 7
    pad: 0
    kernel_size: 1
  }
}
layer {
  name: "upscore"
  type: "Deconvolution"
  bottom: "score_fr"
  top: "upscore"
  param {
    lr_mult: 0
  }
  convolution_param {
    num_output: 7
    bias_term: false
    kernel_size: 64
    stride: 32
  }
}
layer {
  name: "score"
  type: "Crop"
  bottom: "upscore"
  bottom: "data"
  top: "score"
  crop_param {
    axis: 2
    offset: 19
  }
}
layer {
  name: "loss"
  type: "SoftmaxWithLoss"
  bottom: "score"
  bottom: "label"
  top: "loss"
  loss_param {
    ignore_label: 255
    normalize: false
  }
}
I0718 15:17:44.266330 22982 layer_factory.hpp:77] Creating layer data
I0718 15:17:44.266368 22982 net.cpp:91] Creating Layer data
I0718 15:17:44.266372 22982 net.cpp:399] data -> data
I0718 15:17:44.266376 22982 net.cpp:399] data -> label
I0718 15:17:44.772016 22982 net.cpp:141] Setting up data
I0718 15:17:44.772037 22982 net.cpp:148] Top shape: 1 3 375 500 (562500)
I0718 15:17:44.772039 22982 net.cpp:148] Top shape: 1 1 375 500 (187500)
I0718 15:17:44.772042 22982 net.cpp:156] Memory required for data: 3000000
I0718 15:17:44.772047 22982 layer_factory.hpp:77] Creating layer data_data_0_split
I0718 15:17:44.772056 22982 net.cpp:91] Creating Layer data_data_0_split
I0718 15:17:44.772058 22982 net.cpp:425] data_data_0_split <- data
I0718 15:17:44.772073 22982 net.cpp:399] data_data_0_split -> data_data_0_split_0
I0718 15:17:44.772081 22982 net.cpp:399] data_data_0_split -> data_data_0_split_1
I0718 15:17:44.772109 22982 net.cpp:141] Setting up data_data_0_split
I0718 15:17:44.772122 22982 net.cpp:148] Top shape: 1 3 375 500 (562500)
I0718 15:17:44.772125 22982 net.cpp:148] Top shape: 1 3 375 500 (562500)
I0718 15:17:44.772126 22982 net.cpp:156] Memory required for data: 7500000
I0718 15:17:44.772128 22982 layer_factory.hpp:77] Creating layer conv1_1
I0718 15:17:44.772146 22982 net.cpp:91] Creating Layer conv1_1
I0718 15:17:44.772148 22982 net.cpp:425] conv1_1 <- data_data_0_split_0
I0718 15:17:44.772151 22982 net.cpp:399] conv1_1 -> conv1_1
I0718 15:17:44.773694 22982 net.cpp:141] Setting up conv1_1
I0718 15:17:44.773705 22982 net.cpp:148] Top shape: 1 64 573 698 (25597056)
I0718 15:17:44.773708 22982 net.cpp:156] Memory required for data: 109888224
I0718 15:17:44.773716 22982 layer_factory.hpp:77] Creating layer relu1_1
I0718 15:17:44.773721 22982 net.cpp:91] Creating Layer relu1_1
I0718 15:17:44.773723 22982 net.cpp:425] relu1_1 <- conv1_1
I0718 15:17:44.773736 22982 net.cpp:386] relu1_1 -> conv1_1 (in-place)
I0718 15:17:44.774044 22982 net.cpp:141] Setting up relu1_1
I0718 15:17:44.774052 22982 net.cpp:148] Top shape: 1 64 573 698 (25597056)
I0718 15:17:44.774055 22982 net.cpp:156] Memory required for data: 212276448
I0718 15:17:44.774056 22982 layer_factory.hpp:77] Creating layer conv1_2
I0718 15:17:44.774062 22982 net.cpp:91] Creating Layer conv1_2
I0718 15:17:44.774065 22982 net.cpp:425] conv1_2 <- conv1_1
I0718 15:17:44.774068 22982 net.cpp:399] conv1_2 -> conv1_2
I0718 15:17:44.775655 22982 net.cpp:141] Setting up conv1_2
I0718 15:17:44.775665 22982 net.cpp:148] Top shape: 1 64 573 698 (25597056)
I0718 15:17:44.775667 22982 net.cpp:156] Memory required for data: 314664672
I0718 15:17:44.775673 22982 layer_factory.hpp:77] Creating layer relu1_2
I0718 15:17:44.775678 22982 net.cpp:91] Creating Layer relu1_2
I0718 15:17:44.775681 22982 net.cpp:425] relu1_2 <- conv1_2
I0718 15:17:44.775683 22982 net.cpp:386] relu1_2 -> conv1_2 (in-place)
I0718 15:17:44.775826 22982 net.cpp:141] Setting up relu1_2
I0718 15:17:44.775832 22982 net.cpp:148] Top shape: 1 64 573 698 (25597056)
I0718 15:17:44.775835 22982 net.cpp:156] Memory required for data: 417052896
I0718 15:17:44.775836 22982 layer_factory.hpp:77] Creating layer pool1
I0718 15:17:44.775840 22982 net.cpp:91] Creating Layer pool1
I0718 15:17:44.775843 22982 net.cpp:425] pool1 <- conv1_2
I0718 15:17:44.775846 22982 net.cpp:399] pool1 -> pool1
I0718 15:17:44.775889 22982 net.cpp:141] Setting up pool1
I0718 15:17:44.775893 22982 net.cpp:148] Top shape: 1 64 287 349 (6410432)
I0718 15:17:44.775904 22982 net.cpp:156] Memory required for data: 442694624
I0718 15:17:44.775905 22982 layer_factory.hpp:77] Creating layer conv2_1
I0718 15:17:44.775910 22982 net.cpp:91] Creating Layer conv2_1
I0718 15:17:44.775923 22982 net.cpp:425] conv2_1 <- pool1
I0718 15:17:44.775925 22982 net.cpp:399] conv2_1 -> conv2_1
I0718 15:17:44.777324 22982 net.cpp:141] Setting up conv2_1
I0718 15:17:44.777333 22982 net.cpp:148] Top shape: 1 128 287 349 (12820864)
I0718 15:17:44.777335 22982 net.cpp:156] Memory required for data: 493978080
I0718 15:17:44.777343 22982 layer_factory.hpp:77] Creating layer relu2_1
I0718 15:17:44.777348 22982 net.cpp:91] Creating Layer relu2_1
I0718 15:17:44.777350 22982 net.cpp:425] relu2_1 <- conv2_1
I0718 15:17:44.777354 22982 net.cpp:386] relu2_1 -> conv2_1 (in-place)
I0718 15:17:44.777640 22982 net.cpp:141] Setting up relu2_1
I0718 15:17:44.777648 22982 net.cpp:148] Top shape: 1 128 287 349 (12820864)
I0718 15:17:44.777650 22982 net.cpp:156] Memory required for data: 545261536
I0718 15:17:44.777652 22982 layer_factory.hpp:77] Creating layer conv2_2
I0718 15:17:44.777658 22982 net.cpp:91] Creating Layer conv2_2
I0718 15:17:44.777660 22982 net.cpp:425] conv2_2 <- conv2_1
I0718 15:17:44.777664 22982 net.cpp:399] conv2_2 -> conv2_2
I0718 15:17:44.778911 22982 net.cpp:141] Setting up conv2_2
I0718 15:17:44.778920 22982 net.cpp:148] Top shape: 1 128 287 349 (12820864)
I0718 15:17:44.778923 22982 net.cpp:156] Memory required for data: 596544992
I0718 15:17:44.778928 22982 layer_factory.hpp:77] Creating layer relu2_2
I0718 15:17:44.778931 22982 net.cpp:91] Creating Layer relu2_2
I0718 15:17:44.778934 22982 net.cpp:425] relu2_2 <- conv2_2
I0718 15:17:44.778937 22982 net.cpp:386] relu2_2 -> conv2_2 (in-place)
I0718 15:17:44.779198 22982 net.cpp:141] Setting up relu2_2
I0718 15:17:44.779206 22982 net.cpp:148] Top shape: 1 128 287 349 (12820864)
I0718 15:17:44.779218 22982 net.cpp:156] Memory required for data: 647828448
I0718 15:17:44.779222 22982 layer_factory.hpp:77] Creating layer pool2
I0718 15:17:44.779227 22982 net.cpp:91] Creating Layer pool2
I0718 15:17:44.779228 22982 net.cpp:425] pool2 <- conv2_2
I0718 15:17:44.779232 22982 net.cpp:399] pool2 -> pool2
I0718 15:17:44.779273 22982 net.cpp:141] Setting up pool2
I0718 15:17:44.779278 22982 net.cpp:148] Top shape: 1 128 144 175 (3225600)
I0718 15:17:44.779279 22982 net.cpp:156] Memory required for data: 660730848
I0718 15:17:44.779280 22982 layer_factory.hpp:77] Creating layer conv3_1
I0718 15:17:44.779285 22982 net.cpp:91] Creating Layer conv3_1
I0718 15:17:44.779287 22982 net.cpp:425] conv3_1 <- pool2
I0718 15:17:44.779291 22982 net.cpp:399] conv3_1 -> conv3_1
I0718 15:17:44.780606 22982 net.cpp:141] Setting up conv3_1
I0718 15:17:44.780614 22982 net.cpp:148] Top shape: 1 256 144 175 (6451200)
I0718 15:17:44.780616 22982 net.cpp:156] Memory required for data: 686535648
I0718 15:17:44.780623 22982 layer_factory.hpp:77] Creating layer relu3_1
I0718 15:17:44.780627 22982 net.cpp:91] Creating Layer relu3_1
I0718 15:17:44.780629 22982 net.cpp:425] relu3_1 <- conv3_1
I0718 15:17:44.780632 22982 net.cpp:386] relu3_1 -> conv3_1 (in-place)
I0718 15:17:44.780747 22982 net.cpp:141] Setting up relu3_1
I0718 15:17:44.780753 22982 net.cpp:148] Top shape: 1 256 144 175 (6451200)
I0718 15:17:44.780755 22982 net.cpp:156] Memory required for data: 712340448
I0718 15:17:44.780757 22982 layer_factory.hpp:77] Creating layer conv3_2
I0718 15:17:44.780762 22982 net.cpp:91] Creating Layer conv3_2
I0718 15:17:44.780764 22982 net.cpp:425] conv3_2 <- conv3_1
I0718 15:17:44.780767 22982 net.cpp:399] conv3_2 -> conv3_2
I0718 15:17:44.782608 22982 net.cpp:141] Setting up conv3_2
I0718 15:17:44.782629 22982 net.cpp:148] Top shape: 1 256 144 175 (6451200)
I0718 15:17:44.782632 22982 net.cpp:156] Memory required for data: 738145248
I0718 15:17:44.782639 22982 layer_factory.hpp:77] Creating layer relu3_2
I0718 15:17:44.782644 22982 net.cpp:91] Creating Layer relu3_2
I0718 15:17:44.782645 22982 net.cpp:425] relu3_2 <- conv3_2
I0718 15:17:44.782649 22982 net.cpp:386] relu3_2 -> conv3_2 (in-place)
I0718 15:17:44.782946 22982 net.cpp:141] Setting up relu3_2
I0718 15:17:44.782954 22982 net.cpp:148] Top shape: 1 256 144 175 (6451200)
I0718 15:17:44.782965 22982 net.cpp:156] Memory required for data: 763950048
I0718 15:17:44.782968 22982 layer_factory.hpp:77] Creating layer conv3_3
I0718 15:17:44.782976 22982 net.cpp:91] Creating Layer conv3_3
I0718 15:17:44.782979 22982 net.cpp:425] conv3_3 <- conv3_2
I0718 15:17:44.782984 22982 net.cpp:399] conv3_3 -> conv3_3
I0718 15:17:44.784971 22982 net.cpp:141] Setting up conv3_3
I0718 15:17:44.784987 22982 net.cpp:148] Top shape: 1 256 144 175 (6451200)
I0718 15:17:44.784991 22982 net.cpp:156] Memory required for data: 789754848
I0718 15:17:44.784997 22982 layer_factory.hpp:77] Creating layer relu3_3
I0718 15:17:44.785003 22982 net.cpp:91] Creating Layer relu3_3
I0718 15:17:44.785015 22982 net.cpp:425] relu3_3 <- conv3_3
I0718 15:17:44.785019 22982 net.cpp:386] relu3_3 -> conv3_3 (in-place)
I0718 15:17:44.785434 22982 net.cpp:141] Setting up relu3_3
I0718 15:17:44.785441 22982 net.cpp:148] Top shape: 1 256 144 175 (6451200)
I0718 15:17:44.785444 22982 net.cpp:156] Memory required for data: 815559648
I0718 15:17:44.785445 22982 layer_factory.hpp:77] Creating layer pool3
I0718 15:17:44.785450 22982 net.cpp:91] Creating Layer pool3
I0718 15:17:44.785467 22982 net.cpp:425] pool3 <- conv3_3
I0718 15:17:44.785470 22982 net.cpp:399] pool3 -> pool3
I0718 15:17:44.785516 22982 net.cpp:141] Setting up pool3
I0718 15:17:44.785531 22982 net.cpp:148] Top shape: 1 256 72 88 (1622016)
I0718 15:17:44.785532 22982 net.cpp:156] Memory required for data: 822047712
I0718 15:17:44.785534 22982 layer_factory.hpp:77] Creating layer conv4_1
I0718 15:17:44.785550 22982 net.cpp:91] Creating Layer conv4_1
I0718 15:17:44.785552 22982 net.cpp:425] conv4_1 <- pool3
I0718 15:17:44.785555 22982 net.cpp:399] conv4_1 -> conv4_1
I0718 15:17:44.788527 22982 net.cpp:141] Setting up conv4_1
I0718 15:17:44.788558 22982 net.cpp:148] Top shape: 1 512 72 88 (3244032)
I0718 15:17:44.788561 22982 net.cpp:156] Memory required for data: 835023840
I0718 15:17:44.788568 22982 layer_factory.hpp:77] Creating layer relu4_1
I0718 15:17:44.788575 22982 net.cpp:91] Creating Layer relu4_1
I0718 15:17:44.788579 22982 net.cpp:425] relu4_1 <- conv4_1
I0718 15:17:44.788594 22982 net.cpp:386] relu4_1 -> conv4_1 (in-place)
I0718 15:17:44.788730 22982 net.cpp:141] Setting up relu4_1
I0718 15:17:44.788736 22982 net.cpp:148] Top shape: 1 512 72 88 (3244032)
I0718 15:17:44.788748 22982 net.cpp:156] Memory required for data: 847999968
I0718 15:17:44.788750 22982 layer_factory.hpp:77] Creating layer conv4_2
I0718 15:17:44.788758 22982 net.cpp:91] Creating Layer conv4_2
I0718 15:17:44.788759 22982 net.cpp:425] conv4_2 <- conv4_1
I0718 15:17:44.788772 22982 net.cpp:399] conv4_2 -> conv4_2
I0718 15:17:44.793346 22982 net.cpp:141] Setting up conv4_2
I0718 15:17:44.793387 22982 net.cpp:148] Top shape: 1 512 72 88 (3244032)
I0718 15:17:44.793390 22982 net.cpp:156] Memory required for data: 860976096
I0718 15:17:44.793401 22982 layer_factory.hpp:77] Creating layer relu4_2
I0718 15:17:44.793409 22982 net.cpp:91] Creating Layer relu4_2
I0718 15:17:44.793413 22982 net.cpp:425] relu4_2 <- conv4_2
I0718 15:17:44.793426 22982 net.cpp:386] relu4_2 -> conv4_2 (in-place)
I0718 15:17:44.793718 22982 net.cpp:141] Setting up relu4_2
I0718 15:17:44.793726 22982 net.cpp:148] Top shape: 1 512 72 88 (3244032)
I0718 15:17:44.793738 22982 net.cpp:156] Memory required for data: 873952224
I0718 15:17:44.793740 22982 layer_factory.hpp:77] Creating layer conv4_3
I0718 15:17:44.793763 22982 net.cpp:91] Creating Layer conv4_3
I0718 15:17:44.793766 22982 net.cpp:425] conv4_3 <- conv4_2
I0718 15:17:44.793771 22982 net.cpp:399] conv4_3 -> conv4_3
I0718 15:17:44.798200 22982 net.cpp:141] Setting up conv4_3
I0718 15:17:44.798233 22982 net.cpp:148] Top shape: 1 512 72 88 (3244032)
I0718 15:17:44.798235 22982 net.cpp:156] Memory required for data: 886928352
I0718 15:17:44.798243 22982 layer_factory.hpp:77] Creating layer relu4_3
I0718 15:17:44.798250 22982 net.cpp:91] Creating Layer relu4_3
I0718 15:17:44.798254 22982 net.cpp:425] relu4_3 <- conv4_3
I0718 15:17:44.798259 22982 net.cpp:386] relu4_3 -> conv4_3 (in-place)
I0718 15:17:44.798571 22982 net.cpp:141] Setting up relu4_3
I0718 15:17:44.798580 22982 net.cpp:148] Top shape: 1 512 72 88 (3244032)
I0718 15:17:44.798593 22982 net.cpp:156] Memory required for data: 899904480
I0718 15:17:44.798594 22982 layer_factory.hpp:77] Creating layer pool4
I0718 15:17:44.798609 22982 net.cpp:91] Creating Layer pool4
I0718 15:17:44.798610 22982 net.cpp:425] pool4 <- conv4_3
I0718 15:17:44.798614 22982 net.cpp:399] pool4 -> pool4
I0718 15:17:44.798660 22982 net.cpp:141] Setting up pool4
I0718 15:17:44.798665 22982 net.cpp:148] Top shape: 1 512 36 44 (811008)
I0718 15:17:44.798676 22982 net.cpp:156] Memory required for data: 903148512
I0718 15:17:44.798678 22982 layer_factory.hpp:77] Creating layer conv5_1
I0718 15:17:44.798696 22982 net.cpp:91] Creating Layer conv5_1
I0718 15:17:44.798697 22982 net.cpp:425] conv5_1 <- pool4
I0718 15:17:44.798702 22982 net.cpp:399] conv5_1 -> conv5_1
I0718 15:17:44.804000 22982 net.cpp:141] Setting up conv5_1
I0718 15:17:44.804020 22982 net.cpp:148] Top shape: 1 512 36 44 (811008)
I0718 15:17:44.804023 22982 net.cpp:156] Memory required for data: 906392544
I0718 15:17:44.804030 22982 layer_factory.hpp:77] Creating layer relu5_1
I0718 15:17:44.804039 22982 net.cpp:91] Creating Layer relu5_1
I0718 15:17:44.804042 22982 net.cpp:425] relu5_1 <- conv5_1
I0718 15:17:44.804056 22982 net.cpp:386] relu5_1 -> conv5_1 (in-place)
I0718 15:17:44.804194 22982 net.cpp:141] Setting up relu5_1
I0718 15:17:44.804200 22982 net.cpp:148] Top shape: 1 512 36 44 (811008)
I0718 15:17:44.804203 22982 net.cpp:156] Memory required for data: 909636576
I0718 15:17:44.804204 22982 layer_factory.hpp:77] Creating layer conv5_2
I0718 15:17:44.804210 22982 net.cpp:91] Creating Layer conv5_2
I0718 15:17:44.804213 22982 net.cpp:425] conv5_2 <- conv5_1
I0718 15:17:44.804216 22982 net.cpp:399] conv5_2 -> conv5_2
I0718 15:17:44.808941 22982 net.cpp:141] Setting up conv5_2
I0718 15:17:44.808964 22982 net.cpp:148] Top shape: 1 512 36 44 (811008)
I0718 15:17:44.808969 22982 net.cpp:156] Memory required for data: 912880608
I0718 15:17:44.808976 22982 layer_factory.hpp:77] Creating layer relu5_2
I0718 15:17:44.808986 22982 net.cpp:91] Creating Layer relu5_2
I0718 15:17:44.809000 22982 net.cpp:425] relu5_2 <- conv5_2
I0718 15:17:44.809005 22982 net.cpp:386] relu5_2 -> conv5_2 (in-place)
I0718 15:17:44.809325 22982 net.cpp:141] Setting up relu5_2
I0718 15:17:44.809335 22982 net.cpp:148] Top shape: 1 512 36 44 (811008)
I0718 15:17:44.809337 22982 net.cpp:156] Memory required for data: 916124640
I0718 15:17:44.809340 22982 layer_factory.hpp:77] Creating layer conv5_3
I0718 15:17:44.809348 22982 net.cpp:91] Creating Layer conv5_3
I0718 15:17:44.809351 22982 net.cpp:425] conv5_3 <- conv5_2
I0718 15:17:44.809355 22982 net.cpp:399] conv5_3 -> conv5_3
I0718 15:17:44.813817 22982 net.cpp:141] Setting up conv5_3
I0718 15:17:44.813838 22982 net.cpp:148] Top shape: 1 512 36 44 (811008)
I0718 15:17:44.813840 22982 net.cpp:156] Memory required for data: 919368672
I0718 15:17:44.813849 22982 layer_factory.hpp:77] Creating layer relu5_3
I0718 15:17:44.813858 22982 net.cpp:91] Creating Layer relu5_3
I0718 15:17:44.813860 22982 net.cpp:425] relu5_3 <- conv5_3
I0718 15:17:44.813876 22982 net.cpp:386] relu5_3 -> conv5_3 (in-place)
I0718 15:17:44.814204 22982 net.cpp:141] Setting up relu5_3
I0718 15:17:44.814214 22982 net.cpp:148] Top shape: 1 512 36 44 (811008)
I0718 15:17:44.814216 22982 net.cpp:156] Memory required for data: 922612704
I0718 15:17:44.814219 22982 layer_factory.hpp:77] Creating layer pool5
I0718 15:17:44.814229 22982 net.cpp:91] Creating Layer pool5
I0718 15:17:44.814231 22982 net.cpp:425] pool5 <- conv5_3
I0718 15:17:44.814236 22982 net.cpp:399] pool5 -> pool5
I0718 15:17:44.814296 22982 net.cpp:141] Setting up pool5
I0718 15:17:44.814302 22982 net.cpp:148] Top shape: 1 512 18 22 (202752)
I0718 15:17:44.814313 22982 net.cpp:156] Memory required for data: 923423712
I0718 15:17:44.814316 22982 layer_factory.hpp:77] Creating layer fc6
I0718 15:17:44.814330 22982 net.cpp:91] Creating Layer fc6
I0718 15:17:44.814332 22982 net.cpp:425] fc6 <- pool5
I0718 15:17:44.814337 22982 net.cpp:399] fc6 -> fc6
I0718 15:17:44.962152 22982 net.cpp:141] Setting up fc6
I0718 15:17:44.962178 22982 net.cpp:148] Top shape: 1 4096 12 16 (786432)
I0718 15:17:44.962180 22982 net.cpp:156] Memory required for data: 926569440
I0718 15:17:44.962188 22982 layer_factory.hpp:77] Creating layer relu6
I0718 15:17:44.962196 22982 net.cpp:91] Creating Layer relu6
I0718 15:17:44.962199 22982 net.cpp:425] relu6 <- fc6
I0718 15:17:44.962205 22982 net.cpp:386] relu6 -> fc6 (in-place)
I0718 15:17:44.962493 22982 net.cpp:141] Setting up relu6
I0718 15:17:44.962502 22982 net.cpp:148] Top shape: 1 4096 12 16 (786432)
I0718 15:17:44.962503 22982 net.cpp:156] Memory required for data: 929715168
I0718 15:17:44.962505 22982 layer_factory.hpp:77] Creating layer drop6
I0718 15:17:44.962512 22982 net.cpp:91] Creating Layer drop6
I0718 15:17:44.962513 22982 net.cpp:425] drop6 <- fc6
I0718 15:17:44.962517 22982 net.cpp:386] drop6 -> fc6 (in-place)
I0718 15:17:44.962554 22982 net.cpp:141] Setting up drop6
I0718 15:17:44.962559 22982 net.cpp:148] Top shape: 1 4096 12 16 (786432)
I0718 15:17:44.962560 22982 net.cpp:156] Memory required for data: 932860896
I0718 15:17:44.962563 22982 layer_factory.hpp:77] Creating layer fc7
I0718 15:17:44.962568 22982 net.cpp:91] Creating Layer fc7
I0718 15:17:44.962570 22982 net.cpp:425] fc7 <- fc6
I0718 15:17:44.962574 22982 net.cpp:399] fc7 -> fc7
I0718 15:17:44.988525 22982 net.cpp:141] Setting up fc7
I0718 15:17:44.988550 22982 net.cpp:148] Top shape: 1 4096 12 16 (786432)
I0718 15:17:44.988554 22982 net.cpp:156] Memory required for data: 936006624
I0718 15:17:44.988574 22982 layer_factory.hpp:77] Creating layer relu7
I0718 15:17:44.988584 22982 net.cpp:91] Creating Layer relu7
I0718 15:17:44.988589 22982 net.cpp:425] relu7 <- fc7
I0718 15:17:44.988593 22982 net.cpp:386] relu7 -> fc7 (in-place)
I0718 15:17:44.988929 22982 net.cpp:141] Setting up relu7
I0718 15:17:44.988950 22982 net.cpp:148] Top shape: 1 4096 12 16 (786432)
I0718 15:17:44.988953 22982 net.cpp:156] Memory required for data: 939152352
I0718 15:17:44.988967 22982 layer_factory.hpp:77] Creating layer drop7
I0718 15:17:44.988973 22982 net.cpp:91] Creating Layer drop7
I0718 15:17:44.988976 22982 net.cpp:425] drop7 <- fc7
I0718 15:17:44.988988 22982 net.cpp:386] drop7 -> fc7 (in-place)
I0718 15:17:44.989022 22982 net.cpp:141] Setting up drop7
I0718 15:17:44.989027 22982 net.cpp:148] Top shape: 1 4096 12 16 (786432)
I0718 15:17:44.989029 22982 net.cpp:156] Memory required for data: 942298080
I0718 15:17:44.989032 22982 layer_factory.hpp:77] Creating layer score_fr
I0718 15:17:44.989039 22982 net.cpp:91] Creating Layer score_fr
I0718 15:17:44.989042 22982 net.cpp:425] score_fr <- fc7
I0718 15:17:44.989045 22982 net.cpp:399] score_fr -> score_fr
I0718 15:17:44.990339 22982 net.cpp:141] Setting up score_fr
I0718 15:17:44.990350 22982 net.cpp:148] Top shape: 1 7 12 16 (1344)
I0718 15:17:44.990352 22982 net.cpp:156] Memory required for data: 942303456
I0718 15:17:44.990357 22982 layer_factory.hpp:77] Creating layer upscore
I0718 15:17:44.990365 22982 net.cpp:91] Creating Layer upscore
I0718 15:17:44.990366 22982 net.cpp:425] upscore <- score_fr
I0718 15:17:44.990381 22982 net.cpp:399] upscore -> upscore
I0718 15:17:44.991025 22982 net.cpp:141] Setting up upscore
I0718 15:17:44.991034 22982 net.cpp:148] Top shape: 1 7 416 544 (1584128)
I0718 15:17:44.991036 22982 net.cpp:156] Memory required for data: 948639968
I0718 15:17:44.991045 22982 layer_factory.hpp:77] Creating layer score
I0718 15:17:44.991051 22982 net.cpp:91] Creating Layer score
I0718 15:17:44.991053 22982 net.cpp:425] score <- upscore
I0718 15:17:44.991066 22982 net.cpp:425] score <- data_data_0_split_1
I0718 15:17:44.991070 22982 net.cpp:399] score -> score
I0718 15:17:44.991091 22982 net.cpp:141] Setting up score
I0718 15:17:44.991096 22982 net.cpp:148] Top shape: 1 7 375 500 (1312500)
I0718 15:17:44.991097 22982 net.cpp:156] Memory required for data: 953889968
I0718 15:17:44.991099 22982 layer_factory.hpp:77] Creating layer loss
I0718 15:17:44.991104 22982 net.cpp:91] Creating Layer loss
I0718 15:17:44.991106 22982 net.cpp:425] loss <- score
I0718 15:17:44.991109 22982 net.cpp:425] loss <- label
I0718 15:17:44.991112 22982 net.cpp:399] loss -> loss
I0718 15:17:44.991118 22982 layer_factory.hpp:77] Creating layer loss
…
