…
I0718 15:40:54.131358 23071 solver.cpp:81] Creating training net from train_net file: train.prototxt
I0718 15:40:54.131975 23071 net.cpp:49] Initializing net from parameters: 
state {
  phase: TRAIN
}
layer {
  name: "data"
  type: "Python"
  top: "data"
  top: "label"
  python_param {
    module: "pascalpart_layers"
    layer: "PASCALPartSegDataLayer"
    param_str: "{\'part\': \'head\', \'obj_cls\': \'person\', \'split\': \'train\', \'part_dir\': \'/home/cv/hdl/caffe/data/pascal/pascal-part\', \'seed\': 1337, \'voc_dir\': \'/home/cv/hdl/caffe/data/pascal/VOC\'}"
  }
}
layer {
  name: "conv1_1"
  type: "Convolution"
  bottom: "data"
  top: "conv1_1"
  param {
    lr_mult: 1
    decay_mult: 1
  }
  param {
    lr_mult: 2
    decay_mult: 0
  }
  convolution_param {
    num_output: 64
    pad: 100
    kernel_size: 3
    stride: 1
  }
}
layer {
  name: "relu1_1"
  type: "ReLU"
  bottom: "conv1_1"
  top: "conv1_1"
}
layer {
  name: "conv1_2"
  type: "Convolution"
  bottom: "conv1_1"
  top: "conv1_2"
  param {
    lr_mult: 1
    decay_mult: 1
  }
  param {
    lr_mult: 2
    decay_mult: 0
  }
  convolution_param {
    num_output: 64
    pad: 1
    kernel_size: 3
    stride: 1
  }
}
layer {
  name: "relu1_2"
  type: "ReLU"
  bottom: "conv1_2"
  top: "conv1_2"
}
layer {
  name: "pool1"
  type: "Pooling"
  bottom: "conv1_2"
  top: "pool1"
  pooling_param {
    pool: MAX
    kernel_size: 2
    stride: 2
  }
}
layer {
  name: "conv2_1"
  type: "Convolution"
  bottom: "pool1"
  top: "conv2_1"
  param {
    lr_mult: 1
    decay_mult: 1
  }
  param {
    lr_mult: 2
    decay_mult: 0
  }
  convolution_param {
    num_output: 128
    pad: 1
    kernel_size: 3
    stride: 1
  }
}
layer {
  name: "relu2_1"
  type: "ReLU"
  bottom: "conv2_1"
  top: "conv2_1"
}
layer {
  name: "conv2_2"
  type: "Convolution"
  bottom: "conv2_1"
  top: "conv2_2"
  param {
    lr_mult: 1
    decay_mult: 1
  }
  param {
    lr_mult: 2
    decay_mult: 0
  }
  convolution_param {
    num_output: 128
    pad: 1
    kernel_size: 3
    stride: 1
  }
}
layer {
  name: "relu2_2"
  type: "ReLU"
  bottom: "conv2_2"
  top: "conv2_2"
}
layer {
  name: "pool2"
  type: "Pooling"
  bottom: "conv2_2"
  top: "pool2"
  pooling_param {
    pool: MAX
    kernel_size: 2
    stride: 2
  }
}
layer {
  name: "conv3_1"
  type: "Convolution"
  bottom: "pool2"
  top: "conv3_1"
  param {
    lr_mult: 1
    decay_mult: 1
  }
  param {
    lr_mult: 2
    decay_mult: 0
  }
  convolution_param {
    num_output: 256
    pad: 1
    kernel_size: 3
    stride: 1
  }
}
layer {
  name: "relu3_1"
  type: "ReLU"
  bottom: "conv3_1"
  top: "conv3_1"
}
layer {
  name: "conv3_2"
  type: "Convolution"
  bottom: "conv3_1"
  top: "conv3_2"
  param {
    lr_mult: 1
    decay_mult: 1
  }
  param {
    lr_mult: 2
    decay_mult: 0
  }
  convolution_param {
    num_output: 256
    pad: 1
    kernel_size: 3
    stride: 1
  }
}
layer {
  name: "relu3_2"
  type: "ReLU"
  bottom: "conv3_2"
  top: "conv3_2"
}
layer {
  name: "conv3_3"
  type: "Convolution"
  bottom: "conv3_2"
  top: "conv3_3"
  param {
    lr_mult: 1
    decay_mult: 1
  }
  param {
    lr_mult: 2
    decay_mult: 0
  }
  convolution_param {
    num_output: 256
    pad: 1
    kernel_size: 3
    stride: 1
  }
}
layer {
  name: "relu3_3"
  type: "ReLU"
  bottom: "conv3_3"
  top: "conv3_3"
}
layer {
  name: "pool3"
  type: "Pooling"
  bottom: "conv3_3"
  top: "pool3"
  pooling_param {
    pool: MAX
    kernel_size: 2
    stride: 2
  }
}
layer {
  name: "conv4_1"
  type: "Convolution"
  bottom: "pool3"
  top: "conv4_1"
  param {
    lr_mult: 1
    decay_mult: 1
  }
  param {
    lr_mult: 2
    decay_mult: 0
  }
  convolution_param {
    num_output: 512
    pad: 1
    kernel_size: 3
    stride: 1
  }
}
layer {
  name: "relu4_1"
  type: "ReLU"
  bottom: "conv4_1"
  top: "conv4_1"
}
layer {
  name: "conv4_2"
  type: "Convolution"
  bottom: "conv4_1"
  top: "conv4_2"
  param {
    lr_mult: 1
    decay_mult: 1
  }
  param {
    lr_mult: 2
    decay_mult: 0
  }
  convolution_param {
    num_output: 512
    pad: 1
    kernel_size: 3
    stride: 1
  }
}
layer {
  name: "relu4_2"
  type: "ReLU"
  bottom: "conv4_2"
  top: "conv4_2"
}
layer {
  name: "conv4_3"
  type: "Convolution"
  bottom: "conv4_2"
  top: "conv4_3"
  param {
    lr_mult: 1
    decay_mult: 1
  }
  param {
    lr_mult: 2
    decay_mult: 0
  }
  convolution_param {
    num_output: 512
    pad: 1
    kernel_size: 3
    stride: 1
  }
}
layer {
  name: "relu4_3"
  type: "ReLU"
  bottom: "conv4_3"
  top: "conv4_3"
}
layer {
  name: "pool4"
  type: "Pooling"
  bottom: "conv4_3"
  top: "pool4"
  pooling_param {
    pool: MAX
    kernel_size: 2
    stride: 2
  }
}
layer {
  name: "conv5_1"
  type: "Convolution"
  bottom: "pool4"
  top: "conv5_1"
  param {
    lr_mult: 1
    decay_mult: 1
  }
  param {
    lr_mult: 2
    decay_mult: 0
  }
  convolution_param {
    num_output: 512
    pad: 1
    kernel_size: 3
    stride: 1
  }
}
layer {
  name: "relu5_1"
  type: "ReLU"
  bottom: "conv5_1"
  top: "conv5_1"
}
layer {
  name: "conv5_2"
  type: "Convolution"
  bottom: "conv5_1"
  top: "conv5_2"
  param {
    lr_mult: 1
    decay_mult: 1
  }
  param {
    lr_mult: 2
    decay_mult: 0
  }
  convolution_param {
    num_output: 512
    pad: 1
    kernel_size: 3
    stride: 1
  }
}
layer {
  name: "relu5_2"
  type: "ReLU"
  bottom: "conv5_2"
  top: "conv5_2"
}
layer {
  name: "conv5_3"
  type: "Convolution"
  bottom: "conv5_2"
  top: "conv5_3"
  param {
    lr_mult: 1
    decay_mult: 1
  }
  param {
    lr_mult: 2
    decay_mult: 0
  }
  convolution_param {
    num_output: 512
    pad: 1
    kernel_size: 3
    stride: 1
  }
}
layer {
  name: "relu5_3"
  type: "ReLU"
  bottom: "conv5_3"
  top: "conv5_3"
}
layer {
  name: "pool5"
  type: "Pooling"
  bottom: "conv5_3"
  top: "pool5"
  pooling_param {
    pool: MAX
    kernel_size: 2
    stride: 2
  }
}
layer {
  name: "fc6"
  type: "Convolution"
  bottom: "pool5"
  top: "fc6"
  param {
    lr_mult: 1
    decay_mult: 1
  }
  param {
    lr_mult: 2
    decay_mult: 0
  }
  convolution_param {
    num_output: 4096
    pad: 0
    kernel_size: 7
    stride: 1
  }
}
layer {
  name: "relu6"
  type: "ReLU"
  bottom: "fc6"
  top: "fc6"
}
layer {
  name: "drop6"
  type: "Dropout"
  bottom: "fc6"
  top: "fc6"
  dropout_param {
    dropout_ratio: 0.5
  }
}
layer {
  name: "fc7"
  type: "Convolution"
  bottom: "fc6"
  top: "fc7"
  param {
    lr_mult: 1
    decay_mult: 1
  }
  param {
    lr_mult: 2
    decay_mult: 0
  }
  convolution_param {
    num_output: 4096
    pad: 0
    kernel_size: 1
    stride: 1
  }
}
layer {
  name: "relu7"
  type: "ReLU"
  bottom: "fc7"
  top: "fc7"
}
layer {
  name: "drop7"
  type: "Dropout"
  bottom: "fc7"
  top: "fc7"
  dropout_param {
    dropout_ratio: 0.5
  }
}
layer {
  name: "score_fr"
  type: "Convolution"
  bottom: "fc7"
  top: "score_fr"
  param {
    lr_mult: 1
    decay_mult: 1
  }
  param {
    lr_mult: 2
    decay_mult: 0
  }
  convolution_param {
    num_output: 7
    pad: 0
    kernel_size: 1
  }
}
layer {
  name: "upscore"
  type: "Deconvolution"
  bottom: "score_fr"
  top: "upscore"
  param {
    lr_mult: 0
  }
  convolution_param {
    num_output: 7
    bias_term: false
    kernel_size: 64
    stride: 32
  }
}
layer {
  name: "score"
  type: "Crop"
  bottom: "upscore"
  bottom: "data"
  top: "score"
  crop_param {
    axis: 2
    offset: 19
  }
}
layer {
  name: "loss"
  type: "SoftmaxWithLoss"
  bottom: "score"
  bottom: "label"
  top: "loss"
  loss_param {
    ignore_label: 255
    normalize: false
  }
}
I0718 15:40:54.132078 23071 layer_factory.hpp:77] Creating layer data
I0718 15:40:54.136219 23071 net.cpp:91] Creating Layer data
I0718 15:40:54.136231 23071 net.cpp:399] data -> data
I0718 15:40:54.136237 23071 net.cpp:399] data -> label
I0718 15:40:54.631399 23071 net.cpp:141] Setting up data
I0718 15:40:54.631422 23071 net.cpp:148] Top shape: 1 3 377 500 (565500)
I0718 15:40:54.631427 23071 net.cpp:148] Top shape: 1 1 377 500 (188500)
I0718 15:40:54.631428 23071 net.cpp:156] Memory required for data: 3016000
I0718 15:40:54.631434 23071 layer_factory.hpp:77] Creating layer data_data_0_split
I0718 15:40:54.631458 23071 net.cpp:91] Creating Layer data_data_0_split
I0718 15:40:54.631460 23071 net.cpp:425] data_data_0_split <- data
I0718 15:40:54.631465 23071 net.cpp:399] data_data_0_split -> data_data_0_split_0
I0718 15:40:54.631472 23071 net.cpp:399] data_data_0_split -> data_data_0_split_1
I0718 15:40:54.631495 23071 net.cpp:141] Setting up data_data_0_split
I0718 15:40:54.631500 23071 net.cpp:148] Top shape: 1 3 377 500 (565500)
I0718 15:40:54.631502 23071 net.cpp:148] Top shape: 1 3 377 500 (565500)
I0718 15:40:54.631505 23071 net.cpp:156] Memory required for data: 7540000
I0718 15:40:54.631506 23071 layer_factory.hpp:77] Creating layer conv1_1
I0718 15:40:54.631515 23071 net.cpp:91] Creating Layer conv1_1
I0718 15:40:54.631516 23071 net.cpp:425] conv1_1 <- data_data_0_split_0
I0718 15:40:54.631520 23071 net.cpp:399] conv1_1 -> conv1_1
I0718 15:40:55.042264 23071 net.cpp:141] Setting up conv1_1
I0718 15:40:55.042290 23071 net.cpp:148] Top shape: 1 64 575 698 (25686400)
I0718 15:40:55.042292 23071 net.cpp:156] Memory required for data: 110285600
I0718 15:40:55.042304 23071 layer_factory.hpp:77] Creating layer relu1_1
I0718 15:40:55.042314 23071 net.cpp:91] Creating Layer relu1_1
I0718 15:40:55.042316 23071 net.cpp:425] relu1_1 <- conv1_1
I0718 15:40:55.042330 23071 net.cpp:386] relu1_1 -> conv1_1 (in-place)
I0718 15:40:55.042596 23071 net.cpp:141] Setting up relu1_1
I0718 15:40:55.042604 23071 net.cpp:148] Top shape: 1 64 575 698 (25686400)
I0718 15:40:55.042606 23071 net.cpp:156] Memory required for data: 213031200
I0718 15:40:55.042608 23071 layer_factory.hpp:77] Creating layer conv1_2
I0718 15:40:55.042616 23071 net.cpp:91] Creating Layer conv1_2
I0718 15:40:55.042618 23071 net.cpp:425] conv1_2 <- conv1_1
I0718 15:40:55.042623 23071 net.cpp:399] conv1_2 -> conv1_2
I0718 15:40:55.044525 23071 net.cpp:141] Setting up conv1_2
I0718 15:40:55.044538 23071 net.cpp:148] Top shape: 1 64 575 698 (25686400)
I0718 15:40:55.044541 23071 net.cpp:156] Memory required for data: 315776800
I0718 15:40:55.044548 23071 layer_factory.hpp:77] Creating layer relu1_2
I0718 15:40:55.044554 23071 net.cpp:91] Creating Layer relu1_2
I0718 15:40:55.044556 23071 net.cpp:425] relu1_2 <- conv1_2
I0718 15:40:55.044569 23071 net.cpp:386] relu1_2 -> conv1_2 (in-place)
I0718 15:40:55.044841 23071 net.cpp:141] Setting up relu1_2
I0718 15:40:55.044847 23071 net.cpp:148] Top shape: 1 64 575 698 (25686400)
I0718 15:40:55.044849 23071 net.cpp:156] Memory required for data: 418522400
I0718 15:40:55.044852 23071 layer_factory.hpp:77] Creating layer pool1
I0718 15:40:55.044857 23071 net.cpp:91] Creating Layer pool1
I0718 15:40:55.044858 23071 net.cpp:425] pool1 <- conv1_2
I0718 15:40:55.044862 23071 net.cpp:399] pool1 -> pool1
I0718 15:40:55.044903 23071 net.cpp:141] Setting up pool1
I0718 15:40:55.044908 23071 net.cpp:148] Top shape: 1 64 288 349 (6432768)
I0718 15:40:55.044909 23071 net.cpp:156] Memory required for data: 444253472
I0718 15:40:55.044910 23071 layer_factory.hpp:77] Creating layer conv2_1
I0718 15:40:55.044916 23071 net.cpp:91] Creating Layer conv2_1
I0718 15:40:55.044919 23071 net.cpp:425] conv2_1 <- pool1
I0718 15:40:55.044922 23071 net.cpp:399] conv2_1 -> conv2_1
I0718 15:40:55.046265 23071 net.cpp:141] Setting up conv2_1
I0718 15:40:55.046275 23071 net.cpp:148] Top shape: 1 128 288 349 (12865536)
I0718 15:40:55.046277 23071 net.cpp:156] Memory required for data: 495715616
I0718 15:40:55.046284 23071 layer_factory.hpp:77] Creating layer relu2_1
I0718 15:40:55.046290 23071 net.cpp:91] Creating Layer relu2_1
I0718 15:40:55.046293 23071 net.cpp:425] relu2_1 <- conv2_1
I0718 15:40:55.046305 23071 net.cpp:386] relu2_1 -> conv2_1 (in-place)
I0718 15:40:55.046430 23071 net.cpp:141] Setting up relu2_1
I0718 15:40:55.046435 23071 net.cpp:148] Top shape: 1 128 288 349 (12865536)
I0718 15:40:55.046437 23071 net.cpp:156] Memory required for data: 547177760
I0718 15:40:55.046439 23071 layer_factory.hpp:77] Creating layer conv2_2
I0718 15:40:55.046445 23071 net.cpp:91] Creating Layer conv2_2
I0718 15:40:55.046448 23071 net.cpp:425] conv2_2 <- conv2_1
I0718 15:40:55.046452 23071 net.cpp:399] conv2_2 -> conv2_2
I0718 15:40:55.047832 23071 net.cpp:141] Setting up conv2_2
I0718 15:40:55.047842 23071 net.cpp:148] Top shape: 1 128 288 349 (12865536)
I0718 15:40:55.047843 23071 net.cpp:156] Memory required for data: 598639904
I0718 15:40:55.047848 23071 layer_factory.hpp:77] Creating layer relu2_2
I0718 15:40:55.047853 23071 net.cpp:91] Creating Layer relu2_2
I0718 15:40:55.047855 23071 net.cpp:425] relu2_2 <- conv2_2
I0718 15:40:55.047858 23071 net.cpp:386] relu2_2 -> conv2_2 (in-place)
I0718 15:40:55.048135 23071 net.cpp:141] Setting up relu2_2
I0718 15:40:55.048141 23071 net.cpp:148] Top shape: 1 128 288 349 (12865536)
I0718 15:40:55.048143 23071 net.cpp:156] Memory required for data: 650102048
I0718 15:40:55.048146 23071 layer_factory.hpp:77] Creating layer pool2
I0718 15:40:55.048151 23071 net.cpp:91] Creating Layer pool2
I0718 15:40:55.048153 23071 net.cpp:425] pool2 <- conv2_2
I0718 15:40:55.048157 23071 net.cpp:399] pool2 -> pool2
I0718 15:40:55.048193 23071 net.cpp:141] Setting up pool2
I0718 15:40:55.048198 23071 net.cpp:148] Top shape: 1 128 144 175 (3225600)
I0718 15:40:55.048200 23071 net.cpp:156] Memory required for data: 663004448
I0718 15:40:55.048202 23071 layer_factory.hpp:77] Creating layer conv3_1
I0718 15:40:55.048207 23071 net.cpp:91] Creating Layer conv3_1
I0718 15:40:55.048209 23071 net.cpp:425] conv3_1 <- pool2
I0718 15:40:55.048223 23071 net.cpp:399] conv3_1 -> conv3_1
I0718 15:40:55.049504 23071 net.cpp:141] Setting up conv3_1
I0718 15:40:55.049513 23071 net.cpp:148] Top shape: 1 256 144 175 (6451200)
I0718 15:40:55.049515 23071 net.cpp:156] Memory required for data: 688809248
I0718 15:40:55.049523 23071 layer_factory.hpp:77] Creating layer relu3_1
I0718 15:40:55.049527 23071 net.cpp:91] Creating Layer relu3_1
I0718 15:40:55.049530 23071 net.cpp:425] relu3_1 <- conv3_1
I0718 15:40:55.049533 23071 net.cpp:386] relu3_1 -> conv3_1 (in-place)
I0718 15:40:55.049794 23071 net.cpp:141] Setting up relu3_1
I0718 15:40:55.049801 23071 net.cpp:148] Top shape: 1 256 144 175 (6451200)
I0718 15:40:55.049803 23071 net.cpp:156] Memory required for data: 714614048
I0718 15:40:55.049805 23071 layer_factory.hpp:77] Creating layer conv3_2
I0718 15:40:55.049811 23071 net.cpp:91] Creating Layer conv3_2
I0718 15:40:55.049814 23071 net.cpp:425] conv3_2 <- conv3_1
I0718 15:40:55.049818 23071 net.cpp:399] conv3_2 -> conv3_2
I0718 15:40:55.051496 23071 net.cpp:141] Setting up conv3_2
I0718 15:40:55.051509 23071 net.cpp:148] Top shape: 1 256 144 175 (6451200)
I0718 15:40:55.051512 23071 net.cpp:156] Memory required for data: 740418848
I0718 15:40:55.051517 23071 layer_factory.hpp:77] Creating layer relu3_2
I0718 15:40:55.051522 23071 net.cpp:91] Creating Layer relu3_2
I0718 15:40:55.051524 23071 net.cpp:425] relu3_2 <- conv3_2
I0718 15:40:55.051528 23071 net.cpp:386] relu3_2 -> conv3_2 (in-place)
I0718 15:40:55.051642 23071 net.cpp:141] Setting up relu3_2
I0718 15:40:55.051650 23071 net.cpp:148] Top shape: 1 256 144 175 (6451200)
I0718 15:40:55.051651 23071 net.cpp:156] Memory required for data: 766223648
I0718 15:40:55.051653 23071 layer_factory.hpp:77] Creating layer conv3_3
I0718 15:40:55.051661 23071 net.cpp:91] Creating Layer conv3_3
I0718 15:40:55.051663 23071 net.cpp:425] conv3_3 <- conv3_2
I0718 15:40:55.051666 23071 net.cpp:399] conv3_3 -> conv3_3
I0718 15:40:55.053500 23071 net.cpp:141] Setting up conv3_3
I0718 15:40:55.053524 23071 net.cpp:148] Top shape: 1 256 144 175 (6451200)
I0718 15:40:55.053525 23071 net.cpp:156] Memory required for data: 792028448
I0718 15:40:55.053531 23071 layer_factory.hpp:77] Creating layer relu3_3
I0718 15:40:55.053539 23071 net.cpp:91] Creating Layer relu3_3
I0718 15:40:55.053540 23071 net.cpp:425] relu3_3 <- conv3_3
I0718 15:40:55.053544 23071 net.cpp:386] relu3_3 -> conv3_3 (in-place)
I0718 15:40:55.053822 23071 net.cpp:141] Setting up relu3_3
I0718 15:40:55.053839 23071 net.cpp:148] Top shape: 1 256 144 175 (6451200)
I0718 15:40:55.053841 23071 net.cpp:156] Memory required for data: 817833248
I0718 15:40:55.053843 23071 layer_factory.hpp:77] Creating layer pool3
I0718 15:40:55.053849 23071 net.cpp:91] Creating Layer pool3
I0718 15:40:55.053851 23071 net.cpp:425] pool3 <- conv3_3
I0718 15:40:55.053855 23071 net.cpp:399] pool3 -> pool3
I0718 15:40:55.053895 23071 net.cpp:141] Setting up pool3
I0718 15:40:55.053900 23071 net.cpp:148] Top shape: 1 256 72 88 (1622016)
I0718 15:40:55.053900 23071 net.cpp:156] Memory required for data: 824321312
I0718 15:40:55.053912 23071 layer_factory.hpp:77] Creating layer conv4_1
I0718 15:40:55.053920 23071 net.cpp:91] Creating Layer conv4_1
I0718 15:40:55.053921 23071 net.cpp:425] conv4_1 <- pool3
I0718 15:40:55.053925 23071 net.cpp:399] conv4_1 -> conv4_1
I0718 15:40:55.057807 23071 net.cpp:141] Setting up conv4_1
I0718 15:40:55.057829 23071 net.cpp:148] Top shape: 1 512 72 88 (3244032)
I0718 15:40:55.057832 23071 net.cpp:156] Memory required for data: 837297440
I0718 15:40:55.057839 23071 layer_factory.hpp:77] Creating layer relu4_1
I0718 15:40:55.057847 23071 net.cpp:91] Creating Layer relu4_1
I0718 15:40:55.057850 23071 net.cpp:425] relu4_1 <- conv4_1
I0718 15:40:55.057865 23071 net.cpp:386] relu4_1 -> conv4_1 (in-place)
I0718 15:40:55.058274 23071 net.cpp:141] Setting up relu4_1
I0718 15:40:55.058281 23071 net.cpp:148] Top shape: 1 512 72 88 (3244032)
I0718 15:40:55.058284 23071 net.cpp:156] Memory required for data: 850273568
I0718 15:40:55.058286 23071 layer_factory.hpp:77] Creating layer conv4_2
I0718 15:40:55.058293 23071 net.cpp:91] Creating Layer conv4_2
I0718 15:40:55.058295 23071 net.cpp:425] conv4_2 <- conv4_1
I0718 15:40:55.058310 23071 net.cpp:399] conv4_2 -> conv4_2
I0718 15:40:55.062850 23071 net.cpp:141] Setting up conv4_2
I0718 15:40:55.062875 23071 net.cpp:148] Top shape: 1 512 72 88 (3244032)
I0718 15:40:55.062876 23071 net.cpp:156] Memory required for data: 863249696
I0718 15:40:55.062888 23071 layer_factory.hpp:77] Creating layer relu4_2
I0718 15:40:55.062896 23071 net.cpp:91] Creating Layer relu4_2
I0718 15:40:55.062899 23071 net.cpp:425] relu4_2 <- conv4_2
I0718 15:40:55.062914 23071 net.cpp:386] relu4_2 -> conv4_2 (in-place)
I0718 15:40:55.063043 23071 net.cpp:141] Setting up relu4_2
I0718 15:40:55.063050 23071 net.cpp:148] Top shape: 1 512 72 88 (3244032)
I0718 15:40:55.063051 23071 net.cpp:156] Memory required for data: 876225824
I0718 15:40:55.063053 23071 layer_factory.hpp:77] Creating layer conv4_3
I0718 15:40:55.063060 23071 net.cpp:91] Creating Layer conv4_3
I0718 15:40:55.063062 23071 net.cpp:425] conv4_3 <- conv4_2
I0718 15:40:55.063066 23071 net.cpp:399] conv4_3 -> conv4_3
I0718 15:40:55.067731 23071 net.cpp:141] Setting up conv4_3
I0718 15:40:55.067754 23071 net.cpp:148] Top shape: 1 512 72 88 (3244032)
I0718 15:40:55.067757 23071 net.cpp:156] Memory required for data: 889201952
I0718 15:40:55.067764 23071 layer_factory.hpp:77] Creating layer relu4_3
I0718 15:40:55.067771 23071 net.cpp:91] Creating Layer relu4_3
I0718 15:40:55.067775 23071 net.cpp:425] relu4_3 <- conv4_3
I0718 15:40:55.067780 23071 net.cpp:386] relu4_3 -> conv4_3 (in-place)
I0718 15:40:55.068064 23071 net.cpp:141] Setting up relu4_3
I0718 15:40:55.068073 23071 net.cpp:148] Top shape: 1 512 72 88 (3244032)
I0718 15:40:55.068074 23071 net.cpp:156] Memory required for data: 902178080
I0718 15:40:55.068076 23071 layer_factory.hpp:77] Creating layer pool4
I0718 15:40:55.068080 23071 net.cpp:91] Creating Layer pool4
I0718 15:40:55.068083 23071 net.cpp:425] pool4 <- conv4_3
I0718 15:40:55.068087 23071 net.cpp:399] pool4 -> pool4
I0718 15:40:55.068127 23071 net.cpp:141] Setting up pool4
I0718 15:40:55.068132 23071 net.cpp:148] Top shape: 1 512 36 44 (811008)
I0718 15:40:55.068142 23071 net.cpp:156] Memory required for data: 905422112
I0718 15:40:55.068145 23071 layer_factory.hpp:77] Creating layer conv5_1
I0718 15:40:55.068151 23071 net.cpp:91] Creating Layer conv5_1
I0718 15:40:55.068153 23071 net.cpp:425] conv5_1 <- pool4
I0718 15:40:55.068156 23071 net.cpp:399] conv5_1 -> conv5_1
I0718 15:40:55.073088 23071 net.cpp:141] Setting up conv5_1
I0718 15:40:55.073122 23071 net.cpp:148] Top shape: 1 512 36 44 (811008)
I0718 15:40:55.073124 23071 net.cpp:156] Memory required for data: 908666144
I0718 15:40:55.073132 23071 layer_factory.hpp:77] Creating layer relu5_1
I0718 15:40:55.073140 23071 net.cpp:91] Creating Layer relu5_1
I0718 15:40:55.073143 23071 net.cpp:425] relu5_1 <- conv5_1
I0718 15:40:55.073159 23071 net.cpp:386] relu5_1 -> conv5_1 (in-place)
I0718 15:40:55.073531 23071 net.cpp:141] Setting up relu5_1
I0718 15:40:55.073539 23071 net.cpp:148] Top shape: 1 512 36 44 (811008)
I0718 15:40:55.073551 23071 net.cpp:156] Memory required for data: 911910176
I0718 15:40:55.073554 23071 layer_factory.hpp:77] Creating layer conv5_2
I0718 15:40:55.073561 23071 net.cpp:91] Creating Layer conv5_2
I0718 15:40:55.073564 23071 net.cpp:425] conv5_2 <- conv5_1
I0718 15:40:55.073577 23071 net.cpp:399] conv5_2 -> conv5_2
I0718 15:40:55.078239 23071 net.cpp:141] Setting up conv5_2
I0718 15:40:55.078276 23071 net.cpp:148] Top shape: 1 512 36 44 (811008)
I0718 15:40:55.078279 23071 net.cpp:156] Memory required for data: 915154208
I0718 15:40:55.078285 23071 layer_factory.hpp:77] Creating layer relu5_2
I0718 15:40:55.078294 23071 net.cpp:91] Creating Layer relu5_2
I0718 15:40:55.078297 23071 net.cpp:425] relu5_2 <- conv5_2
I0718 15:40:55.078311 23071 net.cpp:386] relu5_2 -> conv5_2 (in-place)
I0718 15:40:55.078452 23071 net.cpp:141] Setting up relu5_2
I0718 15:40:55.078459 23071 net.cpp:148] Top shape: 1 512 36 44 (811008)
I0718 15:40:55.078470 23071 net.cpp:156] Memory required for data: 918398240
I0718 15:40:55.078472 23071 layer_factory.hpp:77] Creating layer conv5_3
I0718 15:40:55.078480 23071 net.cpp:91] Creating Layer conv5_3
I0718 15:40:55.078481 23071 net.cpp:425] conv5_3 <- conv5_2
I0718 15:40:55.078495 23071 net.cpp:399] conv5_3 -> conv5_3
I0718 15:40:55.083442 23071 net.cpp:141] Setting up conv5_3
I0718 15:40:55.083478 23071 net.cpp:148] Top shape: 1 512 36 44 (811008)
I0718 15:40:55.083482 23071 net.cpp:156] Memory required for data: 921642272
I0718 15:40:55.083488 23071 layer_factory.hpp:77] Creating layer relu5_3
I0718 15:40:55.083498 23071 net.cpp:91] Creating Layer relu5_3
I0718 15:40:55.083500 23071 net.cpp:425] relu5_3 <- conv5_3
I0718 15:40:55.083514 23071 net.cpp:386] relu5_3 -> conv5_3 (in-place)
I0718 15:40:55.083802 23071 net.cpp:141] Setting up relu5_3
I0718 15:40:55.083809 23071 net.cpp:148] Top shape: 1 512 36 44 (811008)
I0718 15:40:55.083822 23071 net.cpp:156] Memory required for data: 924886304
I0718 15:40:55.083823 23071 layer_factory.hpp:77] Creating layer pool5
I0718 15:40:55.083832 23071 net.cpp:91] Creating Layer pool5
I0718 15:40:55.083845 23071 net.cpp:425] pool5 <- conv5_3
I0718 15:40:55.083849 23071 net.cpp:399] pool5 -> pool5
I0718 15:40:55.083890 23071 net.cpp:141] Setting up pool5
I0718 15:40:55.083895 23071 net.cpp:148] Top shape: 1 512 18 22 (202752)
I0718 15:40:55.083905 23071 net.cpp:156] Memory required for data: 925697312
I0718 15:40:55.083907 23071 layer_factory.hpp:77] Creating layer fc6
I0718 15:40:55.083914 23071 net.cpp:91] Creating Layer fc6
I0718 15:40:55.083925 23071 net.cpp:425] fc6 <- pool5
I0718 15:40:55.083930 23071 net.cpp:399] fc6 -> fc6
I0718 15:40:55.233773 23071 net.cpp:141] Setting up fc6
I0718 15:40:55.233798 23071 net.cpp:148] Top shape: 1 4096 12 16 (786432)
I0718 15:40:55.233803 23071 net.cpp:156] Memory required for data: 928843040
I0718 15:40:55.233810 23071 layer_factory.hpp:77] Creating layer relu6
I0718 15:40:55.233820 23071 net.cpp:91] Creating Layer relu6
I0718 15:40:55.233824 23071 net.cpp:425] relu6 <- fc6
I0718 15:40:55.233829 23071 net.cpp:386] relu6 -> fc6 (in-place)
I0718 15:40:55.234149 23071 net.cpp:141] Setting up relu6
I0718 15:40:55.234159 23071 net.cpp:148] Top shape: 1 4096 12 16 (786432)
I0718 15:40:55.234161 23071 net.cpp:156] Memory required for data: 931988768
I0718 15:40:55.234164 23071 layer_factory.hpp:77] Creating layer drop6
I0718 15:40:55.234170 23071 net.cpp:91] Creating Layer drop6
I0718 15:40:55.234174 23071 net.cpp:425] drop6 <- fc6
I0718 15:40:55.234176 23071 net.cpp:386] drop6 -> fc6 (in-place)
I0718 15:40:55.234218 23071 net.cpp:141] Setting up drop6
I0718 15:40:55.234223 23071 net.cpp:148] Top shape: 1 4096 12 16 (786432)
I0718 15:40:55.234225 23071 net.cpp:156] Memory required for data: 935134496
I0718 15:40:55.234227 23071 layer_factory.hpp:77] Creating layer fc7
I0718 15:40:55.234236 23071 net.cpp:91] Creating Layer fc7
I0718 15:40:55.234237 23071 net.cpp:425] fc7 <- fc6
I0718 15:40:55.234241 23071 net.cpp:399] fc7 -> fc7
I0718 15:40:55.260210 23071 net.cpp:141] Setting up fc7
I0718 15:40:55.260246 23071 net.cpp:148] Top shape: 1 4096 12 16 (786432)
I0718 15:40:55.260259 23071 net.cpp:156] Memory required for data: 938280224
I0718 15:40:55.260269 23071 layer_factory.hpp:77] Creating layer relu7
I0718 15:40:55.260283 23071 net.cpp:91] Creating Layer relu7
I0718 15:40:55.260288 23071 net.cpp:425] relu7 <- fc7
I0718 15:40:55.260293 23071 net.cpp:386] relu7 -> fc7 (in-place)
I0718 15:40:55.260603 23071 net.cpp:141] Setting up relu7
I0718 15:40:55.260623 23071 net.cpp:148] Top shape: 1 4096 12 16 (786432)
I0718 15:40:55.260625 23071 net.cpp:156] Memory required for data: 941425952
I0718 15:40:55.260629 23071 layer_factory.hpp:77] Creating layer drop7
I0718 15:40:55.260635 23071 net.cpp:91] Creating Layer drop7
I0718 15:40:55.260638 23071 net.cpp:425] drop7 <- fc7
I0718 15:40:55.260643 23071 net.cpp:386] drop7 -> fc7 (in-place)
I0718 15:40:55.260679 23071 net.cpp:141] Setting up drop7
I0718 15:40:55.260685 23071 net.cpp:148] Top shape: 1 4096 12 16 (786432)
I0718 15:40:55.260686 23071 net.cpp:156] Memory required for data: 944571680
I0718 15:40:55.260697 23071 layer_factory.hpp:77] Creating layer score_fr
I0718 15:40:55.260705 23071 net.cpp:91] Creating Layer score_fr
I0718 15:40:55.260707 23071 net.cpp:425] score_fr <- fc7
I0718 15:40:55.260710 23071 net.cpp:399] score_fr -> score_fr
I0718 15:40:55.262002 23071 net.cpp:141] Setting up score_fr
I0718 15:40:55.262012 23071 net.cpp:148] Top shape: 1 7 12 16 (1344)
I0718 15:40:55.262014 23071 net.cpp:156] Memory required for data: 944577056
I0718 15:40:55.262019 23071 layer_factory.hpp:77] Creating layer upscore
I0718 15:40:55.262030 23071 net.cpp:91] Creating Layer upscore
I0718 15:40:55.262043 23071 net.cpp:425] upscore <- score_fr
I0718 15:40:55.262048 23071 net.cpp:399] upscore -> upscore
I0718 15:40:55.262672 23071 net.cpp:141] Setting up upscore
I0718 15:40:55.262681 23071 net.cpp:148] Top shape: 1 7 416 544 (1584128)
I0718 15:40:55.262682 23071 net.cpp:156] Memory required for data: 950913568
I0718 15:40:55.262691 23071 layer_factory.hpp:77] Creating layer score
I0718 15:40:55.262709 23071 net.cpp:91] Creating Layer score
I0718 15:40:55.262712 23071 net.cpp:425] score <- upscore
I0718 15:40:55.262715 23071 net.cpp:425] score <- data_data_0_split_1
I0718 15:40:55.262718 23071 net.cpp:399] score -> score
I0718 15:40:55.262738 23071 net.cpp:141] Setting up score
I0718 15:40:55.262750 23071 net.cpp:148] Top shape: 1 7 377 500 (1319500)
I0718 15:40:55.262753 23071 net.cpp:156] Memory required for data: 956191568
I0718 15:40:55.262754 23071 layer_factory.hpp:77] Creating layer loss
I0718 15:40:55.262770 23071 net.cpp:91] Creating Layer loss
I0718 15:40:55.262773 23071 net.cpp:425] loss <- score
I0718 15:40:55.262775 23071 net.cpp:425] loss <- label
I0718 15:40:55.262786 23071 net.cpp:399] loss -> loss
I0718 15:40:55.262792 23071 layer_factory.hpp:77] Creating layer loss
…
I0718 15:40:55.266227 23071 solver.cpp:181] Creating test net (#0) specified by test_net file: val.prototxt
I0718 15:40:55.266443 23071 net.cpp:49] Initializing net from parameters: 
state {
  phase: TEST
}
layer {
  name: "data"
  type: "Python"
  top: "data"
  top: "label"
  python_param {
    module: "pascalpart_layers"
    layer: "PASCALPartSegDataLayer"
    param_str: "{\'part\': \'head\', \'obj_cls\': \'person\', \'split\': \'val\', \'part_dir\': \'/home/cv/hdl/caffe/data/pascal/pascal-part\', \'seed\': 1337, \'voc_dir\': \'/home/cv/hdl/caffe/data/pascal/VOC\'}"
  }
}
layer {
  name: "conv1_1"
  type: "Convolution"
  bottom: "data"
  top: "conv1_1"
  param {
    lr_mult: 1
    decay_mult: 1
  }
  param {
    lr_mult: 2
    decay_mult: 0
  }
  convolution_param {
    num_output: 64
    pad: 100
    kernel_size: 3
    stride: 1
  }
}
layer {
  name: "relu1_1"
  type: "ReLU"
  bottom: "conv1_1"
  top: "conv1_1"
}
layer {
  name: "conv1_2"
  type: "Convolution"
  bottom: "conv1_1"
  top: "conv1_2"
  param {
    lr_mult: 1
    decay_mult: 1
  }
  param {
    lr_mult: 2
    decay_mult: 0
  }
  convolution_param {
    num_output: 64
    pad: 1
    kernel_size: 3
    stride: 1
  }
}
layer {
  name: "relu1_2"
  type: "ReLU"
  bottom: "conv1_2"
  top: "conv1_2"
}
layer {
  name: "pool1"
  type: "Pooling"
  bottom: "conv1_2"
  top: "pool1"
  pooling_param {
    pool: MAX
    kernel_size: 2
    stride: 2
  }
}
layer {
  name: "conv2_1"
  type: "Convolution"
  bottom: "pool1"
  top: "conv2_1"
  param {
    lr_mult: 1
    decay_mult: 1
  }
  param {
    lr_mult: 2
    decay_mult: 0
  }
  convolution_param {
    num_output: 128
    pad: 1
    kernel_size: 3
    stride: 1
  }
}
layer {
  name: "relu2_1"
  type: "ReLU"
  bottom: "conv2_1"
  top: "conv2_1"
}
layer {
  name: "conv2_2"
  type: "Convolution"
  bottom: "conv2_1"
  top: "conv2_2"
  param {
    lr_mult: 1
    decay_mult: 1
  }
  param {
    lr_mult: 2
    decay_mult: 0
  }
  convolution_param {
    num_output: 128
    pad: 1
    kernel_size: 3
    stride: 1
  }
}
layer {
  name: "relu2_2"
  type: "ReLU"
  bottom: "conv2_2"
  top: "conv2_2"
}
layer {
  name: "pool2"
  type: "Pooling"
  bottom: "conv2_2"
  top: "pool2"
  pooling_param {
    pool: MAX
    kernel_size: 2
    stride: 2
  }
}
layer {
  name: "conv3_1"
  type: "Convolution"
  bottom: "pool2"
  top: "conv3_1"
  param {
    lr_mult: 1
    decay_mult: 1
  }
  param {
    lr_mult: 2
    decay_mult: 0
  }
  convolution_param {
    num_output: 256
    pad: 1
    kernel_size: 3
    stride: 1
  }
}
layer {
  name: "relu3_1"
  type: "ReLU"
  bottom: "conv3_1"
  top: "conv3_1"
}
layer {
  name: "conv3_2"
  type: "Convolution"
  bottom: "conv3_1"
  top: "conv3_2"
  param {
    lr_mult: 1
    decay_mult: 1
  }
  param {
    lr_mult: 2
    decay_mult: 0
  }
  convolution_param {
    num_output: 256
    pad: 1
    kernel_size: 3
    stride: 1
  }
}
layer {
  name: "relu3_2"
  type: "ReLU"
  bottom: "conv3_2"
  top: "conv3_2"
}
layer {
  name: "conv3_3"
  type: "Convolution"
  bottom: "conv3_2"
  top: "conv3_3"
  param {
    lr_mult: 1
    decay_mult: 1
  }
  param {
    lr_mult: 2
    decay_mult: 0
  }
  convolution_param {
    num_output: 256
    pad: 1
    kernel_size: 3
    stride: 1
  }
}
layer {
  name: "relu3_3"
  type: "ReLU"
  bottom: "conv3_3"
  top: "conv3_3"
}
layer {
  name: "pool3"
  type: "Pooling"
  bottom: "conv3_3"
  top: "pool3"
  pooling_param {
    pool: MAX
    kernel_size: 2
    stride: 2
  }
}
layer {
  name: "conv4_1"
  type: "Convolution"
  bottom: "pool3"
  top: "conv4_1"
  param {
    lr_mult: 1
    decay_mult: 1
  }
  param {
    lr_mult: 2
    decay_mult: 0
  }
  convolution_param {
    num_output: 512
    pad: 1
    kernel_size: 3
    stride: 1
  }
}
layer {
  name: "relu4_1"
  type: "ReLU"
  bottom: "conv4_1"
  top: "conv4_1"
}
layer {
  name: "conv4_2"
  type: "Convolution"
  bottom: "conv4_1"
  top: "conv4_2"
  param {
    lr_mult: 1
    decay_mult: 1
  }
  param {
    lr_mult: 2
    decay_mult: 0
  }
  convolution_param {
    num_output: 512
    pad: 1
    kernel_size: 3
    stride: 1
  }
}
layer {
  name: "relu4_2"
  type: "ReLU"
  bottom: "conv4_2"
  top: "conv4_2"
}
layer {
  name: "conv4_3"
  type: "Convolution"
  bottom: "conv4_2"
  top: "conv4_3"
  param {
    lr_mult: 1
    decay_mult: 1
  }
  param {
    lr_mult: 2
    decay_mult: 0
  }
  convolution_param {
    num_output: 512
    pad: 1
    kernel_size: 3
    stride: 1
  }
}
layer {
  name: "relu4_3"
  type: "ReLU"
  bottom: "conv4_3"
  top: "conv4_3"
}
layer {
  name: "pool4"
  type: "Pooling"
  bottom: "conv4_3"
  top: "pool4"
  pooling_param {
    pool: MAX
    kernel_size: 2
    stride: 2
  }
}
layer {
  name: "conv5_1"
  type: "Convolution"
  bottom: "pool4"
  top: "conv5_1"
  param {
    lr_mult: 1
    decay_mult: 1
  }
  param {
    lr_mult: 2
    decay_mult: 0
  }
  convolution_param {
    num_output: 512
    pad: 1
    kernel_size: 3
    stride: 1
  }
}
layer {
  name: "relu5_1"
  type: "ReLU"
  bottom: "conv5_1"
  top: "conv5_1"
}
layer {
  name: "conv5_2"
  type: "Convolution"
  bottom: "conv5_1"
  top: "conv5_2"
  param {
    lr_mult: 1
    decay_mult: 1
  }
  param {
    lr_mult: 2
    decay_mult: 0
  }
  convolution_param {
    num_output: 512
    pad: 1
    kernel_size: 3
    stride: 1
  }
}
layer {
  name: "relu5_2"
  type: "ReLU"
  bottom: "conv5_2"
  top: "conv5_2"
}
layer {
  name: "conv5_3"
  type: "Convolution"
  bottom: "conv5_2"
  top: "conv5_3"
  param {
    lr_mult: 1
    decay_mult: 1
  }
  param {
    lr_mult: 2
    decay_mult: 0
  }
  convolution_param {
    num_output: 512
    pad: 1
    kernel_size: 3
    stride: 1
  }
}
layer {
  name: "relu5_3"
  type: "ReLU"
  bottom: "conv5_3"
  top: "conv5_3"
}
layer {
  name: "pool5"
  type: "Pooling"
  bottom: "conv5_3"
  top: "pool5"
  pooling_param {
    pool: MAX
    kernel_size: 2
    stride: 2
  }
}
layer {
  name: "fc6"
  type: "Convolution"
  bottom: "pool5"
  top: "fc6"
  param {
    lr_mult: 1
    decay_mult: 1
  }
  param {
    lr_mult: 2
    decay_mult: 0
  }
  convolution_param {
    num_output: 4096
    pad: 0
    kernel_size: 7
    stride: 1
  }
}
layer {
  name: "relu6"
  type: "ReLU"
  bottom: "fc6"
  top: "fc6"
}
layer {
  name: "drop6"
  type: "Dropout"
  bottom: "fc6"
  top: "fc6"
  dropout_param {
    dropout_ratio: 0.5
  }
}
layer {
  name: "fc7"
  type: "Convolution"
  bottom: "fc6"
  top: "fc7"
  param {
    lr_mult: 1
    decay_mult: 1
  }
  param {
    lr_mult: 2
    decay_mult: 0
  }
  convolution_param {
    num_output: 4096
    pad: 0
    kernel_size: 1
    stride: 1
  }
}
layer {
  name: "relu7"
  type: "ReLU"
  bottom: "fc7"
  top: "fc7"
}
layer {
  name: "drop7"
  type: "Dropout"
  bottom: "fc7"
  top: "fc7"
  dropout_param {
    dropout_ratio: 0.5
  }
}
layer {
  name: "score_fr"
  type: "Convolution"
  bottom: "fc7"
  top: "score_fr"
  param {
    lr_mult: 1
    decay_mult: 1
  }
  param {
    lr_mult: 2
    decay_mult: 0
  }
  convolution_param {
    num_output: 7
    pad: 0
    kernel_size: 1
  }
}
layer {
  name: "upscore"
  type: "Deconvolution"
  bottom: "score_fr"
  top: "upscore"
  param {
    lr_mult: 0
  }
  convolution_param {
    num_output: 7
    bias_term: false
    kernel_size: 64
    stride: 32
  }
}
layer {
  name: "score"
  type: "Crop"
  bottom: "upscore"
  bottom: "data"
  top: "score"
  crop_param {
    axis: 2
    offset: 19
  }
}
layer {
  name: "loss"
  type: "SoftmaxWithLoss"
  bottom: "score"
  bottom: "label"
  top: "loss"
  loss_param {
    ignore_label: 255
    normalize: false
  }
}
I0718 15:40:55.266535 23071 layer_factory.hpp:77] Creating layer data
I0718 15:40:55.266573 23071 net.cpp:91] Creating Layer data
I0718 15:40:55.266577 23071 net.cpp:399] data -> data
I0718 15:40:55.266582 23071 net.cpp:399] data -> label
I0718 15:40:55.773249 23071 net.cpp:141] Setting up data
I0718 15:40:55.773269 23071 net.cpp:148] Top shape: 1 3 375 500 (562500)
I0718 15:40:55.773273 23071 net.cpp:148] Top shape: 1 1 375 500 (187500)
I0718 15:40:55.773275 23071 net.cpp:156] Memory required for data: 3000000
I0718 15:40:55.773280 23071 layer_factory.hpp:77] Creating layer data_data_0_split
I0718 15:40:55.773289 23071 net.cpp:91] Creating Layer data_data_0_split
I0718 15:40:55.773291 23071 net.cpp:425] data_data_0_split <- data
I0718 15:40:55.773306 23071 net.cpp:399] data_data_0_split -> data_data_0_split_0
I0718 15:40:55.773313 23071 net.cpp:399] data_data_0_split -> data_data_0_split_1
I0718 15:40:55.773341 23071 net.cpp:141] Setting up data_data_0_split
I0718 15:40:55.773346 23071 net.cpp:148] Top shape: 1 3 375 500 (562500)
I0718 15:40:55.773349 23071 net.cpp:148] Top shape: 1 3 375 500 (562500)
I0718 15:40:55.773350 23071 net.cpp:156] Memory required for data: 7500000
I0718 15:40:55.773352 23071 layer_factory.hpp:77] Creating layer conv1_1
I0718 15:40:55.773360 23071 net.cpp:91] Creating Layer conv1_1
I0718 15:40:55.773362 23071 net.cpp:425] conv1_1 <- data_data_0_split_0
I0718 15:40:55.773365 23071 net.cpp:399] conv1_1 -> conv1_1
I0718 15:40:55.774898 23071 net.cpp:141] Setting up conv1_1
I0718 15:40:55.774909 23071 net.cpp:148] Top shape: 1 64 573 698 (25597056)
I0718 15:40:55.774910 23071 net.cpp:156] Memory required for data: 109888224
I0718 15:40:55.774919 23071 layer_factory.hpp:77] Creating layer relu1_1
I0718 15:40:55.774924 23071 net.cpp:91] Creating Layer relu1_1
I0718 15:40:55.774925 23071 net.cpp:425] relu1_1 <- conv1_1
I0718 15:40:55.774929 23071 net.cpp:386] relu1_1 -> conv1_1 (in-place)
I0718 15:40:55.775209 23071 net.cpp:141] Setting up relu1_1
I0718 15:40:55.775218 23071 net.cpp:148] Top shape: 1 64 573 698 (25597056)
I0718 15:40:55.775219 23071 net.cpp:156] Memory required for data: 212276448
I0718 15:40:55.775221 23071 layer_factory.hpp:77] Creating layer conv1_2
I0718 15:40:55.775228 23071 net.cpp:91] Creating Layer conv1_2
I0718 15:40:55.775229 23071 net.cpp:425] conv1_2 <- conv1_1
I0718 15:40:55.775233 23071 net.cpp:399] conv1_2 -> conv1_2
I0718 15:40:55.776824 23071 net.cpp:141] Setting up conv1_2
I0718 15:40:55.776834 23071 net.cpp:148] Top shape: 1 64 573 698 (25597056)
I0718 15:40:55.776837 23071 net.cpp:156] Memory required for data: 314664672
I0718 15:40:55.776844 23071 layer_factory.hpp:77] Creating layer relu1_2
I0718 15:40:55.776849 23071 net.cpp:91] Creating Layer relu1_2
I0718 15:40:55.776851 23071 net.cpp:425] relu1_2 <- conv1_2
I0718 15:40:55.776854 23071 net.cpp:386] relu1_2 -> conv1_2 (in-place)
I0718 15:40:55.776998 23071 net.cpp:141] Setting up relu1_2
I0718 15:40:55.777004 23071 net.cpp:148] Top shape: 1 64 573 698 (25597056)
I0718 15:40:55.777006 23071 net.cpp:156] Memory required for data: 417052896
I0718 15:40:55.777009 23071 layer_factory.hpp:77] Creating layer pool1
I0718 15:40:55.777012 23071 net.cpp:91] Creating Layer pool1
I0718 15:40:55.777014 23071 net.cpp:425] pool1 <- conv1_2
I0718 15:40:55.777017 23071 net.cpp:399] pool1 -> pool1
I0718 15:40:55.777060 23071 net.cpp:141] Setting up pool1
I0718 15:40:55.777065 23071 net.cpp:148] Top shape: 1 64 287 349 (6410432)
I0718 15:40:55.777066 23071 net.cpp:156] Memory required for data: 442694624
I0718 15:40:55.777076 23071 layer_factory.hpp:77] Creating layer conv2_1
I0718 15:40:55.777081 23071 net.cpp:91] Creating Layer conv2_1
I0718 15:40:55.777083 23071 net.cpp:425] conv2_1 <- pool1
I0718 15:40:55.777096 23071 net.cpp:399] conv2_1 -> conv2_1
I0718 15:40:55.778633 23071 net.cpp:141] Setting up conv2_1
I0718 15:40:55.778642 23071 net.cpp:148] Top shape: 1 128 287 349 (12820864)
I0718 15:40:55.778645 23071 net.cpp:156] Memory required for data: 493978080
I0718 15:40:55.778651 23071 layer_factory.hpp:77] Creating layer relu2_1
I0718 15:40:55.778657 23071 net.cpp:91] Creating Layer relu2_1
I0718 15:40:55.778659 23071 net.cpp:425] relu2_1 <- conv2_1
I0718 15:40:55.778662 23071 net.cpp:386] relu2_1 -> conv2_1 (in-place)
I0718 15:40:55.778952 23071 net.cpp:141] Setting up relu2_1
I0718 15:40:55.778960 23071 net.cpp:148] Top shape: 1 128 287 349 (12820864)
I0718 15:40:55.778962 23071 net.cpp:156] Memory required for data: 545261536
I0718 15:40:55.778964 23071 layer_factory.hpp:77] Creating layer conv2_2
I0718 15:40:55.778970 23071 net.cpp:91] Creating Layer conv2_2
I0718 15:40:55.778972 23071 net.cpp:425] conv2_2 <- conv2_1
I0718 15:40:55.778975 23071 net.cpp:399] conv2_2 -> conv2_2
I0718 15:40:55.780216 23071 net.cpp:141] Setting up conv2_2
I0718 15:40:55.780225 23071 net.cpp:148] Top shape: 1 128 287 349 (12820864)
I0718 15:40:55.780228 23071 net.cpp:156] Memory required for data: 596544992
I0718 15:40:55.780232 23071 layer_factory.hpp:77] Creating layer relu2_2
I0718 15:40:55.780237 23071 net.cpp:91] Creating Layer relu2_2
I0718 15:40:55.780239 23071 net.cpp:425] relu2_2 <- conv2_2
I0718 15:40:55.780242 23071 net.cpp:386] relu2_2 -> conv2_2 (in-place)
I0718 15:40:55.780503 23071 net.cpp:141] Setting up relu2_2
I0718 15:40:55.780510 23071 net.cpp:148] Top shape: 1 128 287 349 (12820864)
I0718 15:40:55.780513 23071 net.cpp:156] Memory required for data: 647828448
I0718 15:40:55.780514 23071 layer_factory.hpp:77] Creating layer pool2
I0718 15:40:55.780519 23071 net.cpp:91] Creating Layer pool2
I0718 15:40:55.780521 23071 net.cpp:425] pool2 <- conv2_2
I0718 15:40:55.780524 23071 net.cpp:399] pool2 -> pool2
I0718 15:40:55.780556 23071 net.cpp:141] Setting up pool2
I0718 15:40:55.780560 23071 net.cpp:148] Top shape: 1 128 144 175 (3225600)
I0718 15:40:55.780562 23071 net.cpp:156] Memory required for data: 660730848
I0718 15:40:55.780565 23071 layer_factory.hpp:77] Creating layer conv3_1
I0718 15:40:55.780570 23071 net.cpp:91] Creating Layer conv3_1
I0718 15:40:55.780571 23071 net.cpp:425] conv3_1 <- pool2
I0718 15:40:55.780575 23071 net.cpp:399] conv3_1 -> conv3_1
I0718 15:40:55.781919 23071 net.cpp:141] Setting up conv3_1
I0718 15:40:55.781929 23071 net.cpp:148] Top shape: 1 256 144 175 (6451200)
I0718 15:40:55.781930 23071 net.cpp:156] Memory required for data: 686535648
I0718 15:40:55.781937 23071 layer_factory.hpp:77] Creating layer relu3_1
I0718 15:40:55.781941 23071 net.cpp:91] Creating Layer relu3_1
I0718 15:40:55.781944 23071 net.cpp:425] relu3_1 <- conv3_1
I0718 15:40:55.781947 23071 net.cpp:386] relu3_1 -> conv3_1 (in-place)
I0718 15:40:55.782060 23071 net.cpp:141] Setting up relu3_1
I0718 15:40:55.782066 23071 net.cpp:148] Top shape: 1 256 144 175 (6451200)
I0718 15:40:55.782068 23071 net.cpp:156] Memory required for data: 712340448
I0718 15:40:55.782070 23071 layer_factory.hpp:77] Creating layer conv3_2
I0718 15:40:55.782075 23071 net.cpp:91] Creating Layer conv3_2
I0718 15:40:55.782078 23071 net.cpp:425] conv3_2 <- conv3_1
I0718 15:40:55.782080 23071 net.cpp:399] conv3_2 -> conv3_2
I0718 15:40:55.783885 23071 net.cpp:141] Setting up conv3_2
I0718 15:40:55.783906 23071 net.cpp:148] Top shape: 1 256 144 175 (6451200)
I0718 15:40:55.783908 23071 net.cpp:156] Memory required for data: 738145248
I0718 15:40:55.783915 23071 layer_factory.hpp:77] Creating layer relu3_2
I0718 15:40:55.783920 23071 net.cpp:91] Creating Layer relu3_2
I0718 15:40:55.783921 23071 net.cpp:425] relu3_2 <- conv3_2
I0718 15:40:55.783926 23071 net.cpp:386] relu3_2 -> conv3_2 (in-place)
I0718 15:40:55.784196 23071 net.cpp:141] Setting up relu3_2
I0718 15:40:55.784204 23071 net.cpp:148] Top shape: 1 256 144 175 (6451200)
I0718 15:40:55.784215 23071 net.cpp:156] Memory required for data: 763950048
I0718 15:40:55.784217 23071 layer_factory.hpp:77] Creating layer conv3_3
I0718 15:40:55.784225 23071 net.cpp:91] Creating Layer conv3_3
I0718 15:40:55.784227 23071 net.cpp:425] conv3_3 <- conv3_2
I0718 15:40:55.784231 23071 net.cpp:399] conv3_3 -> conv3_3
I0718 15:40:55.786074 23071 net.cpp:141] Setting up conv3_3
I0718 15:40:55.786090 23071 net.cpp:148] Top shape: 1 256 144 175 (6451200)
I0718 15:40:55.786092 23071 net.cpp:156] Memory required for data: 789754848
I0718 15:40:55.786098 23071 layer_factory.hpp:77] Creating layer relu3_3
I0718 15:40:55.786105 23071 net.cpp:91] Creating Layer relu3_3
I0718 15:40:55.786108 23071 net.cpp:425] relu3_3 <- conv3_3
I0718 15:40:55.786120 23071 net.cpp:386] relu3_3 -> conv3_3 (in-place)
I0718 15:40:55.786550 23071 net.cpp:141] Setting up relu3_3
I0718 15:40:55.786557 23071 net.cpp:148] Top shape: 1 256 144 175 (6451200)
I0718 15:40:55.786653 23071 net.cpp:156] Memory required for data: 815559648
I0718 15:40:55.786665 23071 layer_factory.hpp:77] Creating layer pool3
I0718 15:40:55.786670 23071 net.cpp:91] Creating Layer pool3
I0718 15:40:55.786672 23071 net.cpp:425] pool3 <- conv3_3
I0718 15:40:55.786684 23071 net.cpp:399] pool3 -> pool3
I0718 15:40:55.786741 23071 net.cpp:141] Setting up pool3
I0718 15:40:55.786746 23071 net.cpp:148] Top shape: 1 256 72 88 (1622016)
I0718 15:40:55.786756 23071 net.cpp:156] Memory required for data: 822047712
I0718 15:40:55.786758 23071 layer_factory.hpp:77] Creating layer conv4_1
I0718 15:40:55.786774 23071 net.cpp:91] Creating Layer conv4_1
I0718 15:40:55.786777 23071 net.cpp:425] conv4_1 <- pool3
I0718 15:40:55.786779 23071 net.cpp:399] conv4_1 -> conv4_1
I0718 15:40:55.789665 23071 net.cpp:141] Setting up conv4_1
I0718 15:40:55.789686 23071 net.cpp:148] Top shape: 1 512 72 88 (3244032)
I0718 15:40:55.789688 23071 net.cpp:156] Memory required for data: 835023840
I0718 15:40:55.789695 23071 layer_factory.hpp:77] Creating layer relu4_1
I0718 15:40:55.789703 23071 net.cpp:91] Creating Layer relu4_1
I0718 15:40:55.789706 23071 net.cpp:425] relu4_1 <- conv4_1
I0718 15:40:55.789710 23071 net.cpp:386] relu4_1 -> conv4_1 (in-place)
I0718 15:40:55.789875 23071 net.cpp:141] Setting up relu4_1
I0718 15:40:55.789882 23071 net.cpp:148] Top shape: 1 512 72 88 (3244032)
I0718 15:40:55.789885 23071 net.cpp:156] Memory required for data: 847999968
I0718 15:40:55.789886 23071 layer_factory.hpp:77] Creating layer conv4_2
I0718 15:40:55.789893 23071 net.cpp:91] Creating Layer conv4_2
I0718 15:40:55.789896 23071 net.cpp:425] conv4_2 <- conv4_1
I0718 15:40:55.789899 23071 net.cpp:399] conv4_2 -> conv4_2
I0718 15:40:55.794457 23071 net.cpp:141] Setting up conv4_2
I0718 15:40:55.794479 23071 net.cpp:148] Top shape: 1 512 72 88 (3244032)
I0718 15:40:55.794482 23071 net.cpp:156] Memory required for data: 860976096
I0718 15:40:55.794493 23071 layer_factory.hpp:77] Creating layer relu4_2
I0718 15:40:55.794502 23071 net.cpp:91] Creating Layer relu4_2
I0718 15:40:55.794504 23071 net.cpp:425] relu4_2 <- conv4_2
I0718 15:40:55.794518 23071 net.cpp:386] relu4_2 -> conv4_2 (in-place)
I0718 15:40:55.794800 23071 net.cpp:141] Setting up relu4_2
I0718 15:40:55.794807 23071 net.cpp:148] Top shape: 1 512 72 88 (3244032)
I0718 15:40:55.794809 23071 net.cpp:156] Memory required for data: 873952224
I0718 15:40:55.794812 23071 layer_factory.hpp:77] Creating layer conv4_3
I0718 15:40:55.794819 23071 net.cpp:91] Creating Layer conv4_3
I0718 15:40:55.794821 23071 net.cpp:425] conv4_3 <- conv4_2
I0718 15:40:55.794836 23071 net.cpp:399] conv4_3 -> conv4_3
I0718 15:40:55.799502 23071 net.cpp:141] Setting up conv4_3
I0718 15:40:55.799526 23071 net.cpp:148] Top shape: 1 512 72 88 (3244032)
I0718 15:40:55.799530 23071 net.cpp:156] Memory required for data: 886928352
I0718 15:40:55.799536 23071 layer_factory.hpp:77] Creating layer relu4_3
I0718 15:40:55.799545 23071 net.cpp:91] Creating Layer relu4_3
I0718 15:40:55.799547 23071 net.cpp:425] relu4_3 <- conv4_3
I0718 15:40:55.799552 23071 net.cpp:386] relu4_3 -> conv4_3 (in-place)
I0718 15:40:55.799824 23071 net.cpp:141] Setting up relu4_3
I0718 15:40:55.799831 23071 net.cpp:148] Top shape: 1 512 72 88 (3244032)
I0718 15:40:55.799834 23071 net.cpp:156] Memory required for data: 899904480
I0718 15:40:55.799835 23071 layer_factory.hpp:77] Creating layer pool4
I0718 15:40:55.799840 23071 net.cpp:91] Creating Layer pool4
I0718 15:40:55.799842 23071 net.cpp:425] pool4 <- conv4_3
I0718 15:40:55.799847 23071 net.cpp:399] pool4 -> pool4
I0718 15:40:55.799881 23071 net.cpp:141] Setting up pool4
I0718 15:40:55.799886 23071 net.cpp:148] Top shape: 1 512 36 44 (811008)
I0718 15:40:55.799887 23071 net.cpp:156] Memory required for data: 903148512
I0718 15:40:55.799890 23071 layer_factory.hpp:77] Creating layer conv5_1
I0718 15:40:55.799897 23071 net.cpp:91] Creating Layer conv5_1
I0718 15:40:55.799899 23071 net.cpp:425] conv5_1 <- pool4
I0718 15:40:55.799902 23071 net.cpp:399] conv5_1 -> conv5_1
I0718 15:40:55.805233 23071 net.cpp:141] Setting up conv5_1
I0718 15:40:55.805263 23071 net.cpp:148] Top shape: 1 512 36 44 (811008)
I0718 15:40:55.805266 23071 net.cpp:156] Memory required for data: 906392544
I0718 15:40:55.805274 23071 layer_factory.hpp:77] Creating layer relu5_1
I0718 15:40:55.805280 23071 net.cpp:91] Creating Layer relu5_1
I0718 15:40:55.805284 23071 net.cpp:425] relu5_1 <- conv5_1
I0718 15:40:55.805299 23071 net.cpp:386] relu5_1 -> conv5_1 (in-place)
I0718 15:40:55.805447 23071 net.cpp:141] Setting up relu5_1
I0718 15:40:55.805454 23071 net.cpp:148] Top shape: 1 512 36 44 (811008)
I0718 15:40:55.805464 23071 net.cpp:156] Memory required for data: 909636576
I0718 15:40:55.805467 23071 layer_factory.hpp:77] Creating layer conv5_2
I0718 15:40:55.805474 23071 net.cpp:91] Creating Layer conv5_2
I0718 15:40:55.805476 23071 net.cpp:425] conv5_2 <- conv5_1
I0718 15:40:55.805490 23071 net.cpp:399] conv5_2 -> conv5_2
I0718 15:40:55.810276 23071 net.cpp:141] Setting up conv5_2
I0718 15:40:55.810310 23071 net.cpp:148] Top shape: 1 512 36 44 (811008)
I0718 15:40:55.810313 23071 net.cpp:156] Memory required for data: 912880608
I0718 15:40:55.810320 23071 layer_factory.hpp:77] Creating layer relu5_2
I0718 15:40:55.810328 23071 net.cpp:91] Creating Layer relu5_2
I0718 15:40:55.810331 23071 net.cpp:425] relu5_2 <- conv5_2
I0718 15:40:55.810348 23071 net.cpp:386] relu5_2 -> conv5_2 (in-place)
I0718 15:40:55.810647 23071 net.cpp:141] Setting up relu5_2
I0718 15:40:55.810653 23071 net.cpp:148] Top shape: 1 512 36 44 (811008)
I0718 15:40:55.810665 23071 net.cpp:156] Memory required for data: 916124640
I0718 15:40:55.810667 23071 layer_factory.hpp:77] Creating layer conv5_3
I0718 15:40:55.810677 23071 net.cpp:91] Creating Layer conv5_3
I0718 15:40:55.810678 23071 net.cpp:425] conv5_3 <- conv5_2
I0718 15:40:55.810693 23071 net.cpp:399] conv5_3 -> conv5_3
I0718 15:40:55.815161 23071 net.cpp:141] Setting up conv5_3
I0718 15:40:55.815196 23071 net.cpp:148] Top shape: 1 512 36 44 (811008)
I0718 15:40:55.815199 23071 net.cpp:156] Memory required for data: 919368672
I0718 15:40:55.815207 23071 layer_factory.hpp:77] Creating layer relu5_3
I0718 15:40:55.815215 23071 net.cpp:91] Creating Layer relu5_3
I0718 15:40:55.815218 23071 net.cpp:425] relu5_3 <- conv5_3
I0718 15:40:55.815233 23071 net.cpp:386] relu5_3 -> conv5_3 (in-place)
I0718 15:40:55.815531 23071 net.cpp:141] Setting up relu5_3
I0718 15:40:55.815538 23071 net.cpp:148] Top shape: 1 512 36 44 (811008)
I0718 15:40:55.815549 23071 net.cpp:156] Memory required for data: 922612704
I0718 15:40:55.815552 23071 layer_factory.hpp:77] Creating layer pool5
I0718 15:40:55.815560 23071 net.cpp:91] Creating Layer pool5
I0718 15:40:55.815562 23071 net.cpp:425] pool5 <- conv5_3
I0718 15:40:55.815577 23071 net.cpp:399] pool5 -> pool5
I0718 15:40:55.815623 23071 net.cpp:141] Setting up pool5
I0718 15:40:55.815636 23071 net.cpp:148] Top shape: 1 512 18 22 (202752)
I0718 15:40:55.815637 23071 net.cpp:156] Memory required for data: 923423712
I0718 15:40:55.815639 23071 layer_factory.hpp:77] Creating layer fc6
I0718 15:40:55.815656 23071 net.cpp:91] Creating Layer fc6
I0718 15:40:55.815659 23071 net.cpp:425] fc6 <- pool5
I0718 15:40:55.815662 23071 net.cpp:399] fc6 -> fc6
I0718 15:40:55.962641 23071 net.cpp:141] Setting up fc6
I0718 15:40:55.962664 23071 net.cpp:148] Top shape: 1 4096 12 16 (786432)
I0718 15:40:55.962667 23071 net.cpp:156] Memory required for data: 926569440
I0718 15:40:55.962676 23071 layer_factory.hpp:77] Creating layer relu6
I0718 15:40:55.962684 23071 net.cpp:91] Creating Layer relu6
I0718 15:40:55.962688 23071 net.cpp:425] relu6 <- fc6
I0718 15:40:55.962702 23071 net.cpp:386] relu6 -> fc6 (in-place)
I0718 15:40:55.963001 23071 net.cpp:141] Setting up relu6
I0718 15:40:55.963011 23071 net.cpp:148] Top shape: 1 4096 12 16 (786432)
I0718 15:40:55.963012 23071 net.cpp:156] Memory required for data: 929715168
I0718 15:40:55.963016 23071 layer_factory.hpp:77] Creating layer drop6
I0718 15:40:55.963021 23071 net.cpp:91] Creating Layer drop6
I0718 15:40:55.963022 23071 net.cpp:425] drop6 <- fc6
I0718 15:40:55.963027 23071 net.cpp:386] drop6 -> fc6 (in-place)
I0718 15:40:55.963070 23071 net.cpp:141] Setting up drop6
I0718 15:40:55.963075 23071 net.cpp:148] Top shape: 1 4096 12 16 (786432)
I0718 15:40:55.963078 23071 net.cpp:156] Memory required for data: 932860896
I0718 15:40:55.963088 23071 layer_factory.hpp:77] Creating layer fc7
I0718 15:40:55.963095 23071 net.cpp:91] Creating Layer fc7
I0718 15:40:55.963106 23071 net.cpp:425] fc7 <- fc6
I0718 15:40:55.963110 23071 net.cpp:399] fc7 -> fc7
I0718 15:40:55.988932 23071 net.cpp:141] Setting up fc7
I0718 15:40:55.988955 23071 net.cpp:148] Top shape: 1 4096 12 16 (786432)
I0718 15:40:55.988958 23071 net.cpp:156] Memory required for data: 936006624
I0718 15:40:55.988965 23071 layer_factory.hpp:77] Creating layer relu7
I0718 15:40:55.988972 23071 net.cpp:91] Creating Layer relu7
I0718 15:40:55.988976 23071 net.cpp:425] relu7 <- fc7
I0718 15:40:55.988981 23071 net.cpp:386] relu7 -> fc7 (in-place)
I0718 15:40:55.989284 23071 net.cpp:141] Setting up relu7
I0718 15:40:55.989290 23071 net.cpp:148] Top shape: 1 4096 12 16 (786432)
I0718 15:40:55.989302 23071 net.cpp:156] Memory required for data: 939152352
I0718 15:40:55.989305 23071 layer_factory.hpp:77] Creating layer drop7
I0718 15:40:55.989310 23071 net.cpp:91] Creating Layer drop7
I0718 15:40:55.989312 23071 net.cpp:425] drop7 <- fc7
I0718 15:40:55.989316 23071 net.cpp:386] drop7 -> fc7 (in-place)
I0718 15:40:55.989353 23071 net.cpp:141] Setting up drop7
I0718 15:40:55.989358 23071 net.cpp:148] Top shape: 1 4096 12 16 (786432)
I0718 15:40:55.989361 23071 net.cpp:156] Memory required for data: 942298080
I0718 15:40:55.989373 23071 layer_factory.hpp:77] Creating layer score_fr
I0718 15:40:55.989380 23071 net.cpp:91] Creating Layer score_fr
I0718 15:40:55.989382 23071 net.cpp:425] score_fr <- fc7
I0718 15:40:55.989385 23071 net.cpp:399] score_fr -> score_fr
I0718 15:40:55.990597 23071 net.cpp:141] Setting up score_fr
I0718 15:40:55.990607 23071 net.cpp:148] Top shape: 1 7 12 16 (1344)
I0718 15:40:55.990608 23071 net.cpp:156] Memory required for data: 942303456
I0718 15:40:55.990612 23071 layer_factory.hpp:77] Creating layer upscore
I0718 15:40:55.990618 23071 net.cpp:91] Creating Layer upscore
I0718 15:40:55.990622 23071 net.cpp:425] upscore <- score_fr
I0718 15:40:55.990634 23071 net.cpp:399] upscore -> upscore
I0718 15:40:55.991214 23071 net.cpp:141] Setting up upscore
I0718 15:40:55.991221 23071 net.cpp:148] Top shape: 1 7 416 544 (1584128)
I0718 15:40:55.991224 23071 net.cpp:156] Memory required for data: 948639968
I0718 15:40:55.991231 23071 layer_factory.hpp:77] Creating layer score
I0718 15:40:55.991236 23071 net.cpp:91] Creating Layer score
I0718 15:40:55.991238 23071 net.cpp:425] score <- upscore
I0718 15:40:55.991241 23071 net.cpp:425] score <- data_data_0_split_1
I0718 15:40:55.991255 23071 net.cpp:399] score -> score
I0718 15:40:55.991276 23071 net.cpp:141] Setting up score
I0718 15:40:55.991281 23071 net.cpp:148] Top shape: 1 7 375 500 (1312500)
I0718 15:40:55.991281 23071 net.cpp:156] Memory required for data: 953889968
I0718 15:40:55.991284 23071 layer_factory.hpp:77] Creating layer loss
I0718 15:40:55.991289 23071 net.cpp:91] Creating Layer loss
I0718 15:40:55.991291 23071 net.cpp:425] loss <- score
I0718 15:40:55.991293 23071 net.cpp:425] loss <- label
I0718 15:40:55.991297 23071 net.cpp:399] loss -> loss
I0718 15:40:55.991302 23071 layer_factory.hpp:77] Creating layer loss
…
