…
I0811 12:22:16.990101 15518 solver.cpp:81] Creating training net from train_net file: /home/cv/hdl/caffe/training/pascalpart-fcn16s/person/head/train.prototxt
I0811 12:22:16.990767 15518 net.cpp:49] Initializing net from parameters: 
state {
  phase: TRAIN
}
layer {
  name: "data"
  type: "Python"
  top: "data"
  top: "label"
  python_param {
    module: "pascalpart_layers"
    layer: "PASCALPartSegDataLayer"
    param_str: "{\'part\': \'head\', \'obj_cls\': \'person\', \'split\': \'train\', \'part_dir\': \'/home/cv/hdl/caffe/data/pascal/pascal-part\', \'seed\': 1337, \'voc_dir\': \'/home/cv/hdl/caffe/data/pascal/VOC\'}"
  }
}
layer {
  name: "conv1_1"
  type: "Convolution"
  bottom: "data"
  top: "conv1_1"
  param {
    lr_mult: 1
    decay_mult: 1
  }
  param {
    lr_mult: 2
    decay_mult: 0
  }
  convolution_param {
    num_output: 64
    pad: 100
    kernel_size: 3
    stride: 1
  }
}
layer {
  name: "relu1_1"
  type: "ReLU"
  bottom: "conv1_1"
  top: "conv1_1"
}
layer {
  name: "conv1_2"
  type: "Convolution"
  bottom: "conv1_1"
  top: "conv1_2"
  param {
    lr_mult: 1
    decay_mult: 1
  }
  param {
    lr_mult: 2
    decay_mult: 0
  }
  convolution_param {
    num_output: 64
    pad: 1
    kernel_size: 3
    stride: 1
  }
}
layer {
  name: "relu1_2"
  type: "ReLU"
  bottom: "conv1_2"
  top: "conv1_2"
}
layer {
  name: "pool1"
  type: "Pooling"
  bottom: "conv1_2"
  top: "pool1"
  pooling_param {
    pool: MAX
    kernel_size: 2
    stride: 2
  }
}
layer {
  name: "conv2_1"
  type: "Convolution"
  bottom: "pool1"
  top: "conv2_1"
  param {
    lr_mult: 1
    decay_mult: 1
  }
  param {
    lr_mult: 2
    decay_mult: 0
  }
  convolution_param {
    num_output: 128
    pad: 1
    kernel_size: 3
    stride: 1
  }
}
layer {
  name: "relu2_1"
  type: "ReLU"
  bottom: "conv2_1"
  top: "conv2_1"
}
layer {
  name: "conv2_2"
  type: "Convolution"
  bottom: "conv2_1"
  top: "conv2_2"
  param {
    lr_mult: 1
    decay_mult: 1
  }
  param {
    lr_mult: 2
    decay_mult: 0
  }
  convolution_param {
    num_output: 128
    pad: 1
    kernel_size: 3
    stride: 1
  }
}
layer {
  name: "relu2_2"
  type: "ReLU"
  bottom: "conv2_2"
  top: "conv2_2"
}
layer {
  name: "pool2"
  type: "Pooling"
  bottom: "conv2_2"
  top: "pool2"
  pooling_param {
    pool: MAX
    kernel_size: 2
    stride: 2
  }
}
layer {
  name: "conv3_1"
  type: "Convolution"
  bottom: "pool2"
  top: "conv3_1"
  param {
    lr_mult: 1
    decay_mult: 1
  }
  param {
    lr_mult: 2
    decay_mult: 0
  }
  convolution_param {
    num_output: 256
    pad: 1
    kernel_size: 3
    stride: 1
  }
}
layer {
  name: "relu3_1"
  type: "ReLU"
  bottom: "conv3_1"
  top: "conv3_1"
}
layer {
  name: "conv3_2"
  type: "Convolution"
  bottom: "conv3_1"
  top: "conv3_2"
  param {
    lr_mult: 1
    decay_mult: 1
  }
  param {
    lr_mult: 2
    decay_mult: 0
  }
  convolution_param {
    num_output: 256
    pad: 1
    kernel_size: 3
    stride: 1
  }
}
layer {
  name: "relu3_2"
  type: "ReLU"
  bottom: "conv3_2"
  top: "conv3_2"
}
layer {
  name: "conv3_3"
  type: "Convolution"
  bottom: "conv3_2"
  top: "conv3_3"
  param {
    lr_mult: 1
    decay_mult: 1
  }
  param {
    lr_mult: 2
    decay_mult: 0
  }
  convolution_param {
    num_output: 256
    pad: 1
    kernel_size: 3
    stride: 1
  }
}
layer {
  name: "relu3_3"
  type: "ReLU"
  bottom: "conv3_3"
  top: "conv3_3"
}
layer {
  name: "pool3"
  type: "Pooling"
  bottom: "conv3_3"
  top: "pool3"
  pooling_param {
    pool: MAX
    kernel_size: 2
    stride: 2
  }
}
layer {
  name: "conv4_1"
  type: "Convolution"
  bottom: "pool3"
  top: "conv4_1"
  param {
    lr_mult: 1
    decay_mult: 1
  }
  param {
    lr_mult: 2
    decay_mult: 0
  }
  convolution_param {
    num_output: 512
    pad: 1
    kernel_size: 3
    stride: 1
  }
}
layer {
  name: "relu4_1"
  type: "ReLU"
  bottom: "conv4_1"
  top: "conv4_1"
}
layer {
  name: "conv4_2"
  type: "Convolution"
  bottom: "conv4_1"
  top: "conv4_2"
  param {
    lr_mult: 1
    decay_mult: 1
  }
  param {
    lr_mult: 2
    decay_mult: 0
  }
  convolution_param {
    num_output: 512
    pad: 1
    kernel_size: 3
    stride: 1
  }
}
layer {
  name: "relu4_2"
  type: "ReLU"
  bottom: "conv4_2"
  top: "conv4_2"
}
layer {
  name: "conv4_3"
  type: "Convolution"
  bottom: "conv4_2"
  top: "conv4_3"
  param {
    lr_mult: 1
    decay_mult: 1
  }
  param {
    lr_mult: 2
    decay_mult: 0
  }
  convolution_param {
    num_output: 512
    pad: 1
    kernel_size: 3
    stride: 1
  }
}
layer {
  name: "relu4_3"
  type: "ReLU"
  bottom: "conv4_3"
  top: "conv4_3"
}
layer {
  name: "pool4"
  type: "Pooling"
  bottom: "conv4_3"
  top: "pool4"
  pooling_param {
    pool: MAX
    kernel_size: 2
    stride: 2
  }
}
layer {
  name: "conv5_1"
  type: "Convolution"
  bottom: "pool4"
  top: "conv5_1"
  param {
    lr_mult: 1
    decay_mult: 1
  }
  param {
    lr_mult: 2
    decay_mult: 0
  }
  convolution_param {
    num_output: 512
    pad: 1
    kernel_size: 3
    stride: 1
  }
}
layer {
  name: "relu5_1"
  type: "ReLU"
  bottom: "conv5_1"
  top: "conv5_1"
}
layer {
  name: "conv5_2"
  type: "Convolution"
  bottom: "conv5_1"
  top: "conv5_2"
  param {
    lr_mult: 1
    decay_mult: 1
  }
  param {
    lr_mult: 2
    decay_mult: 0
  }
  convolution_param {
    num_output: 512
    pad: 1
    kernel_size: 3
    stride: 1
  }
}
layer {
  name: "relu5_2"
  type: "ReLU"
  bottom: "conv5_2"
  top: "conv5_2"
}
layer {
  name: "conv5_3"
  type: "Convolution"
  bottom: "conv5_2"
  top: "conv5_3"
  param {
    lr_mult: 1
    decay_mult: 1
  }
  param {
    lr_mult: 2
    decay_mult: 0
  }
  convolution_param {
    num_output: 512
    pad: 1
    kernel_size: 3
    stride: 1
  }
}
layer {
  name: "relu5_3"
  type: "ReLU"
  bottom: "conv5_3"
  top: "conv5_3"
}
layer {
  name: "pool5"
  type: "Pooling"
  bottom: "conv5_3"
  top: "pool5"
  pooling_param {
    pool: MAX
    kernel_size: 2
    stride: 2
  }
}
layer {
  name: "fc6"
  type: "Convolution"
  bottom: "pool5"
  top: "fc6"
  param {
    lr_mult: 1
    decay_mult: 1
  }
  param {
    lr_mult: 2
    decay_mult: 0
  }
  convolution_param {
    num_output: 4096
    pad: 0
    kernel_size: 7
    stride: 1
  }
}
layer {
  name: "relu6"
  type: "ReLU"
  bottom: "fc6"
  top: "fc6"
}
layer {
  name: "drop6"
  type: "Dropout"
  bottom: "fc6"
  top: "fc6"
  dropout_param {
    dropout_ratio: 0.5
  }
}
layer {
  name: "fc7"
  type: "Convolution"
  bottom: "fc6"
  top: "fc7"
  param {
    lr_mult: 1
    decay_mult: 1
  }
  param {
    lr_mult: 2
    decay_mult: 0
  }
  convolution_param {
    num_output: 4096
    pad: 0
    kernel_size: 1
    stride: 1
  }
}
layer {
  name: "relu7"
  type: "ReLU"
  bottom: "fc7"
  top: "fc7"
}
layer {
  name: "drop7"
  type: "Dropout"
  bottom: "fc7"
  top: "fc7"
  dropout_param {
    dropout_ratio: 0.5
  }
}
layer {
  name: "score_fr"
  type: "Convolution"
  bottom: "fc7"
  top: "score_fr"
  param {
    lr_mult: 1
    decay_mult: 1
  }
  param {
    lr_mult: 2
    decay_mult: 0
  }
  convolution_param {
    num_output: 11
    pad: 0
    kernel_size: 1
  }
}
layer {
  name: "upscore2"
  type: "Deconvolution"
  bottom: "score_fr"
  top: "upscore2"
  param {
    lr_mult: 0
  }
  convolution_param {
    num_output: 11
    bias_term: false
    kernel_size: 4
    stride: 2
  }
}
layer {
  name: "score_pool4"
  type: "Convolution"
  bottom: "pool4"
  top: "score_pool4"
  param {
    lr_mult: 1
    decay_mult: 1
  }
  param {
    lr_mult: 2
    decay_mult: 0
  }
  convolution_param {
    num_output: 11
    pad: 0
    kernel_size: 1
  }
}
layer {
  name: "score_pool4c"
  type: "Crop"
  bottom: "score_pool4"
  bottom: "upscore2"
  top: "score_pool4c"
  crop_param {
    axis: 2
    offset: 5
  }
}
layer {
  name: "fuse_pool4"
  type: "Eltwise"
  bottom: "upscore2"
  bottom: "score_pool4c"
  top: "fuse_pool4"
  eltwise_param {
    operation: SUM
  }
}
layer {
  name: "upscore16"
  type: "Deconvolution"
  bottom: "fuse_pool4"
  top: "upscore16"
  param {
    lr_mult: 0
  }
  convolution_param {
    num_output: 11
    bias_term: false
    kernel_size: 32
    stride: 16
  }
}
layer {
  name: "score"
  type: "Crop"
  bottom: "upscore16"
  bottom: "data"
  top: "score"
  crop_param {
    axis: 2
    offset: 27
  }
}
layer {
  name: "loss"
  type: "SoftmaxWithLoss"
  bottom: "score"
  bottom: "label"
  top: "loss"
  loss_param {
    ignore_label: 255
    normalize: false
  }
}
I0811 12:22:16.990895 15518 layer_factory.hpp:77] Creating layer data
I0811 12:22:16.995108 15518 net.cpp:91] Creating Layer data
I0811 12:22:16.995120 15518 net.cpp:399] data -> data
I0811 12:22:16.995126 15518 net.cpp:399] data -> label
I0811 12:22:17.489245 15518 net.cpp:141] Setting up data
I0811 12:22:17.489269 15518 net.cpp:148] Top shape: 1 3 377 500 (565500)
I0811 12:22:17.489272 15518 net.cpp:148] Top shape: 1 1 377 500 (188500)
I0811 12:22:17.489274 15518 net.cpp:156] Memory required for data: 3016000
I0811 12:22:17.489280 15518 layer_factory.hpp:77] Creating layer data_data_0_split
I0811 12:22:17.489294 15518 net.cpp:91] Creating Layer data_data_0_split
I0811 12:22:17.489305 15518 net.cpp:425] data_data_0_split <- data
I0811 12:22:17.489310 15518 net.cpp:399] data_data_0_split -> data_data_0_split_0
I0811 12:22:17.489320 15518 net.cpp:399] data_data_0_split -> data_data_0_split_1
I0811 12:22:17.489344 15518 net.cpp:141] Setting up data_data_0_split
I0811 12:22:17.489349 15518 net.cpp:148] Top shape: 1 3 377 500 (565500)
I0811 12:22:17.489351 15518 net.cpp:148] Top shape: 1 3 377 500 (565500)
I0811 12:22:17.489353 15518 net.cpp:156] Memory required for data: 7540000
I0811 12:22:17.489356 15518 layer_factory.hpp:77] Creating layer conv1_1
I0811 12:22:17.489363 15518 net.cpp:91] Creating Layer conv1_1
I0811 12:22:17.489365 15518 net.cpp:425] conv1_1 <- data_data_0_split_0
I0811 12:22:17.489369 15518 net.cpp:399] conv1_1 -> conv1_1
I0811 12:22:17.898041 15518 net.cpp:141] Setting up conv1_1
I0811 12:22:17.898073 15518 net.cpp:148] Top shape: 1 64 575 698 (25686400)
I0811 12:22:17.898077 15518 net.cpp:156] Memory required for data: 110285600
I0811 12:22:17.898088 15518 layer_factory.hpp:77] Creating layer relu1_1
I0811 12:22:17.898097 15518 net.cpp:91] Creating Layer relu1_1
I0811 12:22:17.898100 15518 net.cpp:425] relu1_1 <- conv1_1
I0811 12:22:17.898104 15518 net.cpp:386] relu1_1 -> conv1_1 (in-place)
I0811 12:22:17.898366 15518 net.cpp:141] Setting up relu1_1
I0811 12:22:17.898375 15518 net.cpp:148] Top shape: 1 64 575 698 (25686400)
I0811 12:22:17.898386 15518 net.cpp:156] Memory required for data: 213031200
I0811 12:22:17.898389 15518 layer_factory.hpp:77] Creating layer conv1_2
I0811 12:22:17.898398 15518 net.cpp:91] Creating Layer conv1_2
I0811 12:22:17.898401 15518 net.cpp:425] conv1_2 <- conv1_1
I0811 12:22:17.898404 15518 net.cpp:399] conv1_2 -> conv1_2
I0811 12:22:17.900195 15518 net.cpp:141] Setting up conv1_2
I0811 12:22:17.900207 15518 net.cpp:148] Top shape: 1 64 575 698 (25686400)
I0811 12:22:17.900208 15518 net.cpp:156] Memory required for data: 315776800
I0811 12:22:17.900215 15518 layer_factory.hpp:77] Creating layer relu1_2
I0811 12:22:17.900220 15518 net.cpp:91] Creating Layer relu1_2
I0811 12:22:17.900223 15518 net.cpp:425] relu1_2 <- conv1_2
I0811 12:22:17.900225 15518 net.cpp:386] relu1_2 -> conv1_2 (in-place)
I0811 12:22:17.900495 15518 net.cpp:141] Setting up relu1_2
I0811 12:22:17.900502 15518 net.cpp:148] Top shape: 1 64 575 698 (25686400)
I0811 12:22:17.900504 15518 net.cpp:156] Memory required for data: 418522400
I0811 12:22:17.900506 15518 layer_factory.hpp:77] Creating layer pool1
I0811 12:22:17.900511 15518 net.cpp:91] Creating Layer pool1
I0811 12:22:17.900514 15518 net.cpp:425] pool1 <- conv1_2
I0811 12:22:17.900517 15518 net.cpp:399] pool1 -> pool1
I0811 12:22:17.900555 15518 net.cpp:141] Setting up pool1
I0811 12:22:17.900562 15518 net.cpp:148] Top shape: 1 64 288 349 (6432768)
I0811 12:22:17.900563 15518 net.cpp:156] Memory required for data: 444253472
I0811 12:22:17.900565 15518 layer_factory.hpp:77] Creating layer conv2_1
I0811 12:22:17.900570 15518 net.cpp:91] Creating Layer conv2_1
I0811 12:22:17.900573 15518 net.cpp:425] conv2_1 <- pool1
I0811 12:22:17.900575 15518 net.cpp:399] conv2_1 -> conv2_1
I0811 12:22:17.901980 15518 net.cpp:141] Setting up conv2_1
I0811 12:22:17.901990 15518 net.cpp:148] Top shape: 1 128 288 349 (12865536)
I0811 12:22:17.901993 15518 net.cpp:156] Memory required for data: 495715616
I0811 12:22:17.901999 15518 layer_factory.hpp:77] Creating layer relu2_1
I0811 12:22:17.902004 15518 net.cpp:91] Creating Layer relu2_1
I0811 12:22:17.902006 15518 net.cpp:425] relu2_1 <- conv2_1
I0811 12:22:17.902022 15518 net.cpp:386] relu2_1 -> conv2_1 (in-place)
I0811 12:22:17.902144 15518 net.cpp:141] Setting up relu2_1
I0811 12:22:17.902149 15518 net.cpp:148] Top shape: 1 128 288 349 (12865536)
I0811 12:22:17.902151 15518 net.cpp:156] Memory required for data: 547177760
I0811 12:22:17.902153 15518 layer_factory.hpp:77] Creating layer conv2_2
I0811 12:22:17.902159 15518 net.cpp:91] Creating Layer conv2_2
I0811 12:22:17.902161 15518 net.cpp:425] conv2_2 <- conv2_1
I0811 12:22:17.902165 15518 net.cpp:399] conv2_2 -> conv2_2
I0811 12:22:17.903551 15518 net.cpp:141] Setting up conv2_2
I0811 12:22:17.903560 15518 net.cpp:148] Top shape: 1 128 288 349 (12865536)
I0811 12:22:17.903563 15518 net.cpp:156] Memory required for data: 598639904
I0811 12:22:17.903568 15518 layer_factory.hpp:77] Creating layer relu2_2
I0811 12:22:17.903571 15518 net.cpp:91] Creating Layer relu2_2
I0811 12:22:17.903573 15518 net.cpp:425] relu2_2 <- conv2_2
I0811 12:22:17.903576 15518 net.cpp:386] relu2_2 -> conv2_2 (in-place)
I0811 12:22:17.903853 15518 net.cpp:141] Setting up relu2_2
I0811 12:22:17.903861 15518 net.cpp:148] Top shape: 1 128 288 349 (12865536)
I0811 12:22:17.903863 15518 net.cpp:156] Memory required for data: 650102048
I0811 12:22:17.903866 15518 layer_factory.hpp:77] Creating layer pool2
I0811 12:22:17.903869 15518 net.cpp:91] Creating Layer pool2
I0811 12:22:17.903872 15518 net.cpp:425] pool2 <- conv2_2
I0811 12:22:17.903874 15518 net.cpp:399] pool2 -> pool2
I0811 12:22:17.903913 15518 net.cpp:141] Setting up pool2
I0811 12:22:17.903918 15518 net.cpp:148] Top shape: 1 128 144 175 (3225600)
I0811 12:22:17.903918 15518 net.cpp:156] Memory required for data: 663004448
I0811 12:22:17.903920 15518 layer_factory.hpp:77] Creating layer conv3_1
I0811 12:22:17.903926 15518 net.cpp:91] Creating Layer conv3_1
I0811 12:22:17.903928 15518 net.cpp:425] conv3_1 <- pool2
I0811 12:22:17.903933 15518 net.cpp:399] conv3_1 -> conv3_1
I0811 12:22:17.905206 15518 net.cpp:141] Setting up conv3_1
I0811 12:22:17.905215 15518 net.cpp:148] Top shape: 1 256 144 175 (6451200)
I0811 12:22:17.905217 15518 net.cpp:156] Memory required for data: 688809248
I0811 12:22:17.905225 15518 layer_factory.hpp:77] Creating layer relu3_1
I0811 12:22:17.905228 15518 net.cpp:91] Creating Layer relu3_1
I0811 12:22:17.905230 15518 net.cpp:425] relu3_1 <- conv3_1
I0811 12:22:17.905233 15518 net.cpp:386] relu3_1 -> conv3_1 (in-place)
I0811 12:22:17.905489 15518 net.cpp:141] Setting up relu3_1
I0811 12:22:17.905496 15518 net.cpp:148] Top shape: 1 256 144 175 (6451200)
I0811 12:22:17.905498 15518 net.cpp:156] Memory required for data: 714614048
I0811 12:22:17.905501 15518 layer_factory.hpp:77] Creating layer conv3_2
I0811 12:22:17.905506 15518 net.cpp:91] Creating Layer conv3_2
I0811 12:22:17.905508 15518 net.cpp:425] conv3_2 <- conv3_1
I0811 12:22:17.905514 15518 net.cpp:399] conv3_2 -> conv3_2
I0811 12:22:17.907182 15518 net.cpp:141] Setting up conv3_2
I0811 12:22:17.907193 15518 net.cpp:148] Top shape: 1 256 144 175 (6451200)
I0811 12:22:17.907196 15518 net.cpp:156] Memory required for data: 740418848
I0811 12:22:17.907201 15518 layer_factory.hpp:77] Creating layer relu3_2
I0811 12:22:17.907205 15518 net.cpp:91] Creating Layer relu3_2
I0811 12:22:17.907208 15518 net.cpp:425] relu3_2 <- conv3_2
I0811 12:22:17.907212 15518 net.cpp:386] relu3_2 -> conv3_2 (in-place)
I0811 12:22:17.907322 15518 net.cpp:141] Setting up relu3_2
I0811 12:22:17.907327 15518 net.cpp:148] Top shape: 1 256 144 175 (6451200)
I0811 12:22:17.907330 15518 net.cpp:156] Memory required for data: 766223648
I0811 12:22:17.907331 15518 layer_factory.hpp:77] Creating layer conv3_3
I0811 12:22:17.907340 15518 net.cpp:91] Creating Layer conv3_3
I0811 12:22:17.907341 15518 net.cpp:425] conv3_3 <- conv3_2
I0811 12:22:17.907346 15518 net.cpp:399] conv3_3 -> conv3_3
I0811 12:22:17.909198 15518 net.cpp:141] Setting up conv3_3
I0811 12:22:17.909219 15518 net.cpp:148] Top shape: 1 256 144 175 (6451200)
I0811 12:22:17.909221 15518 net.cpp:156] Memory required for data: 792028448
I0811 12:22:17.909226 15518 layer_factory.hpp:77] Creating layer relu3_3
I0811 12:22:17.909232 15518 net.cpp:91] Creating Layer relu3_3
I0811 12:22:17.909235 15518 net.cpp:425] relu3_3 <- conv3_3
I0811 12:22:17.909240 15518 net.cpp:386] relu3_3 -> conv3_3 (in-place)
I0811 12:22:17.909513 15518 net.cpp:141] Setting up relu3_3
I0811 12:22:17.909521 15518 net.cpp:148] Top shape: 1 256 144 175 (6451200)
I0811 12:22:17.909533 15518 net.cpp:156] Memory required for data: 817833248
I0811 12:22:17.909535 15518 layer_factory.hpp:77] Creating layer pool3
I0811 12:22:17.909543 15518 net.cpp:91] Creating Layer pool3
I0811 12:22:17.909545 15518 net.cpp:425] pool3 <- conv3_3
I0811 12:22:17.909548 15518 net.cpp:399] pool3 -> pool3
I0811 12:22:17.909589 15518 net.cpp:141] Setting up pool3
I0811 12:22:17.909592 15518 net.cpp:148] Top shape: 1 256 72 88 (1622016)
I0811 12:22:17.909595 15518 net.cpp:156] Memory required for data: 824321312
I0811 12:22:17.909606 15518 layer_factory.hpp:77] Creating layer conv4_1
I0811 12:22:17.909613 15518 net.cpp:91] Creating Layer conv4_1
I0811 12:22:17.909615 15518 net.cpp:425] conv4_1 <- pool3
I0811 12:22:17.909618 15518 net.cpp:399] conv4_1 -> conv4_1
I0811 12:22:17.913460 15518 net.cpp:141] Setting up conv4_1
I0811 12:22:17.913489 15518 net.cpp:148] Top shape: 1 512 72 88 (3244032)
I0811 12:22:17.913492 15518 net.cpp:156] Memory required for data: 837297440
I0811 12:22:17.913499 15518 layer_factory.hpp:77] Creating layer relu4_1
I0811 12:22:17.913508 15518 net.cpp:91] Creating Layer relu4_1
I0811 12:22:17.913522 15518 net.cpp:425] relu4_1 <- conv4_1
I0811 12:22:17.913527 15518 net.cpp:386] relu4_1 -> conv4_1 (in-place)
I0811 12:22:17.914036 15518 net.cpp:141] Setting up relu4_1
I0811 12:22:17.914043 15518 net.cpp:148] Top shape: 1 512 72 88 (3244032)
I0811 12:22:17.914046 15518 net.cpp:156] Memory required for data: 850273568
I0811 12:22:17.914047 15518 layer_factory.hpp:77] Creating layer conv4_2
I0811 12:22:17.914055 15518 net.cpp:91] Creating Layer conv4_2
I0811 12:22:17.914057 15518 net.cpp:425] conv4_2 <- conv4_1
I0811 12:22:17.914062 15518 net.cpp:399] conv4_2 -> conv4_2
I0811 12:22:17.918715 15518 net.cpp:141] Setting up conv4_2
I0811 12:22:17.918740 15518 net.cpp:148] Top shape: 1 512 72 88 (3244032)
I0811 12:22:17.918742 15518 net.cpp:156] Memory required for data: 863249696
I0811 12:22:17.918753 15518 layer_factory.hpp:77] Creating layer relu4_2
I0811 12:22:17.918761 15518 net.cpp:91] Creating Layer relu4_2
I0811 12:22:17.918766 15518 net.cpp:425] relu4_2 <- conv4_2
I0811 12:22:17.918769 15518 net.cpp:386] relu4_2 -> conv4_2 (in-place)
I0811 12:22:17.918907 15518 net.cpp:141] Setting up relu4_2
I0811 12:22:17.918912 15518 net.cpp:148] Top shape: 1 512 72 88 (3244032)
I0811 12:22:17.918915 15518 net.cpp:156] Memory required for data: 876225824
I0811 12:22:17.918916 15518 layer_factory.hpp:77] Creating layer conv4_3
I0811 12:22:17.918925 15518 net.cpp:91] Creating Layer conv4_3
I0811 12:22:17.918926 15518 net.cpp:425] conv4_3 <- conv4_2
I0811 12:22:17.918931 15518 net.cpp:399] conv4_3 -> conv4_3
I0811 12:22:17.923642 15518 net.cpp:141] Setting up conv4_3
I0811 12:22:17.923667 15518 net.cpp:148] Top shape: 1 512 72 88 (3244032)
I0811 12:22:17.923671 15518 net.cpp:156] Memory required for data: 889201952
I0811 12:22:17.923679 15518 layer_factory.hpp:77] Creating layer relu4_3
I0811 12:22:17.923688 15518 net.cpp:91] Creating Layer relu4_3
I0811 12:22:17.923692 15518 net.cpp:425] relu4_3 <- conv4_3
I0811 12:22:17.923697 15518 net.cpp:386] relu4_3 -> conv4_3 (in-place)
I0811 12:22:17.924005 15518 net.cpp:141] Setting up relu4_3
I0811 12:22:17.924012 15518 net.cpp:148] Top shape: 1 512 72 88 (3244032)
I0811 12:22:17.924015 15518 net.cpp:156] Memory required for data: 902178080
I0811 12:22:17.924017 15518 layer_factory.hpp:77] Creating layer pool4
I0811 12:22:17.924024 15518 net.cpp:91] Creating Layer pool4
I0811 12:22:17.924027 15518 net.cpp:425] pool4 <- conv4_3
I0811 12:22:17.924032 15518 net.cpp:399] pool4 -> pool4
I0811 12:22:17.924077 15518 net.cpp:141] Setting up pool4
I0811 12:22:17.924089 15518 net.cpp:148] Top shape: 1 512 36 44 (811008)
I0811 12:22:17.924091 15518 net.cpp:156] Memory required for data: 905422112
I0811 12:22:17.924093 15518 layer_factory.hpp:77] Creating layer pool4_pool4_0_split
I0811 12:22:17.924108 15518 net.cpp:91] Creating Layer pool4_pool4_0_split
I0811 12:22:17.924109 15518 net.cpp:425] pool4_pool4_0_split <- pool4
I0811 12:22:17.924111 15518 net.cpp:399] pool4_pool4_0_split -> pool4_pool4_0_split_0
I0811 12:22:17.924115 15518 net.cpp:399] pool4_pool4_0_split -> pool4_pool4_0_split_1
I0811 12:22:17.924147 15518 net.cpp:141] Setting up pool4_pool4_0_split
I0811 12:22:17.924152 15518 net.cpp:148] Top shape: 1 512 36 44 (811008)
I0811 12:22:17.924154 15518 net.cpp:148] Top shape: 1 512 36 44 (811008)
I0811 12:22:17.924156 15518 net.cpp:156] Memory required for data: 911910176
I0811 12:22:17.924159 15518 layer_factory.hpp:77] Creating layer conv5_1
I0811 12:22:17.924165 15518 net.cpp:91] Creating Layer conv5_1
I0811 12:22:17.924167 15518 net.cpp:425] conv5_1 <- pool4_pool4_0_split_0
I0811 12:22:17.924171 15518 net.cpp:399] conv5_1 -> conv5_1
I0811 12:22:17.929003 15518 net.cpp:141] Setting up conv5_1
I0811 12:22:17.929039 15518 net.cpp:148] Top shape: 1 512 36 44 (811008)
I0811 12:22:17.929041 15518 net.cpp:156] Memory required for data: 915154208
I0811 12:22:17.929049 15518 layer_factory.hpp:77] Creating layer relu5_1
I0811 12:22:17.929056 15518 net.cpp:91] Creating Layer relu5_1
I0811 12:22:17.929070 15518 net.cpp:425] relu5_1 <- conv5_1
I0811 12:22:17.929075 15518 net.cpp:386] relu5_1 -> conv5_1 (in-place)
I0811 12:22:17.929425 15518 net.cpp:141] Setting up relu5_1
I0811 12:22:17.929432 15518 net.cpp:148] Top shape: 1 512 36 44 (811008)
I0811 12:22:17.929435 15518 net.cpp:156] Memory required for data: 918398240
I0811 12:22:17.929436 15518 layer_factory.hpp:77] Creating layer conv5_2
I0811 12:22:17.929455 15518 net.cpp:91] Creating Layer conv5_2
I0811 12:22:17.929457 15518 net.cpp:425] conv5_2 <- conv5_1
I0811 12:22:17.929461 15518 net.cpp:399] conv5_2 -> conv5_2
I0811 12:22:17.934090 15518 net.cpp:141] Setting up conv5_2
I0811 12:22:17.934114 15518 net.cpp:148] Top shape: 1 512 36 44 (811008)
I0811 12:22:17.934116 15518 net.cpp:156] Memory required for data: 921642272
I0811 12:22:17.934124 15518 layer_factory.hpp:77] Creating layer relu5_2
I0811 12:22:17.934131 15518 net.cpp:91] Creating Layer relu5_2
I0811 12:22:17.934135 15518 net.cpp:425] relu5_2 <- conv5_2
I0811 12:22:17.934139 15518 net.cpp:386] relu5_2 -> conv5_2 (in-place)
I0811 12:22:17.934278 15518 net.cpp:141] Setting up relu5_2
I0811 12:22:17.934284 15518 net.cpp:148] Top shape: 1 512 36 44 (811008)
I0811 12:22:17.934286 15518 net.cpp:156] Memory required for data: 924886304
I0811 12:22:17.934288 15518 layer_factory.hpp:77] Creating layer conv5_3
I0811 12:22:17.934295 15518 net.cpp:91] Creating Layer conv5_3
I0811 12:22:17.934298 15518 net.cpp:425] conv5_3 <- conv5_2
I0811 12:22:17.934300 15518 net.cpp:399] conv5_3 -> conv5_3
I0811 12:22:17.939129 15518 net.cpp:141] Setting up conv5_3
I0811 12:22:17.939153 15518 net.cpp:148] Top shape: 1 512 36 44 (811008)
I0811 12:22:17.939157 15518 net.cpp:156] Memory required for data: 928130336
I0811 12:22:17.939163 15518 layer_factory.hpp:77] Creating layer relu5_3
I0811 12:22:17.939175 15518 net.cpp:91] Creating Layer relu5_3
I0811 12:22:17.939178 15518 net.cpp:425] relu5_3 <- conv5_3
I0811 12:22:17.939193 15518 net.cpp:386] relu5_3 -> conv5_3 (in-place)
I0811 12:22:17.939471 15518 net.cpp:141] Setting up relu5_3
I0811 12:22:17.939477 15518 net.cpp:148] Top shape: 1 512 36 44 (811008)
I0811 12:22:17.939479 15518 net.cpp:156] Memory required for data: 931374368
I0811 12:22:17.939481 15518 layer_factory.hpp:77] Creating layer pool5
I0811 12:22:17.939487 15518 net.cpp:91] Creating Layer pool5
I0811 12:22:17.939489 15518 net.cpp:425] pool5 <- conv5_3
I0811 12:22:17.939493 15518 net.cpp:399] pool5 -> pool5
I0811 12:22:17.939535 15518 net.cpp:141] Setting up pool5
I0811 12:22:17.939539 15518 net.cpp:148] Top shape: 1 512 18 22 (202752)
I0811 12:22:17.939550 15518 net.cpp:156] Memory required for data: 932185376
I0811 12:22:17.939553 15518 layer_factory.hpp:77] Creating layer fc6
I0811 12:22:17.939568 15518 net.cpp:91] Creating Layer fc6
I0811 12:22:17.939570 15518 net.cpp:425] fc6 <- pool5
I0811 12:22:17.939576 15518 net.cpp:399] fc6 -> fc6
I0811 12:22:18.089103 15518 net.cpp:141] Setting up fc6
I0811 12:22:18.089130 15518 net.cpp:148] Top shape: 1 4096 12 16 (786432)
I0811 12:22:18.089133 15518 net.cpp:156] Memory required for data: 935331104
I0811 12:22:18.089141 15518 layer_factory.hpp:77] Creating layer relu6
I0811 12:22:18.089149 15518 net.cpp:91] Creating Layer relu6
I0811 12:22:18.089154 15518 net.cpp:425] relu6 <- fc6
I0811 12:22:18.089159 15518 net.cpp:386] relu6 -> fc6 (in-place)
I0811 12:22:18.089488 15518 net.cpp:141] Setting up relu6
I0811 12:22:18.089498 15518 net.cpp:148] Top shape: 1 4096 12 16 (786432)
I0811 12:22:18.089499 15518 net.cpp:156] Memory required for data: 938476832
I0811 12:22:18.089503 15518 layer_factory.hpp:77] Creating layer drop6
I0811 12:22:18.089512 15518 net.cpp:91] Creating Layer drop6
I0811 12:22:18.089515 15518 net.cpp:425] drop6 <- fc6
I0811 12:22:18.089519 15518 net.cpp:386] drop6 -> fc6 (in-place)
I0811 12:22:18.089555 15518 net.cpp:141] Setting up drop6
I0811 12:22:18.089560 15518 net.cpp:148] Top shape: 1 4096 12 16 (786432)
I0811 12:22:18.089561 15518 net.cpp:156] Memory required for data: 941622560
I0811 12:22:18.089563 15518 layer_factory.hpp:77] Creating layer fc7
I0811 12:22:18.089570 15518 net.cpp:91] Creating Layer fc7
I0811 12:22:18.089572 15518 net.cpp:425] fc7 <- fc6
I0811 12:22:18.089576 15518 net.cpp:399] fc7 -> fc7
I0811 12:22:18.115540 15518 net.cpp:141] Setting up fc7
I0811 12:22:18.115562 15518 net.cpp:148] Top shape: 1 4096 12 16 (786432)
I0811 12:22:18.115566 15518 net.cpp:156] Memory required for data: 944768288
I0811 12:22:18.115573 15518 layer_factory.hpp:77] Creating layer relu7
I0811 12:22:18.115582 15518 net.cpp:91] Creating Layer relu7
I0811 12:22:18.115586 15518 net.cpp:425] relu7 <- fc7
I0811 12:22:18.115602 15518 net.cpp:386] relu7 -> fc7 (in-place)
I0811 12:22:18.115900 15518 net.cpp:141] Setting up relu7
I0811 12:22:18.115918 15518 net.cpp:148] Top shape: 1 4096 12 16 (786432)
I0811 12:22:18.115921 15518 net.cpp:156] Memory required for data: 947914016
I0811 12:22:18.115924 15518 layer_factory.hpp:77] Creating layer drop7
I0811 12:22:18.115931 15518 net.cpp:91] Creating Layer drop7
I0811 12:22:18.115934 15518 net.cpp:425] drop7 <- fc7
I0811 12:22:18.115937 15518 net.cpp:386] drop7 -> fc7 (in-place)
I0811 12:22:18.115975 15518 net.cpp:141] Setting up drop7
I0811 12:22:18.115989 15518 net.cpp:148] Top shape: 1 4096 12 16 (786432)
I0811 12:22:18.115990 15518 net.cpp:156] Memory required for data: 951059744
I0811 12:22:18.115993 15518 layer_factory.hpp:77] Creating layer score_fr
I0811 12:22:18.116008 15518 net.cpp:91] Creating Layer score_fr
I0811 12:22:18.116010 15518 net.cpp:425] score_fr <- fc7
I0811 12:22:18.116024 15518 net.cpp:399] score_fr -> score_fr
I0811 12:22:18.117270 15518 net.cpp:141] Setting up score_fr
I0811 12:22:18.117280 15518 net.cpp:148] Top shape: 1 11 12 16 (2112)
I0811 12:22:18.117281 15518 net.cpp:156] Memory required for data: 951068192
I0811 12:22:18.117286 15518 layer_factory.hpp:77] Creating layer upscore2
I0811 12:22:18.117296 15518 net.cpp:91] Creating Layer upscore2
I0811 12:22:18.117310 15518 net.cpp:425] upscore2 <- score_fr
I0811 12:22:18.117312 15518 net.cpp:399] upscore2 -> upscore2
I0811 12:22:18.117465 15518 net.cpp:141] Setting up upscore2
I0811 12:22:18.117470 15518 net.cpp:148] Top shape: 1 11 26 34 (9724)
I0811 12:22:18.117470 15518 net.cpp:156] Memory required for data: 951107088
I0811 12:22:18.117478 15518 layer_factory.hpp:77] Creating layer upscore2_upscore2_0_split
I0811 12:22:18.117482 15518 net.cpp:91] Creating Layer upscore2_upscore2_0_split
I0811 12:22:18.117494 15518 net.cpp:425] upscore2_upscore2_0_split <- upscore2
I0811 12:22:18.117497 15518 net.cpp:399] upscore2_upscore2_0_split -> upscore2_upscore2_0_split_0
I0811 12:22:18.117502 15518 net.cpp:399] upscore2_upscore2_0_split -> upscore2_upscore2_0_split_1
I0811 12:22:18.117527 15518 net.cpp:141] Setting up upscore2_upscore2_0_split
I0811 12:22:18.117530 15518 net.cpp:148] Top shape: 1 11 26 34 (9724)
I0811 12:22:18.117533 15518 net.cpp:148] Top shape: 1 11 26 34 (9724)
I0811 12:22:18.117535 15518 net.cpp:156] Memory required for data: 951184880
I0811 12:22:18.117537 15518 layer_factory.hpp:77] Creating layer score_pool4
I0811 12:22:18.117542 15518 net.cpp:91] Creating Layer score_pool4
I0811 12:22:18.117545 15518 net.cpp:425] score_pool4 <- pool4_pool4_0_split_1
I0811 12:22:18.117548 15518 net.cpp:399] score_pool4 -> score_pool4
I0811 12:22:18.118398 15518 net.cpp:141] Setting up score_pool4
I0811 12:22:18.118407 15518 net.cpp:148] Top shape: 1 11 36 44 (17424)
I0811 12:22:18.118408 15518 net.cpp:156] Memory required for data: 951254576
I0811 12:22:18.118412 15518 layer_factory.hpp:77] Creating layer score_pool4c
I0811 12:22:18.118420 15518 net.cpp:91] Creating Layer score_pool4c
I0811 12:22:18.118422 15518 net.cpp:425] score_pool4c <- score_pool4
I0811 12:22:18.118435 15518 net.cpp:425] score_pool4c <- upscore2_upscore2_0_split_0
I0811 12:22:18.118439 15518 net.cpp:399] score_pool4c -> score_pool4c
I0811 12:22:18.118459 15518 net.cpp:141] Setting up score_pool4c
I0811 12:22:18.118463 15518 net.cpp:148] Top shape: 1 11 26 34 (9724)
I0811 12:22:18.118465 15518 net.cpp:156] Memory required for data: 951293472
I0811 12:22:18.118468 15518 layer_factory.hpp:77] Creating layer fuse_pool4
I0811 12:22:18.118472 15518 net.cpp:91] Creating Layer fuse_pool4
I0811 12:22:18.118474 15518 net.cpp:425] fuse_pool4 <- upscore2_upscore2_0_split_1
I0811 12:22:18.118476 15518 net.cpp:425] fuse_pool4 <- score_pool4c
I0811 12:22:18.118479 15518 net.cpp:399] fuse_pool4 -> fuse_pool4
I0811 12:22:18.118502 15518 net.cpp:141] Setting up fuse_pool4
I0811 12:22:18.118515 15518 net.cpp:148] Top shape: 1 11 26 34 (9724)
I0811 12:22:18.118517 15518 net.cpp:156] Memory required for data: 951332368
I0811 12:22:18.118520 15518 layer_factory.hpp:77] Creating layer upscore16
I0811 12:22:18.118533 15518 net.cpp:91] Creating Layer upscore16
I0811 12:22:18.118535 15518 net.cpp:425] upscore16 <- fuse_pool4
I0811 12:22:18.118540 15518 net.cpp:399] upscore16 -> upscore16
I0811 12:22:18.119232 15518 net.cpp:141] Setting up upscore16
I0811 12:22:18.119240 15518 net.cpp:148] Top shape: 1 11 432 560 (2661120)
I0811 12:22:18.119252 15518 net.cpp:156] Memory required for data: 961976848
I0811 12:22:18.119256 15518 layer_factory.hpp:77] Creating layer score
I0811 12:22:18.119261 15518 net.cpp:91] Creating Layer score
I0811 12:22:18.119263 15518 net.cpp:425] score <- upscore16
I0811 12:22:18.119266 15518 net.cpp:425] score <- data_data_0_split_1
I0811 12:22:18.119269 15518 net.cpp:399] score -> score
I0811 12:22:18.119287 15518 net.cpp:141] Setting up score
I0811 12:22:18.119292 15518 net.cpp:148] Top shape: 1 11 377 500 (2073500)
I0811 12:22:18.119293 15518 net.cpp:156] Memory required for data: 970270848
I0811 12:22:18.119294 15518 layer_factory.hpp:77] Creating layer loss
I0811 12:22:18.119299 15518 net.cpp:91] Creating Layer loss
I0811 12:22:18.119302 15518 net.cpp:425] loss <- score
I0811 12:22:18.119303 15518 net.cpp:425] loss <- label
I0811 12:22:18.119307 15518 net.cpp:399] loss -> loss
I0811 12:22:18.119313 15518 layer_factory.hpp:77] Creating layer loss
…
I0811 12:22:18.123492 15518 solver.cpp:181] Creating test net (#0) specified by test_net file: /home/cv/hdl/caffe/training/pascalpart-fcn16s/person/head/val.prototxt
I0811 12:22:18.123726 15518 net.cpp:49] Initializing net from parameters: 
state {
  phase: TEST
}
layer {
  name: "data"
  type: "Python"
  top: "data"
  top: "label"
  python_param {
    module: "pascalpart_layers"
    layer: "PASCALPartSegDataLayer"
    param_str: "{\'part\': \'head\', \'obj_cls\': \'person\', \'split\': \'val\', \'part_dir\': \'/home/cv/hdl/caffe/data/pascal/pascal-part\', \'seed\': 1337, \'voc_dir\': \'/home/cv/hdl/caffe/data/pascal/VOC\'}"
  }
}
layer {
  name: "conv1_1"
  type: "Convolution"
  bottom: "data"
  top: "conv1_1"
  param {
    lr_mult: 1
    decay_mult: 1
  }
  param {
    lr_mult: 2
    decay_mult: 0
  }
  convolution_param {
    num_output: 64
    pad: 100
    kernel_size: 3
    stride: 1
  }
}
layer {
  name: "relu1_1"
  type: "ReLU"
  bottom: "conv1_1"
  top: "conv1_1"
}
layer {
  name: "conv1_2"
  type: "Convolution"
  bottom: "conv1_1"
  top: "conv1_2"
  param {
    lr_mult: 1
    decay_mult: 1
  }
  param {
    lr_mult: 2
    decay_mult: 0
  }
  convolution_param {
    num_output: 64
    pad: 1
    kernel_size: 3
    stride: 1
  }
}
layer {
  name: "relu1_2"
  type: "ReLU"
  bottom: "conv1_2"
  top: "conv1_2"
}
layer {
  name: "pool1"
  type: "Pooling"
  bottom: "conv1_2"
  top: "pool1"
  pooling_param {
    pool: MAX
    kernel_size: 2
    stride: 2
  }
}
layer {
  name: "conv2_1"
  type: "Convolution"
  bottom: "pool1"
  top: "conv2_1"
  param {
    lr_mult: 1
    decay_mult: 1
  }
  param {
    lr_mult: 2
    decay_mult: 0
  }
  convolution_param {
    num_output: 128
    pad: 1
    kernel_size: 3
    stride: 1
  }
}
layer {
  name: "relu2_1"
  type: "ReLU"
  bottom: "conv2_1"
  top: "conv2_1"
}
layer {
  name: "conv2_2"
  type: "Convolution"
  bottom: "conv2_1"
  top: "conv2_2"
  param {
    lr_mult: 1
    decay_mult: 1
  }
  param {
    lr_mult: 2
    decay_mult: 0
  }
  convolution_param {
    num_output: 128
    pad: 1
    kernel_size: 3
    stride: 1
  }
}
layer {
  name: "relu2_2"
  type: "ReLU"
  bottom: "conv2_2"
  top: "conv2_2"
}
layer {
  name: "pool2"
  type: "Pooling"
  bottom: "conv2_2"
  top: "pool2"
  pooling_param {
    pool: MAX
    kernel_size: 2
    stride: 2
  }
}
layer {
  name: "conv3_1"
  type: "Convolution"
  bottom: "pool2"
  top: "conv3_1"
  param {
    lr_mult: 1
    decay_mult: 1
  }
  param {
    lr_mult: 2
    decay_mult: 0
  }
  convolution_param {
    num_output: 256
    pad: 1
    kernel_size: 3
    stride: 1
  }
}
layer {
  name: "relu3_1"
  type: "ReLU"
  bottom: "conv3_1"
  top: "conv3_1"
}
layer {
  name: "conv3_2"
  type: "Convolution"
  bottom: "conv3_1"
  top: "conv3_2"
  param {
    lr_mult: 1
    decay_mult: 1
  }
  param {
    lr_mult: 2
    decay_mult: 0
  }
  convolution_param {
    num_output: 256
    pad: 1
    kernel_size: 3
    stride: 1
  }
}
layer {
  name: "relu3_2"
  type: "ReLU"
  bottom: "conv3_2"
  top: "conv3_2"
}
layer {
  name: "conv3_3"
  type: "Convolution"
  bottom: "conv3_2"
  top: "conv3_3"
  param {
    lr_mult: 1
    decay_mult: 1
  }
  param {
    lr_mult: 2
    decay_mult: 0
  }
  convolution_param {
    num_output: 256
    pad: 1
    kernel_size: 3
    stride: 1
  }
}
layer {
  name: "relu3_3"
  type: "ReLU"
  bottom: "conv3_3"
  top: "conv3_3"
}
layer {
  name: "pool3"
  type: "Pooling"
  bottom: "conv3_3"
  top: "pool3"
  pooling_param {
    pool: MAX
    kernel_size: 2
    stride: 2
  }
}
layer {
  name: "conv4_1"
  type: "Convolution"
  bottom: "pool3"
  top: "conv4_1"
  param {
    lr_mult: 1
    decay_mult: 1
  }
  param {
    lr_mult: 2
    decay_mult: 0
  }
  convolution_param {
    num_output: 512
    pad: 1
    kernel_size: 3
    stride: 1
  }
}
layer {
  name: "relu4_1"
  type: "ReLU"
  bottom: "conv4_1"
  top: "conv4_1"
}
layer {
  name: "conv4_2"
  type: "Convolution"
  bottom: "conv4_1"
  top: "conv4_2"
  param {
    lr_mult: 1
    decay_mult: 1
  }
  param {
    lr_mult: 2
    decay_mult: 0
  }
  convolution_param {
    num_output: 512
    pad: 1
    kernel_size: 3
    stride: 1
  }
}
layer {
  name: "relu4_2"
  type: "ReLU"
  bottom: "conv4_2"
  top: "conv4_2"
}
layer {
  name: "conv4_3"
  type: "Convolution"
  bottom: "conv4_2"
  top: "conv4_3"
  param {
    lr_mult: 1
    decay_mult: 1
  }
  param {
    lr_mult: 2
    decay_mult: 0
  }
  convolution_param {
    num_output: 512
    pad: 1
    kernel_size: 3
    stride: 1
  }
}
layer {
  name: "relu4_3"
  type: "ReLU"
  bottom: "conv4_3"
  top: "conv4_3"
}
layer {
  name: "pool4"
  type: "Pooling"
  bottom: "conv4_3"
  top: "pool4"
  pooling_param {
    pool: MAX
    kernel_size: 2
    stride: 2
  }
}
layer {
  name: "conv5_1"
  type: "Convolution"
  bottom: "pool4"
  top: "conv5_1"
  param {
    lr_mult: 1
    decay_mult: 1
  }
  param {
    lr_mult: 2
    decay_mult: 0
  }
  convolution_param {
    num_output: 512
    pad: 1
    kernel_size: 3
    stride: 1
  }
}
layer {
  name: "relu5_1"
  type: "ReLU"
  bottom: "conv5_1"
  top: "conv5_1"
}
layer {
  name: "conv5_2"
  type: "Convolution"
  bottom: "conv5_1"
  top: "conv5_2"
  param {
    lr_mult: 1
    decay_mult: 1
  }
  param {
    lr_mult: 2
    decay_mult: 0
  }
  convolution_param {
    num_output: 512
    pad: 1
    kernel_size: 3
    stride: 1
  }
}
layer {
  name: "relu5_2"
  type: "ReLU"
  bottom: "conv5_2"
  top: "conv5_2"
}
layer {
  name: "conv5_3"
  type: "Convolution"
  bottom: "conv5_2"
  top: "conv5_3"
  param {
    lr_mult: 1
    decay_mult: 1
  }
  param {
    lr_mult: 2
    decay_mult: 0
  }
  convolution_param {
    num_output: 512
    pad: 1
    kernel_size: 3
    stride: 1
  }
}
layer {
  name: "relu5_3"
  type: "ReLU"
  bottom: "conv5_3"
  top: "conv5_3"
}
layer {
  name: "pool5"
  type: "Pooling"
  bottom: "conv5_3"
  top: "pool5"
  pooling_param {
    pool: MAX
    kernel_size: 2
    stride: 2
  }
}
layer {
  name: "fc6"
  type: "Convolution"
  bottom: "pool5"
  top: "fc6"
  param {
    lr_mult: 1
    decay_mult: 1
  }
  param {
    lr_mult: 2
    decay_mult: 0
  }
  convolution_param {
    num_output: 4096
    pad: 0
    kernel_size: 7
    stride: 1
  }
}
layer {
  name: "relu6"
  type: "ReLU"
  bottom: "fc6"
  top: "fc6"
}
layer {
  name: "drop6"
  type: "Dropout"
  bottom: "fc6"
  top: "fc6"
  dropout_param {
    dropout_ratio: 0.5
  }
}
layer {
  name: "fc7"
  type: "Convolution"
  bottom: "fc6"
  top: "fc7"
  param {
    lr_mult: 1
    decay_mult: 1
  }
  param {
    lr_mult: 2
    decay_mult: 0
  }
  convolution_param {
    num_output: 4096
    pad: 0
    kernel_size: 1
    stride: 1
  }
}
layer {
  name: "relu7"
  type: "ReLU"
  bottom: "fc7"
  top: "fc7"
}
layer {
  name: "drop7"
  type: "Dropout"
  bottom: "fc7"
  top: "fc7"
  dropout_param {
    dropout_ratio: 0.5
  }
}
layer {
  name: "score_fr"
  type: "Convolution"
  bottom: "fc7"
  top: "score_fr"
  param {
    lr_mult: 1
    decay_mult: 1
  }
  param {
    lr_mult: 2
    decay_mult: 0
  }
  convolution_param {
    num_output: 11
    pad: 0
    kernel_size: 1
  }
}
layer {
  name: "upscore2"
  type: "Deconvolution"
  bottom: "score_fr"
  top: "upscore2"
  param {
    lr_mult: 0
  }
  convolution_param {
    num_output: 11
    bias_term: false
    kernel_size: 4
    stride: 2
  }
}
layer {
  name: "score_pool4"
  type: "Convolution"
  bottom: "pool4"
  top: "score_pool4"
  param {
    lr_mult: 1
    decay_mult: 1
  }
  param {
    lr_mult: 2
    decay_mult: 0
  }
  convolution_param {
    num_output: 11
    pad: 0
    kernel_size: 1
  }
}
layer {
  name: "score_pool4c"
  type: "Crop"
  bottom: "score_pool4"
  bottom: "upscore2"
  top: "score_pool4c"
  crop_param {
    axis: 2
    offset: 5
  }
}
layer {
  name: "fuse_pool4"
  type: "Eltwise"
  bottom: "upscore2"
  bottom: "score_pool4c"
  top: "fuse_pool4"
  eltwise_param {
    operation: SUM
  }
}
layer {
  name: "upscore16"
  type: "Deconvolution"
  bottom: "fuse_pool4"
  top: "upscore16"
  param {
    lr_mult: 0
  }
  convolution_param {
    num_output: 11
    bias_term: false
    kernel_size: 32
    stride: 16
  }
}
layer {
  name: "score"
  type: "Crop"
  bottom: "upscore16"
  bottom: "data"
  top: "score"
  crop_param {
    axis: 2
    offset: 27
  }
}
layer {
  name: "loss"
  type: "SoftmaxWithLoss"
  bottom: "score"
  bottom: "label"
  top: "loss"
  loss_param {
    ignore_label: 255
    normalize: false
  }
}
I0811 12:22:18.123833 15518 layer_factory.hpp:77] Creating layer data
I0811 12:22:18.123874 15518 net.cpp:91] Creating Layer data
I0811 12:22:18.123878 15518 net.cpp:399] data -> data
I0811 12:22:18.123883 15518 net.cpp:399] data -> label
I0811 12:22:18.630127 15518 net.cpp:141] Setting up data
I0811 12:22:18.630146 15518 net.cpp:148] Top shape: 1 3 375 500 (562500)
I0811 12:22:18.630149 15518 net.cpp:148] Top shape: 1 1 375 500 (187500)
I0811 12:22:18.630151 15518 net.cpp:156] Memory required for data: 3000000
I0811 12:22:18.630156 15518 layer_factory.hpp:77] Creating layer data_data_0_split
I0811 12:22:18.630165 15518 net.cpp:91] Creating Layer data_data_0_split
I0811 12:22:18.630168 15518 net.cpp:425] data_data_0_split <- data
I0811 12:22:18.630182 15518 net.cpp:399] data_data_0_split -> data_data_0_split_0
I0811 12:22:18.630190 15518 net.cpp:399] data_data_0_split -> data_data_0_split_1
I0811 12:22:18.630242 15518 net.cpp:141] Setting up data_data_0_split
I0811 12:22:18.630249 15518 net.cpp:148] Top shape: 1 3 375 500 (562500)
I0811 12:22:18.630260 15518 net.cpp:148] Top shape: 1 3 375 500 (562500)
I0811 12:22:18.630262 15518 net.cpp:156] Memory required for data: 7500000
I0811 12:22:18.630264 15518 layer_factory.hpp:77] Creating layer conv1_1
I0811 12:22:18.630280 15518 net.cpp:91] Creating Layer conv1_1
I0811 12:22:18.630282 15518 net.cpp:425] conv1_1 <- data_data_0_split_0
I0811 12:22:18.630286 15518 net.cpp:399] conv1_1 -> conv1_1
I0811 12:22:18.632220 15518 net.cpp:141] Setting up conv1_1
I0811 12:22:18.632231 15518 net.cpp:148] Top shape: 1 64 573 698 (25597056)
I0811 12:22:18.632233 15518 net.cpp:156] Memory required for data: 109888224
I0811 12:22:18.632241 15518 layer_factory.hpp:77] Creating layer relu1_1
I0811 12:22:18.632247 15518 net.cpp:91] Creating Layer relu1_1
I0811 12:22:18.632249 15518 net.cpp:425] relu1_1 <- conv1_1
I0811 12:22:18.632262 15518 net.cpp:386] relu1_1 -> conv1_1 (in-place)
I0811 12:22:18.632550 15518 net.cpp:141] Setting up relu1_1
I0811 12:22:18.632558 15518 net.cpp:148] Top shape: 1 64 573 698 (25597056)
I0811 12:22:18.632560 15518 net.cpp:156] Memory required for data: 212276448
I0811 12:22:18.632563 15518 layer_factory.hpp:77] Creating layer conv1_2
I0811 12:22:18.632570 15518 net.cpp:91] Creating Layer conv1_2
I0811 12:22:18.632572 15518 net.cpp:425] conv1_2 <- conv1_1
I0811 12:22:18.632576 15518 net.cpp:399] conv1_2 -> conv1_2
I0811 12:22:18.634259 15518 net.cpp:141] Setting up conv1_2
I0811 12:22:18.634269 15518 net.cpp:148] Top shape: 1 64 573 698 (25597056)
I0811 12:22:18.634273 15518 net.cpp:156] Memory required for data: 314664672
I0811 12:22:18.634279 15518 layer_factory.hpp:77] Creating layer relu1_2
I0811 12:22:18.634284 15518 net.cpp:91] Creating Layer relu1_2
I0811 12:22:18.634285 15518 net.cpp:425] relu1_2 <- conv1_2
I0811 12:22:18.634289 15518 net.cpp:386] relu1_2 -> conv1_2 (in-place)
I0811 12:22:18.634436 15518 net.cpp:141] Setting up relu1_2
I0811 12:22:18.634443 15518 net.cpp:148] Top shape: 1 64 573 698 (25597056)
I0811 12:22:18.634444 15518 net.cpp:156] Memory required for data: 417052896
I0811 12:22:18.634446 15518 layer_factory.hpp:77] Creating layer pool1
I0811 12:22:18.634450 15518 net.cpp:91] Creating Layer pool1
I0811 12:22:18.634452 15518 net.cpp:425] pool1 <- conv1_2
I0811 12:22:18.634455 15518 net.cpp:399] pool1 -> pool1
I0811 12:22:18.634497 15518 net.cpp:141] Setting up pool1
I0811 12:22:18.634501 15518 net.cpp:148] Top shape: 1 64 287 349 (6410432)
I0811 12:22:18.634503 15518 net.cpp:156] Memory required for data: 442694624
I0811 12:22:18.634505 15518 layer_factory.hpp:77] Creating layer conv2_1
I0811 12:22:18.634511 15518 net.cpp:91] Creating Layer conv2_1
I0811 12:22:18.634513 15518 net.cpp:425] conv2_1 <- pool1
I0811 12:22:18.634516 15518 net.cpp:399] conv2_1 -> conv2_1
I0811 12:22:18.635960 15518 net.cpp:141] Setting up conv2_1
I0811 12:22:18.635968 15518 net.cpp:148] Top shape: 1 128 287 349 (12820864)
I0811 12:22:18.635972 15518 net.cpp:156] Memory required for data: 493978080
I0811 12:22:18.635977 15518 layer_factory.hpp:77] Creating layer relu2_1
I0811 12:22:18.635983 15518 net.cpp:91] Creating Layer relu2_1
I0811 12:22:18.635985 15518 net.cpp:425] relu2_1 <- conv2_1
I0811 12:22:18.635988 15518 net.cpp:386] relu2_1 -> conv2_1 (in-place)
I0811 12:22:18.636132 15518 net.cpp:141] Setting up relu2_1
I0811 12:22:18.636137 15518 net.cpp:148] Top shape: 1 128 287 349 (12820864)
I0811 12:22:18.636139 15518 net.cpp:156] Memory required for data: 545261536
I0811 12:22:18.636142 15518 layer_factory.hpp:77] Creating layer conv2_2
I0811 12:22:18.636147 15518 net.cpp:91] Creating Layer conv2_2
I0811 12:22:18.636149 15518 net.cpp:425] conv2_2 <- conv2_1
I0811 12:22:18.636152 15518 net.cpp:399] conv2_2 -> conv2_2
I0811 12:22:18.637605 15518 net.cpp:141] Setting up conv2_2
I0811 12:22:18.637614 15518 net.cpp:148] Top shape: 1 128 287 349 (12820864)
I0811 12:22:18.637617 15518 net.cpp:156] Memory required for data: 596544992
I0811 12:22:18.637621 15518 layer_factory.hpp:77] Creating layer relu2_2
I0811 12:22:18.637625 15518 net.cpp:91] Creating Layer relu2_2
I0811 12:22:18.637629 15518 net.cpp:425] relu2_2 <- conv2_2
I0811 12:22:18.637631 15518 net.cpp:386] relu2_2 -> conv2_2 (in-place)
I0811 12:22:18.637894 15518 net.cpp:141] Setting up relu2_2
I0811 12:22:18.637902 15518 net.cpp:148] Top shape: 1 128 287 349 (12820864)
I0811 12:22:18.637903 15518 net.cpp:156] Memory required for data: 647828448
I0811 12:22:18.637907 15518 layer_factory.hpp:77] Creating layer pool2
I0811 12:22:18.637910 15518 net.cpp:91] Creating Layer pool2
I0811 12:22:18.637912 15518 net.cpp:425] pool2 <- conv2_2
I0811 12:22:18.637917 15518 net.cpp:399] pool2 -> pool2
I0811 12:22:18.637948 15518 net.cpp:141] Setting up pool2
I0811 12:22:18.637951 15518 net.cpp:148] Top shape: 1 128 144 175 (3225600)
I0811 12:22:18.637953 15518 net.cpp:156] Memory required for data: 660730848
I0811 12:22:18.637955 15518 layer_factory.hpp:77] Creating layer conv3_1
I0811 12:22:18.637959 15518 net.cpp:91] Creating Layer conv3_1
I0811 12:22:18.637961 15518 net.cpp:425] conv3_1 <- pool2
I0811 12:22:18.637964 15518 net.cpp:399] conv3_1 -> conv3_1
I0811 12:22:18.639261 15518 net.cpp:141] Setting up conv3_1
I0811 12:22:18.639269 15518 net.cpp:148] Top shape: 1 256 144 175 (6451200)
I0811 12:22:18.639272 15518 net.cpp:156] Memory required for data: 686535648
I0811 12:22:18.639278 15518 layer_factory.hpp:77] Creating layer relu3_1
I0811 12:22:18.639282 15518 net.cpp:91] Creating Layer relu3_1
I0811 12:22:18.639284 15518 net.cpp:425] relu3_1 <- conv3_1
I0811 12:22:18.639287 15518 net.cpp:386] relu3_1 -> conv3_1 (in-place)
I0811 12:22:18.639400 15518 net.cpp:141] Setting up relu3_1
I0811 12:22:18.639405 15518 net.cpp:148] Top shape: 1 256 144 175 (6451200)
I0811 12:22:18.639407 15518 net.cpp:156] Memory required for data: 712340448
I0811 12:22:18.639410 15518 layer_factory.hpp:77] Creating layer conv3_2
I0811 12:22:18.639415 15518 net.cpp:91] Creating Layer conv3_2
I0811 12:22:18.639416 15518 net.cpp:425] conv3_2 <- conv3_1
I0811 12:22:18.639420 15518 net.cpp:399] conv3_2 -> conv3_2
I0811 12:22:18.641361 15518 net.cpp:141] Setting up conv3_2
I0811 12:22:18.641382 15518 net.cpp:148] Top shape: 1 256 144 175 (6451200)
I0811 12:22:18.641384 15518 net.cpp:156] Memory required for data: 738145248
I0811 12:22:18.641389 15518 layer_factory.hpp:77] Creating layer relu3_2
I0811 12:22:18.641394 15518 net.cpp:91] Creating Layer relu3_2
I0811 12:22:18.641397 15518 net.cpp:425] relu3_2 <- conv3_2
I0811 12:22:18.641401 15518 net.cpp:386] relu3_2 -> conv3_2 (in-place)
I0811 12:22:18.641535 15518 net.cpp:141] Setting up relu3_2
I0811 12:22:18.641541 15518 net.cpp:148] Top shape: 1 256 144 175 (6451200)
I0811 12:22:18.641552 15518 net.cpp:156] Memory required for data: 763950048
I0811 12:22:18.641554 15518 layer_factory.hpp:77] Creating layer conv3_3
I0811 12:22:18.641562 15518 net.cpp:91] Creating Layer conv3_3
I0811 12:22:18.641564 15518 net.cpp:425] conv3_3 <- conv3_2
I0811 12:22:18.641568 15518 net.cpp:399] conv3_3 -> conv3_3
I0811 12:22:18.644095 15518 net.cpp:141] Setting up conv3_3
I0811 12:22:18.644122 15518 net.cpp:148] Top shape: 1 256 144 175 (6451200)
I0811 12:22:18.644125 15518 net.cpp:156] Memory required for data: 789754848
I0811 12:22:18.644134 15518 layer_factory.hpp:77] Creating layer relu3_3
I0811 12:22:18.644140 15518 net.cpp:91] Creating Layer relu3_3
I0811 12:22:18.644153 15518 net.cpp:425] relu3_3 <- conv3_3
I0811 12:22:18.644157 15518 net.cpp:386] relu3_3 -> conv3_3 (in-place)
I0811 12:22:18.644450 15518 net.cpp:141] Setting up relu3_3
I0811 12:22:18.644457 15518 net.cpp:148] Top shape: 1 256 144 175 (6451200)
I0811 12:22:18.644469 15518 net.cpp:156] Memory required for data: 815559648
I0811 12:22:18.644472 15518 layer_factory.hpp:77] Creating layer pool3
I0811 12:22:18.644477 15518 net.cpp:91] Creating Layer pool3
I0811 12:22:18.644479 15518 net.cpp:425] pool3 <- conv3_3
I0811 12:22:18.644484 15518 net.cpp:399] pool3 -> pool3
I0811 12:22:18.644538 15518 net.cpp:141] Setting up pool3
I0811 12:22:18.644542 15518 net.cpp:148] Top shape: 1 256 72 88 (1622016)
I0811 12:22:18.644544 15518 net.cpp:156] Memory required for data: 822047712
I0811 12:22:18.644558 15518 layer_factory.hpp:77] Creating layer conv4_1
I0811 12:22:18.644565 15518 net.cpp:91] Creating Layer conv4_1
I0811 12:22:18.644575 15518 net.cpp:425] conv4_1 <- pool3
I0811 12:22:18.644579 15518 net.cpp:399] conv4_1 -> conv4_1
I0811 12:22:18.647398 15518 net.cpp:141] Setting up conv4_1
I0811 12:22:18.647428 15518 net.cpp:148] Top shape: 1 512 72 88 (3244032)
I0811 12:22:18.647429 15518 net.cpp:156] Memory required for data: 835023840
I0811 12:22:18.647436 15518 layer_factory.hpp:77] Creating layer relu4_1
I0811 12:22:18.647444 15518 net.cpp:91] Creating Layer relu4_1
I0811 12:22:18.647446 15518 net.cpp:425] relu4_1 <- conv4_1
I0811 12:22:18.647460 15518 net.cpp:386] relu4_1 -> conv4_1 (in-place)
I0811 12:22:18.647598 15518 net.cpp:141] Setting up relu4_1
I0811 12:22:18.647603 15518 net.cpp:148] Top shape: 1 512 72 88 (3244032)
I0811 12:22:18.647615 15518 net.cpp:156] Memory required for data: 847999968
I0811 12:22:18.647617 15518 layer_factory.hpp:77] Creating layer conv4_2
I0811 12:22:18.647624 15518 net.cpp:91] Creating Layer conv4_2
I0811 12:22:18.647626 15518 net.cpp:425] conv4_2 <- conv4_1
I0811 12:22:18.647629 15518 net.cpp:399] conv4_2 -> conv4_2
I0811 12:22:18.652251 15518 net.cpp:141] Setting up conv4_2
I0811 12:22:18.652287 15518 net.cpp:148] Top shape: 1 512 72 88 (3244032)
I0811 12:22:18.652289 15518 net.cpp:156] Memory required for data: 860976096
I0811 12:22:18.652300 15518 layer_factory.hpp:77] Creating layer relu4_2
I0811 12:22:18.652308 15518 net.cpp:91] Creating Layer relu4_2
I0811 12:22:18.652312 15518 net.cpp:425] relu4_2 <- conv4_2
I0811 12:22:18.652325 15518 net.cpp:386] relu4_2 -> conv4_2 (in-place)
I0811 12:22:18.652472 15518 net.cpp:141] Setting up relu4_2
I0811 12:22:18.652477 15518 net.cpp:148] Top shape: 1 512 72 88 (3244032)
I0811 12:22:18.652489 15518 net.cpp:156] Memory required for data: 873952224
I0811 12:22:18.652492 15518 layer_factory.hpp:77] Creating layer conv4_3
I0811 12:22:18.652498 15518 net.cpp:91] Creating Layer conv4_3
I0811 12:22:18.652500 15518 net.cpp:425] conv4_3 <- conv4_2
I0811 12:22:18.652503 15518 net.cpp:399] conv4_3 -> conv4_3
I0811 12:22:18.657142 15518 net.cpp:141] Setting up conv4_3
I0811 12:22:18.657174 15518 net.cpp:148] Top shape: 1 512 72 88 (3244032)
I0811 12:22:18.657177 15518 net.cpp:156] Memory required for data: 886928352
I0811 12:22:18.657186 15518 layer_factory.hpp:77] Creating layer relu4_3
I0811 12:22:18.657194 15518 net.cpp:91] Creating Layer relu4_3
I0811 12:22:18.657198 15518 net.cpp:425] relu4_3 <- conv4_3
I0811 12:22:18.657202 15518 net.cpp:386] relu4_3 -> conv4_3 (in-place)
I0811 12:22:18.657544 15518 net.cpp:141] Setting up relu4_3
I0811 12:22:18.657552 15518 net.cpp:148] Top shape: 1 512 72 88 (3244032)
I0811 12:22:18.657563 15518 net.cpp:156] Memory required for data: 899904480
I0811 12:22:18.657567 15518 layer_factory.hpp:77] Creating layer pool4
I0811 12:22:18.657574 15518 net.cpp:91] Creating Layer pool4
I0811 12:22:18.657577 15518 net.cpp:425] pool4 <- conv4_3
I0811 12:22:18.657580 15518 net.cpp:399] pool4 -> pool4
I0811 12:22:18.657625 15518 net.cpp:141] Setting up pool4
I0811 12:22:18.657630 15518 net.cpp:148] Top shape: 1 512 36 44 (811008)
I0811 12:22:18.657631 15518 net.cpp:156] Memory required for data: 903148512
I0811 12:22:18.657634 15518 layer_factory.hpp:77] Creating layer pool4_pool4_0_split
I0811 12:22:18.657647 15518 net.cpp:91] Creating Layer pool4_pool4_0_split
I0811 12:22:18.657649 15518 net.cpp:425] pool4_pool4_0_split <- pool4
I0811 12:22:18.657654 15518 net.cpp:399] pool4_pool4_0_split -> pool4_pool4_0_split_0
I0811 12:22:18.657656 15518 net.cpp:399] pool4_pool4_0_split -> pool4_pool4_0_split_1
I0811 12:22:18.657683 15518 net.cpp:141] Setting up pool4_pool4_0_split
I0811 12:22:18.657688 15518 net.cpp:148] Top shape: 1 512 36 44 (811008)
I0811 12:22:18.657691 15518 net.cpp:148] Top shape: 1 512 36 44 (811008)
I0811 12:22:18.657692 15518 net.cpp:156] Memory required for data: 909636576
I0811 12:22:18.657694 15518 layer_factory.hpp:77] Creating layer conv5_1
I0811 12:22:18.657701 15518 net.cpp:91] Creating Layer conv5_1
I0811 12:22:18.657702 15518 net.cpp:425] conv5_1 <- pool4_pool4_0_split_0
I0811 12:22:18.657707 15518 net.cpp:399] conv5_1 -> conv5_1
I0811 12:22:18.662956 15518 net.cpp:141] Setting up conv5_1
I0811 12:22:18.662986 15518 net.cpp:148] Top shape: 1 512 36 44 (811008)
I0811 12:22:18.662989 15518 net.cpp:156] Memory required for data: 912880608
I0811 12:22:18.662997 15518 layer_factory.hpp:77] Creating layer relu5_1
I0811 12:22:18.663015 15518 net.cpp:91] Creating Layer relu5_1
I0811 12:22:18.663020 15518 net.cpp:425] relu5_1 <- conv5_1
I0811 12:22:18.663027 15518 net.cpp:386] relu5_1 -> conv5_1 (in-place)
I0811 12:22:18.663209 15518 net.cpp:141] Setting up relu5_1
I0811 12:22:18.663216 15518 net.cpp:148] Top shape: 1 512 36 44 (811008)
I0811 12:22:18.663218 15518 net.cpp:156] Memory required for data: 916124640
I0811 12:22:18.663220 15518 layer_factory.hpp:77] Creating layer conv5_2
I0811 12:22:18.663228 15518 net.cpp:91] Creating Layer conv5_2
I0811 12:22:18.663231 15518 net.cpp:425] conv5_2 <- conv5_1
I0811 12:22:18.663234 15518 net.cpp:399] conv5_2 -> conv5_2
I0811 12:22:18.667830 15518 net.cpp:141] Setting up conv5_2
I0811 12:22:18.667852 15518 net.cpp:148] Top shape: 1 512 36 44 (811008)
I0811 12:22:18.667855 15518 net.cpp:156] Memory required for data: 919368672
I0811 12:22:18.667862 15518 layer_factory.hpp:77] Creating layer relu5_2
I0811 12:22:18.667870 15518 net.cpp:91] Creating Layer relu5_2
I0811 12:22:18.667873 15518 net.cpp:425] relu5_2 <- conv5_2
I0811 12:22:18.667878 15518 net.cpp:386] relu5_2 -> conv5_2 (in-place)
I0811 12:22:18.668030 15518 net.cpp:141] Setting up relu5_2
I0811 12:22:18.668037 15518 net.cpp:148] Top shape: 1 512 36 44 (811008)
I0811 12:22:18.668040 15518 net.cpp:156] Memory required for data: 922612704
I0811 12:22:18.668041 15518 layer_factory.hpp:77] Creating layer conv5_3
I0811 12:22:18.668050 15518 net.cpp:91] Creating Layer conv5_3
I0811 12:22:18.668051 15518 net.cpp:425] conv5_3 <- conv5_2
I0811 12:22:18.668056 15518 net.cpp:399] conv5_3 -> conv5_3
I0811 12:22:18.672811 15518 net.cpp:141] Setting up conv5_3
I0811 12:22:18.672833 15518 net.cpp:148] Top shape: 1 512 36 44 (811008)
I0811 12:22:18.672835 15518 net.cpp:156] Memory required for data: 925856736
I0811 12:22:18.672843 15518 layer_factory.hpp:77] Creating layer relu5_3
I0811 12:22:18.672857 15518 net.cpp:91] Creating Layer relu5_3
I0811 12:22:18.672860 15518 net.cpp:425] relu5_3 <- conv5_3
I0811 12:22:18.672875 15518 net.cpp:386] relu5_3 -> conv5_3 (in-place)
I0811 12:22:18.673194 15518 net.cpp:141] Setting up relu5_3
I0811 12:22:18.673203 15518 net.cpp:148] Top shape: 1 512 36 44 (811008)
I0811 12:22:18.673204 15518 net.cpp:156] Memory required for data: 929100768
I0811 12:22:18.673207 15518 layer_factory.hpp:77] Creating layer pool5
I0811 12:22:18.673214 15518 net.cpp:91] Creating Layer pool5
I0811 12:22:18.673218 15518 net.cpp:425] pool5 <- conv5_3
I0811 12:22:18.673221 15518 net.cpp:399] pool5 -> pool5
I0811 12:22:18.673262 15518 net.cpp:141] Setting up pool5
I0811 12:22:18.673267 15518 net.cpp:148] Top shape: 1 512 18 22 (202752)
I0811 12:22:18.673269 15518 net.cpp:156] Memory required for data: 929911776
I0811 12:22:18.673270 15518 layer_factory.hpp:77] Creating layer fc6
I0811 12:22:18.673277 15518 net.cpp:91] Creating Layer fc6
I0811 12:22:18.673280 15518 net.cpp:425] fc6 <- pool5
I0811 12:22:18.673282 15518 net.cpp:399] fc6 -> fc6
I0811 12:22:18.820875 15518 net.cpp:141] Setting up fc6
I0811 12:22:18.820901 15518 net.cpp:148] Top shape: 1 4096 12 16 (786432)
I0811 12:22:18.820904 15518 net.cpp:156] Memory required for data: 933057504
I0811 12:22:18.820911 15518 layer_factory.hpp:77] Creating layer relu6
I0811 12:22:18.820919 15518 net.cpp:91] Creating Layer relu6
I0811 12:22:18.820924 15518 net.cpp:425] relu6 <- fc6
I0811 12:22:18.820929 15518 net.cpp:386] relu6 -> fc6 (in-place)
I0811 12:22:18.821080 15518 net.cpp:141] Setting up relu6
I0811 12:22:18.821086 15518 net.cpp:148] Top shape: 1 4096 12 16 (786432)
I0811 12:22:18.821089 15518 net.cpp:156] Memory required for data: 936203232
I0811 12:22:18.821090 15518 layer_factory.hpp:77] Creating layer drop6
I0811 12:22:18.821094 15518 net.cpp:91] Creating Layer drop6
I0811 12:22:18.821096 15518 net.cpp:425] drop6 <- fc6
I0811 12:22:18.821100 15518 net.cpp:386] drop6 -> fc6 (in-place)
I0811 12:22:18.821135 15518 net.cpp:141] Setting up drop6
I0811 12:22:18.821140 15518 net.cpp:148] Top shape: 1 4096 12 16 (786432)
I0811 12:22:18.821141 15518 net.cpp:156] Memory required for data: 939348960
I0811 12:22:18.821142 15518 layer_factory.hpp:77] Creating layer fc7
I0811 12:22:18.821151 15518 net.cpp:91] Creating Layer fc7
I0811 12:22:18.821153 15518 net.cpp:425] fc7 <- fc6
I0811 12:22:18.821156 15518 net.cpp:399] fc7 -> fc7
I0811 12:22:18.847090 15518 net.cpp:141] Setting up fc7
I0811 12:22:18.847116 15518 net.cpp:148] Top shape: 1 4096 12 16 (786432)
I0811 12:22:18.847118 15518 net.cpp:156] Memory required for data: 942494688
I0811 12:22:18.847126 15518 layer_factory.hpp:77] Creating layer relu7
I0811 12:22:18.847143 15518 net.cpp:91] Creating Layer relu7
I0811 12:22:18.847148 15518 net.cpp:425] relu7 <- fc7
I0811 12:22:18.847153 15518 net.cpp:386] relu7 -> fc7 (in-place)
I0811 12:22:18.847295 15518 net.cpp:141] Setting up relu7
I0811 12:22:18.847301 15518 net.cpp:148] Top shape: 1 4096 12 16 (786432)
I0811 12:22:18.847311 15518 net.cpp:156] Memory required for data: 945640416
I0811 12:22:18.847314 15518 layer_factory.hpp:77] Creating layer drop7
I0811 12:22:18.847319 15518 net.cpp:91] Creating Layer drop7
I0811 12:22:18.847322 15518 net.cpp:425] drop7 <- fc7
I0811 12:22:18.847324 15518 net.cpp:386] drop7 -> fc7 (in-place)
I0811 12:22:18.847350 15518 net.cpp:141] Setting up drop7
I0811 12:22:18.847355 15518 net.cpp:148] Top shape: 1 4096 12 16 (786432)
I0811 12:22:18.847365 15518 net.cpp:156] Memory required for data: 948786144
I0811 12:22:18.847368 15518 layer_factory.hpp:77] Creating layer score_fr
I0811 12:22:18.847383 15518 net.cpp:91] Creating Layer score_fr
I0811 12:22:18.847385 15518 net.cpp:425] score_fr <- fc7
I0811 12:22:18.847389 15518 net.cpp:399] score_fr -> score_fr
I0811 12:22:18.848528 15518 net.cpp:141] Setting up score_fr
I0811 12:22:18.848536 15518 net.cpp:148] Top shape: 1 11 12 16 (2112)
I0811 12:22:18.848538 15518 net.cpp:156] Memory required for data: 948794592
I0811 12:22:18.848543 15518 layer_factory.hpp:77] Creating layer upscore2
I0811 12:22:18.848549 15518 net.cpp:91] Creating Layer upscore2
I0811 12:22:18.848551 15518 net.cpp:425] upscore2 <- score_fr
I0811 12:22:18.848556 15518 net.cpp:399] upscore2 -> upscore2
I0811 12:22:18.848726 15518 net.cpp:141] Setting up upscore2
I0811 12:22:18.848731 15518 net.cpp:148] Top shape: 1 11 26 34 (9724)
I0811 12:22:18.848731 15518 net.cpp:156] Memory required for data: 948833488
I0811 12:22:18.848739 15518 layer_factory.hpp:77] Creating layer upscore2_upscore2_0_split
I0811 12:22:18.848744 15518 net.cpp:91] Creating Layer upscore2_upscore2_0_split
I0811 12:22:18.848747 15518 net.cpp:425] upscore2_upscore2_0_split <- upscore2
I0811 12:22:18.848749 15518 net.cpp:399] upscore2_upscore2_0_split -> upscore2_upscore2_0_split_0
I0811 12:22:18.848762 15518 net.cpp:399] upscore2_upscore2_0_split -> upscore2_upscore2_0_split_1
I0811 12:22:18.848793 15518 net.cpp:141] Setting up upscore2_upscore2_0_split
I0811 12:22:18.848796 15518 net.cpp:148] Top shape: 1 11 26 34 (9724)
I0811 12:22:18.848799 15518 net.cpp:148] Top shape: 1 11 26 34 (9724)
I0811 12:22:18.848801 15518 net.cpp:156] Memory required for data: 948911280
I0811 12:22:18.848803 15518 layer_factory.hpp:77] Creating layer score_pool4
I0811 12:22:18.848816 15518 net.cpp:91] Creating Layer score_pool4
I0811 12:22:18.848819 15518 net.cpp:425] score_pool4 <- pool4_pool4_0_split_1
I0811 12:22:18.848822 15518 net.cpp:399] score_pool4 -> score_pool4
I0811 12:22:18.849717 15518 net.cpp:141] Setting up score_pool4
I0811 12:22:18.849726 15518 net.cpp:148] Top shape: 1 11 36 44 (17424)
I0811 12:22:18.849728 15518 net.cpp:156] Memory required for data: 948980976
I0811 12:22:18.849732 15518 layer_factory.hpp:77] Creating layer score_pool4c
I0811 12:22:18.849737 15518 net.cpp:91] Creating Layer score_pool4c
I0811 12:22:18.849740 15518 net.cpp:425] score_pool4c <- score_pool4
I0811 12:22:18.849742 15518 net.cpp:425] score_pool4c <- upscore2_upscore2_0_split_0
I0811 12:22:18.849756 15518 net.cpp:399] score_pool4c -> score_pool4c
I0811 12:22:18.849779 15518 net.cpp:141] Setting up score_pool4c
I0811 12:22:18.849783 15518 net.cpp:148] Top shape: 1 11 26 34 (9724)
I0811 12:22:18.849786 15518 net.cpp:156] Memory required for data: 949019872
I0811 12:22:18.849787 15518 layer_factory.hpp:77] Creating layer fuse_pool4
I0811 12:22:18.849792 15518 net.cpp:91] Creating Layer fuse_pool4
I0811 12:22:18.849793 15518 net.cpp:425] fuse_pool4 <- upscore2_upscore2_0_split_1
I0811 12:22:18.849795 15518 net.cpp:425] fuse_pool4 <- score_pool4c
I0811 12:22:18.849808 15518 net.cpp:399] fuse_pool4 -> fuse_pool4
I0811 12:22:18.849839 15518 net.cpp:141] Setting up fuse_pool4
I0811 12:22:18.849853 15518 net.cpp:148] Top shape: 1 11 26 34 (9724)
I0811 12:22:18.849853 15518 net.cpp:156] Memory required for data: 949058768
I0811 12:22:18.849855 15518 layer_factory.hpp:77] Creating layer upscore16
I0811 12:22:18.849869 15518 net.cpp:91] Creating Layer upscore16
I0811 12:22:18.849871 15518 net.cpp:425] upscore16 <- fuse_pool4
I0811 12:22:18.849874 15518 net.cpp:399] upscore16 -> upscore16
I0811 12:22:18.850123 15518 net.cpp:141] Setting up upscore16
I0811 12:22:18.850128 15518 net.cpp:148] Top shape: 1 11 432 560 (2661120)
I0811 12:22:18.850129 15518 net.cpp:156] Memory required for data: 959703248
I0811 12:22:18.850132 15518 layer_factory.hpp:77] Creating layer score
I0811 12:22:18.850136 15518 net.cpp:91] Creating Layer score
I0811 12:22:18.850138 15518 net.cpp:425] score <- upscore16
I0811 12:22:18.850141 15518 net.cpp:425] score <- data_data_0_split_1
I0811 12:22:18.850143 15518 net.cpp:399] score -> score
I0811 12:22:18.850162 15518 net.cpp:141] Setting up score
I0811 12:22:18.850164 15518 net.cpp:148] Top shape: 1 11 375 500 (2062500)
I0811 12:22:18.850167 15518 net.cpp:156] Memory required for data: 967953248
I0811 12:22:18.850167 15518 layer_factory.hpp:77] Creating layer loss
I0811 12:22:18.850172 15518 net.cpp:91] Creating Layer loss
I0811 12:22:18.850173 15518 net.cpp:425] loss <- score
I0811 12:22:18.850175 15518 net.cpp:425] loss <- label
I0811 12:22:18.850178 15518 net.cpp:399] loss -> loss
I0811 12:22:18.850183 15518 layer_factory.hpp:77] Creating layer loss
…
